resources/saved_models/text/text_generation_demo.ckpt (torch, 873470 bytes, 12 tensors)

rnn.weight_ih_l0 f4 [512, 65]
00000000: 5ebf e8be 3d7d 7b40 bff1 7b40 fe73 93c0
00000010: c46e a940 8b30 1ac0 526c ab3f 589c 8d3e
00000020: a940 02c0 4dbb 343f 08a3 2cbf f908 15be
00000030: fadd e3bf aebd 003f 04ae fe3f f4a3 14c0
00000040: f439 fb3f 9ce2 adbe 2a78 34be e3bd 0a40
00000050: 03eb 873f 1b45 2bbf a541 52c0 d374 afbe
00000060: 320c bc40 892f bbbe 4743 f13e 989d 6640
00000070: e24d 5540 7d94 dfbe 2471 9d3f 1e7d 27bc
00000080: bc3b 533e 6918 4e3f bc85 1fbf a9eb 4a3f
00000090: f545 0940 ee10 6a3f afa0 7240 8797 db40
000000a0: d41f 17bc 7a20 c2bf 30e6 08bf 9728 61c0
000000b0: b631 ee3f 007d 90bf ad42 a43f 73c4 9ebf
000000c0: 24ff 8bc0 2780 1440 9121 6f40 21ef 0c41
000000d0: dd4c 0d40 4a67 33c0 4247 55bf 2129 14c0
000000e0: 39bf 0c3f cb43 2840 1f38 2e3f 4fc2 19c0
000000f0: 397d ff3f c83c 1d3f 3e8b 9940 c061 ab40
00000100: f86f 61c0 c0c2 d03e fd32 a23f fde7 c43f
00000110: 29bf c0bf 7b0f d8c0 d75f 12c0 6f02 0fbf
00000120: f07a eb3e b564 87be 7704 1c3e dbce c7be
00000130: 088b 58be cae8 e43f bf32 573e 4ef9 893f
00000140: 6059 f93e a56b ea3f 2d5f 6240 fac7 613f
00000150: 884e 3fbf c978 713f c957 1340 718d 393f
00000160: 5afb 34c0 c534 c0bf fb44 3140 2fbf 1640
00000170: b1d2 643f 5a77 8a3d 6229 a840 ec40 a33f
00000180: 7afc f73f 7343 f93e 30ce 9e3f aa29 0ac0
00000190: e328 8c3f 26a4 c6bf e05c 1d40 2ae0 c03e
000001a0: cc98 a5be 255b 0abd cdf6 71be 7ab4 883f
000001b0: 984a df3e ed86 95be 2458 debe 4046 653e
000001c0: 7d4e af3d 5e6d 103f b74b 553e 1765 7f3f
000001d0: 8bfc bc3f 176b 363e 3c16 fcbf 9bf1 313f
000001e0: 38dc 9fbe c432 22bf 2ece 60be 0d42 c4be
000001f0: 7434 153f 3ef7 94bd c9b7 69bf 56e0 c4c0
00000200: 4bee 70be e33f 9e40 dbde 1b3f 954c f2bf
00000210: 0a03 be3f 5848 c93e f945 18bf 4ae5 613f
00000220: 2503 3640 62d6 48be 16e3 ad3c d176 8b3c
00000230: 52a5 523d b9ff a63f d8d7 23bf 6617 263f
00000240: 8300 ca3e 67ec 41bf b49c 3340 9cb6 0ac0
00000250: 707b 82bf c180 74bf 4511 733f fc2f 2040
00000260: ea13 babf 0680 5f3f 89e5 703f 3435 a93e
00000270: 4827 da3e 7c1d 6ac0 8b2d f53e 9294 d73f
00000280: 7c18 0bc0 c6a5 51bf cd54 103e fe51 08bf
00000290: f832 b73f af0d 0c40 c4a4 45bf 7d65 d6be
000002a0: be7c 4d3f 3910 143f 5fb1 38c0 df1b 18bf
000002b0: c0b4 8e3f 500a 9fbd 758d 5ac0 e04e 263f
000002c0: 0000 823e 283a 7d3f e17d 1dc0 3de3 e83f
000002d0: 6477 f63f 4675 8740 6f79 fc3c 0e64 0fc0
000002e0: 55c9 a03f 89d8 b7be 3fb6 953f eafc 633f
000002f0: fc6f 13bf 03eb 6e3f c55e 44be 07c5 d3bf
00000300: 5b72 f8bc be25 f1bf 667a b9bf 34d3 7c40
00000310: b4a0 9ebf 99b3 fdbf 8679 a2bf 931b f8bf
00000320: 1693 5cbf fc52 74c0 4e24 8e3d 162c 2e3e
00000330: 05e6 9e3f 86a7 2ec0 8a8c edbf ac45 3cc0
00000340: 84c8 dc3e 75a8 afbc f162 133e 194f 18bf
00000350: 261c 973e 8f89 54bd 5762 8fbf cbb2 91be
00000360: 467c e73e e7de 963e a02a 21bf 21a4 bd3e
00000370: 2064 733f ed9b babe 81ef 1bbe 2022 203f
00000380: bd8e 9a3f 4daf 24bf ea36 98bd bea5 513f
00000390: a166 103f 2c43 4e3f 1560 323d df19 683f
000003a0: 99de 0dbf dff6 bd40 93f6 173f 6a26 aebe
000003b0: f4d1 e8be 7e72 38be a455 0c3f d502 02bf
000003c0: a3f3 c5be 0ceb d3bc ce8d 943e e3d9 823e
000003d0: 1bda 2fbf 6806 2fbe b04f 843d e28d 363e
000003e0: d778 133f 7119 64bf 9c00 8dbf d2af 9c3e
000003f0: f267 d7be 30c1 39bf 22b3 893f da6c e2bd
-0.45458502 3.929519 3.93663 -4.607909 5.294771 -2.4092128 1.3392432 0.27658343
-2.0351965 0.705983 -0.67436266 -0.14554204 -1.7802117 0.5028943 1.9896855 -2.322507
1.9627061 -0.33961952 -0.17623964 2.1678398 1.0618595 -0.6690232 -3.2852566 -0.34268817
5.8764887 -0.36559704 0.4712164 3.6033688 3.3328786 -0.43667975 1.2300153 -0.010222701
0.20628256 0.80505997 -0.6231344 0.7926584 2.1448948 0.9143208 3.7910573 6.862247
-0.009223897 -1.5166161 -0.5347624 -3.5181024 1.860892 -1.1288147 1.2832848 -1.2403702
-4.374895 2.3203218 3.7364237 8.808381 2.2078164 -2.8031793 -0.83311856 -2.3150103
0.5497928 2.6291378 0.68054384 -2.4024847 1.996009 0.6142087 4.7982473 5.3556824
-3.522459 0.40773582 1.267181 1.5383297 -1.5058337 -6.7518897 -2.2870996 -0.5586309
0.4599223 -0.2644402 0.15236078 -0.39025006 -0.21146786 1.7883542 0.21015452 1.0779207
0.48701 1.83141 3.537059 0.88195765 -0.74729204 0.9432493 2.302233 0.7248145
-2.8278413 -1.5016104 2.7698352 2.355419 0.8938399 0.06761046 5.2550516 1.2754188
1.9373925 0.48684272 1.2406673 -2.158793 1.0949978 -1.5518844 2.4587936 0.37671024
-0.32343137 -0.03377833 -0.23629303 1.0680077 0.43611598 -0.29204503 -0.4342662 0.2239008
0.08559892 0.5641688 0.20829664 0.99763626 1.476457 0.17814289 -1.9694285 0.69509286
-0.312227 -0.6335871 -0.21953651 -0.38331643 0.5828316 -0.0727372 -0.9129606 -6.1523848
-0.23528402 4.9452987 0.60886925 -1.8929621 1.4844677 0.39313006 -0.5948177 0.8824049
2.843942 -0.1961303 0.021226447 0.01702443 0.051427193 1.304679 -0.64001226 0.64879453
0.39453515 -0.75751346 2.8064394 -2.1673956 -1.019392 -0.9550896 0.94948226 2.5029287
-1.4537327 0.87304723 0.9410024 0.33048403 0.42608094 -3.6580496 0.4788631 1.6842215
-2.1733694 -0.81893575 0.14094849 -0.5325011 1.431243 2.1883352 -0.7720454 -0.41874304
0.80268466 0.57837254 -2.8858259 -0.5941753 1.114891 -0.07765639 -3.4148839 0.64964104
0.25390625 0.98916864 -2.460808 1.8194348 1.9255185 4.2330656 0.030819623 -2.2404819
1.2561442 -0.3590739 1.1696242 0.8905779 -0.5759275 0.9332735 -0.19176777 -1.6544503
-0.030327966 -1.8839643 -1.4490478 3.9503908 -1.2392793 -1.9820434 -1.2693336 -1.9383415
-0.86161935 -3.817565 0.06940518 0.17009005 1.2413946 -2.7289748 -1.8558514 -2.9417524
0.4312173 -0.021442631 0.14393212 -0.59495693 0.29513663 -0.051889 -1.1201886 -0.2845672
0.45212 0.29466936 -0.62955666 0.37039283 0.95074654 -0.36447087 -0.15228082 0.6255207
1.207481 -0.6432999 -0.07432349 0.8189353 0.564066 0.80571246 0.043548662 0.90664476
-0.5541778 5.9363856 0.5936062 -0.34013683 -0.45472682 -0.18012425 0.5481818 -0.5078557
-0.38662443 -0.025868915 0.29014438 0.2555686 -0.6869218 -0.17092288 0.06460512 0.17827561
0.5760626 -0.8910132 -1.1015811 0.3060289 -0.4207149 -0.72560406 1.0757792 -0.11055918

rnn.weight_hh_l0 f4 [512, 128]
00000000: 8da5 7f3f 42bb 01c0 ac42 7d40 f649 8a3f
00000010: e90e 3a3e 19d3 9bbf 1a04 eb3e 8f5e df3f
00000020: c0e9 d33f d812 18bf 54f5 a0bd ea58 0abe
00000030: ce5e 73be fb26 ecbf 71ec ca3f fc73 333f
00000040: 157b 3c3f f317 a43d f695 3e3f dd58 3b3f
00000050: f5eb 68be b563 ec3f a64e 8f3f 2a83 74c0
00000060: d30f 903e edff d9bf c9cc 98bf 32a7 a13f
00000070: d423 b8bf 4b64 8ebf 68ea d5bc dc47 663f
00000080: 3755 4abe 0ea7 ef3f 33da b2be 492e 4dbf
00000090: bb41 09c0 0e61 07bf bb8d 92bd 7354 d5bf
000000a0: 3023 3f3f 2222 af3e d028 783f a4ca 5040
000000b0: 6f09 90bf 28ff 6e3e 9e59 63bf 4e24 833e
000000c0: 8c29 cebf 6942 453f cd95 473f 4ecf 06be
000000d0: 245c 253f b200 b2bf f168 ac3c 635d fa3f
000000e0: ad07 da3f cb98 12be 8918 ae3d 612d a23e
000000f0: 6383 4f3f b993 b53f 5d2e bebf a4b9 c7be
00000100: 8768 53bf 56a1 f43d ca68 67c0 b15e ef3f
00000110: 96c6 1abf 9141 2ac0 1ced 5a3e dbe3 14c0
00000120: 903f ea3d 9cd0 953e b656 bebe 9b52 23be
00000130: f49e 533f 1dee 76bf 51b5 9a3f 56e7 443e
00000140: 9290 b03f 67f3 073f c5e5 ab3f 1b9e 5ebf
00000150: 9118 cebf 2aff 7cbf de31 80be 3ab8 593e
00000160: 4b7b 913f 7d70 91bf e9ac 7c3e 0af8 f13f
00000170: 10f5 143f 9055 11be b56f 223f bb03 3cbf
00000180: 7008 39bf 55d8 06be 4c73 ccbe b9e4 1ec0
00000190: c2be ab3f 408e 60be 4483 ce3f 8cbe 43be
000001a0: cbf8 39bf e069 31bf c0eb e13e e827 e2be
000001b0: 96df 73bf 7d3b fb3e 3d3c 093d 8e52 bcbe
000001c0: b942 a6bf 0f04 eb3f b11b 21c0 e490 343f
000001d0: 84e4 8fbf 03bb 1540 4a7a f13e 1831 a93f
000001e0: 9944 adbd 2821 5cbf 9e0e 2cc0 28ba 913f
000001f0: 2de4 26c0 5adc 2540 71db fdbe 24a3 0c3f
00000200: 8698 84bd 3b20 5d40 02c1 2240 a627 bebf
00000210: 981e 77be 7491 58be 204b 193f 8c15 e63f
00000220: ccea 2640 c058 a0bf 2193 173f c41f a2bf
00000230: d433 46bf 8737 103e ed93 8c3f af1f b03f
00000240: 1a48 57c0 9461 893f 32b4 55bf fe9c b9bf
00000250: 7824 02c0 b295 713f 8c74 3dc0 4d1e a7bf
00000260: 3824 97bf 9eeb 3a3e ab82 9f3f 4f50 8a3d
00000270: da8b d3be 9da1 493e 875a 0c40 6738 1940
00000280: f9ae a03e e4f6 42bf 373b e83f 40fd 90bf
00000290: 953c 8fc0 4811 873f dbf9 b1be 81f2 96bf
000002a0: c239 943f a62c 63c0 15e3 f8bd 2285 3d3d
000002b0: 3b1d 7c3e e08d 00bf 23eb 0840 cb5f 05bf
000002c0: 6426 c2bf 73e1 fabf 5e14 7e3e 0f31 e1be
000002d0: 3f87 a4bf 9d69 353f 280a a7bf 37cc 953e
000002e0: ce06 79bf e139 983f 0f74 70bf 86ca 763f
000002f0: 3bf3 963f eb77 8cbe de8e 8fbf d5ce 953f
00000300: 37a4 14bf 9af1 8cbe 5694 713f 9d51 023f
00000310: 2a93 35bf 784b bebf 250e f23f 252b fdbe
00000320: 6272 d53e f39e efbd fb9b 3cbf 05bc b2be
00000330: 7ce1 c2bf 0999 a63e 5bde bebf 3f30 a3bf
00000340: a02a 6d3e 53e9 753f babd 15bf 310e 09c0
00000350: 410a 89bf d39b 67bf 8bd4 44bf aede 11c0
00000360: 9e68 81c0 6b38 18bf b0d7 ad3f dc41 2540
00000370: debb ddbe f53c 973d 95b0 2840 1111 80bd
00000380: 2e77 a23f aeab 9a3f 0a74 843e 7288 91be
00000390: a4d0 07bf c24c a23e 66bd c43f 2888 843f
000003a0: 624c 143e 9fab 8ebf e32d b5bf 2010 3740
000003b0: cbcf 7e3d 7875 73bf d0c3 b0bf 73e6 3f40
000003c0: d826 eb3e 7ce5 8ebf b6a9 4740 ee86 a4bf
000003d0: b5e2 1bbd c683 84bf 544f 3c3f cbd3 5e3f
000003e0: 566d 883e c6f0 57c0 64d6 873f 3014 64bf
000003f0: 6e59 0a3f 5dad ecbf 7638 0cbe dd80 473f
0.99861985 -2.0270543 3.9571943 1.0803821 0.1816975 -1.2173797 0.45901567 1.7450732
1.655571 -0.59403753 -0.078592926 -0.1351048 -0.23766634 -1.8449396 1.5853406 0.70098853
0.7362531 0.080123805 0.7444757 0.7318247 -0.2274626 1.8467928 1.1195877 -3.8205056
0.28137073 -1.7031227 -1.1937495 1.2629149 -1.4385934 -1.1124357 -0.02611275 0.899534
-0.1975907 1.8722856 -0.34932098 -0.8014875 -2.1446369 -0.5288247 -0.07155939 -1.6666397
0.74663067 0.3420573 0.96937275 3.2623682 -1.1252879 0.23339522 -0.8880862 0.25613636
-1.6106429 0.7705446 0.7796295 -0.13165018 0.6459372 -1.3906462 0.021046134 1.9559749
1.7033592 -0.14316098 0.085007735 0.31675246 0.81059855 1.4185706 -1.4857899 -0.3900882
-0.8258137 0.11944835 -3.6157708 1.8700773 -0.6045927 -2.6602519 0.21379513 -2.3264072
0.11437905 0.2926072 -0.3717553 -0.1594948 0.8266442 -0.9645708 1.2086583 0.19228873
1.3794119 0.5310578 1.3429495 -0.8696 -1.6101247 -0.9882685 -0.25038046 0.21261683
1.1365751 -1.1362454 0.24675335 1.890382 0.58186436 -0.14192796 0.634517 -0.7344319
-0.722785 -0.13168462 -0.39931715 -2.4827101 1.341759 -0.21929264 1.6133809 -0.19115657
-0.7264525 -0.6930218 0.44125175 -0.4417107 -0.9526304 0.49068823 0.033504713 -0.36781734
-1.2989112 1.8360614 -2.5173151 0.70533586 -1.1241612 2.3395393 0.47163612 1.3218107
-0.084603496 -0.8598809 -2.6883922 1.1384935 -2.6076767 2.5915742 -0.49581483 0.5493643
-0.06474404 3.4550922 2.5430303 -1.485585 -0.24132764 -0.21149236 0.59880257 1.7975326
2.6080809 -1.2527084 0.59208876 -1.2665944 -0.77422833 0.14083682 1.0982643 1.3759669
-3.3637757 1.0732903 -0.8347808 -1.4501035 -2.0334759 0.9436904 -2.9602385 -1.3056122
-1.1807928 0.18253943 1.2461752 0.06753599 -0.41317636 0.19690557 2.1930254 2.3940675
0.31383494 -0.76157975 1.8143071 -1.1327286 -4.4761453 1.0552149 -0.34760937 -1.1792756
1.1580126 -3.5496001 -0.121526875 0.046269543 0.24620526 -0.50216484 2.1393516 -0.52099293
-1.5167966 -1.9600052 0.24812457 -0.4398274 -1.2853774 0.7086428 -1.3049974 0.29257366
-0.9727601 1.1892663 -0.9392709 0.96402776 1.1792978 -0.2743524 -1.1215475 1.1703745
-0.5806307 -0.27528077 0.9436697 0.5090578 -0.7092768 -1.4866781 1.8910567 -0.4944698
0.4168883 -0.11700239 -0.7367551 -0.34909073 -1.5225062 0.32538632 -1.4911608 -1.2749099
0.23160791 0.9605915 -0.58492625 -2.1414912 -1.0706254 -0.90472144 -0.76886815 -2.2792163
-4.0440207 -0.59461087 1.3581448 2.5821447 -0.43307394 0.073846735 2.6357777 -0.06253255
1.2692621 1.2083642 0.2586978 -0.28424412 -0.53052735 0.31699187 1.53703 1.0354052
0.14482263 -1.1146125 -1.4154629 2.8603592 0.062209886 -0.9510112 -1.3809757 2.9984405
0.45928073 -1.1163783 3.1197333 -1.2853677 -0.038058 -1.0352714 0.73558545 0.8704192
0.26645917 -3.3740706 1.0612302 -0.89093304 0.5404271 -1.8490406 -0.13693413 0.77931005

rnn.bias_ih_l0 f4 [512]
00000000: d0e3 c73e bf69 44bd 9025 7e3f 6da0 0fbf
00000010: d4d5 ac3e e786 af3e 1abf c9be 03a1 9c3e
00000020: d8c3 d3be 3882 6cbe d2b4 613e 86be 31be
00000030: 9eda 23bf fb6a 7a3e 85c1 00bf 1382 d5be
00000040: 6ce8 38bf 7692 d5be 4d23 40bd f93b f23e
00000050: 5719 13bf d2a4 36be 7858 1b3d 48a2 49bc
00000060: 365b b4be 6241 28bf c4a6 24bd 117e aabf
00000070: 760b 6dbf 05fd a53e a0f2 11bf c499 85be
00000080: 9a72 5bbe 2727 adbe e9cf 2bbf 49f8 8a3e
00000090: cf29 b7be 8a5f 42bf 1be2 163d 59c0 71be
000000a0: 8896 233f 0783 97bd 6355 0abf 3de1 48bf
000000b0: 4184 b5be 91a9 22bf f0ac 12bf e327 723c
000000c0: d33c 2abf 33f3 87be e260 09be d7b9 b3be
000000d0: 6f2f d53d f608 debe 77d5 03bf 9d64 1abf
000000e0: f0cd 3f3e 0cdf 553f 7d2b 8c3e d169 533f
000000f0: dbeb e1be 11c7 63be b408 85bf e82a e2be
00000100: f8b4 8bbf 523e cb3c 6214 49be 5922 213e
00000110: 44fb fa3d 7a28 1dbf 0012 e9be 2aa5 ab3f
00000120: 0a7b e2be d1d8 e2be 10ab fe3c 9b5e cb3d
00000130: a9c8 9e3e c4d4 8bbf 6555 8d3c 60a8 14bf
00000140: 69bb 1ebf 381a cfbe 9b7e 6c3f fe00 113f
00000150: 411c 94bf d677 2e3e 7b89 0abf 6fda 8a3e
00000160: f523 3abf 8cf9 d6be 846e 013f 5626 dabe
00000170: 5bf2 cfbe 32dc 8c3e 35ab 7ebc 359d a5be
00000180: 0274 26bf 2e7a 21bf b72a 49bf e6aa 97be
00000190: 43e8 81be 2559 4e3e bcb8 5f3f ba81 c43f
000001a0: f90a 4a3f c99e a3bd 9e90 75be 157b b43d
000001b0: 37d4 a5bd 6f7d c7be d3eb 263f 50e7 e1bd
000001c0: 7760 613f 53f9 e43e 1673 0e3f 19c7 283f
000001d0: 7ed6 c6be 6a26 3bbf b5e9 15bf 1e87 223e
000001e0: d7ed cbbd 3c95 0bbe 8833 bb3e 54a7 a7be
000001f0: 8737 32bf 79d1 c2be 0b04 25be 2032 f7be
00000200: f1b7 233e 5d24 933f a619 e23f 41b6 dc3e
00000210: 7ab6 f13d 71e6 7c3f b57a db3e a580 6d3f
00000220: abd1 863f b777 823f 92c4 bb3e bf6b aa3c
00000230: 7a2b 13bf 37a9 223e 9b3c 403e 93ae a23f
00000240: c2e6 f03f fa3f cd3e c9cd f03f 616c 0540
00000250: 6a9e 453d f8de 71be e052 583e 2dc2 533f
00000260: 0368 8b3e 0053 61bd a87b 043f 6d7b 423f
00000270: 236c 12be 273c b23f 5cfd d8bd ede2 f03e
00000280: 07c1 9ebc 5eb0 a43f 72e3 483f bbfa 113f
00000290: b007 1a3e 2854 2f3f 9fad 813f 589d f53e
000002a0: b4e6 2d3f 2507 dd3f 0011 7a3f b289 3fbe
000002b0: f558 913f e9a7 3a3f 07ac 65be d853 0f3e
000002c0: 0304 75be bac9 743e 3115 f8bd c503 9dbd
000002d0: 1a2f c13f 5a5c dabe a95d e03e 4e72 a03e
000002e0: e236 ff3f c369 e53e 39a4 543f 77c1 943f
000002f0: 9c4e aa3d 1c3b 353f 1238 803f 3468 14be
00000300: 8448 793f 859f 713e 6359 503f 9234 893f
00000310: ecc8 603c 2a57 fd3f 22d3 8f3e eda3 6c3f
00000320: 31e0 e5bd 179a c3bd 8007 5c3e 9b66 0c3f
00000330: 1935 003f b52c 683f 625c b83e 9c69 8e3f
00000340: abfc 453e a117 df3f 04ed 8a3f 9c9c b93f
00000350: 0d73 243d dce8 ab3f bec8 28bd 3460 a03d
00000360: 1a22 cb3e 7722 d33d 4b30 1abf 8b17 393f
00000370: 4cea d3be 7c42 583f 48c2 0c3f 8c7e 0dbe
00000380: 6123 0fbe d71c dcbe 0002 423f 8327 39be
00000390: 5304 033f 2de6 c83f 07a8 cc3f d35b 5a3f
000003a0: b09e ec3f 4096 d13f b5c4 f9bd e171 a33f
000003b0: 16cc ac3f 9b9c 69be decc 9a3f 58cc b43f
000003c0: b809 953f 9e1c 0540 9da5 ab3f ee29 963f
000003d0: a7c8 353f ba3d 4d3c c316 c9be 4155 6d3f
000003e0: 73cf 553f 2909 aa3e 2df1 bf3f 3232 d03f
000003f0: a5e5 a13e 98c5 e63e 4047 b43f 3429 3c3d
0.39040995 -0.04795241 0.99276066 -0.56104165 0.33756888 0.3428261 -0.3940361 0.30591592
-0.41360354 -0.2309655 0.22041634 -0.17357835 -0.6400546 0.24454872 -0.5029529 -0.417008
-0.7222965 -0.41713303 -0.046908665 0.4731138 -0.5746054 -0.17836311 0.037926167 -0.012306757
-0.35225838 -0.65724766 -0.040198103 -1.3319722 -0.92595613 0.324196 -0.5701084 -0.26093876
-0.21430436 -0.33818933 -0.6711412 0.27142552 -0.35774085 -0.7592703 0.036836725 -0.23608531
0.6390157 -0.07398038 -0.5403654 -0.78468686 -0.35452464 -0.6353999 -0.5729513 0.014780018
-0.6649906 -0.26552734 -0.13415864 -0.35102722 0.10409438 -0.43366212 -0.51497597 -0.60309774
0.18730903 0.8354347 0.2737693 0.8258334 -0.44125256 -0.22243907 -1.0393281 -0.4417336
-1.0914602 0.02480999 -0.19636682 0.15735759 0.12254956 -0.6138989 -0.45521545 1.3409779
-0.44234496 -0.44306043 0.031087428 0.09930154 0.31012467 -1.0924306 0.017252633 -0.5806942
-0.62004715 -0.4044969 0.92380685 0.5664214 -1.1571122 0.17037901 -0.5411603 0.27119777
-0.72711116 -0.41987264 0.5055926 -0.42607373 -0.4061459 0.27511746 -0.015543749 -0.32346502
-0.65020764 -0.63077056 -0.785808 -0.29622573 -0.25372514 0.20151193 0.8739126 1.535209
0.7892299 -0.0798927 -0.23980948 0.088125385 -0.080971174 -0.38962886 0.6520359 -0.110304475
0.8803782 0.4472147 0.5564436 0.659288 -0.3883552 -0.7310549 -0.58559734 0.15871856
-0.09957474 -0.13631147 0.36562753 -0.3274485 -0.6961598 -0.3805044 -0.16114824 -0.4828043
0.15988137 1.1495472 1.7664077 0.431078 0.11802383 0.98789126 0.42867056 0.9277442
1.0532736 1.0192784 0.3667341 0.02080333 -0.57488215 0.15884863 0.18773119 1.2709526
1.8820422 0.40087873 1.8812801 2.08474 0.04824678 -0.23620212 0.21125364 0.82718164
0.27227792 -0.055010796 0.51751184 0.7596958 -0.14299063 1.3924607 -0.105951995 0.4704813
-0.019379152 1.2866323 0.78472054 0.5702321 0.15041995 0.6848779 1.013111 0.47971606
0.6793015 1.7267805 0.9768219 -0.1870487 1.1355273 0.7291246 -0.22428904 0.13996828
-0.23927312 0.23905078 -0.12113417 -0.076667346 1.5092499 -0.42648584 0.43821457 0.31337208
1.9938624 0.44807252 0.83063084 1.1621541 0.08315775 0.7079332 1.0017111 -0.14492875
0.97376275 0.23596008 0.81386393 1.0719168 0.0137197785 1.9792225 0.2809077 0.9243763
-0.11224402 -0.09550875 0.21487236 0.54844064 0.5008102 0.9069322 0.36007982 1.112598
0.19334666 1.7429086 1.0853581 1.4500918 0.040148783 1.3430438 -0.041207068 0.07830849
0.39674455 0.10309308 -0.6022994 0.7230155 -0.41389692 0.8447645 0.5498395 -0.13817805
-0.1397834 -0.42990753 0.757843 -0.18081479 0.51178473 1.5695244 1.5988778 0.8529636
1.8485928 1.6373978 -0.12195722 1.2769128 1.3499782 -0.22813646 1.209377 1.4124861
1.1643591 2.0798717 1.3409916 1.1731546 0.71009296 0.012526924 -0.39275178 0.9270821
0.8351967 0.33210114 1.4995476 1.6265318 0.31620517 0.45072627 1.4084244 0.04593773

rnn.bias_hh_l0 f4 [512]
00000000: f4e4 c03e 1b12 1bbe 8fd2 823f 95ec 0cbf
00000010: eb23 bb3e 5e8f ac3e 06e6 01bf 6dca 9f3e
00000020: 6287 a2be b1bb 94be 1281 833e 798a 13be
00000030: 878f 0dbf 8f5f 6c3e fff1 fabe e475 9fbe
00000040: 130e 2cbf 5b42 0cbf 9ea3 c83c 5c5f de3e
00000050: 5ef3 0fbf 932c 92be a9b8 9fbd aca1 46bd
00000060: f273 c1be d5ce 22bf 6200 2abd 74fc b7bf
00000070: 497a 63bf f3ec 9d3e 3399 f4be b934 9fbe
00000080: e575 94be 72df a6be bbe3 26bf 7aea 9a3e
00000090: fe99 f2be df12 44bf d045 233e a58e 98be
000000a0: 2be0 003f e8ab f0bc a375 06bf ddf4 61bf
000000b0: badc bebe 4d04 2dbf 326e ebbe c01b 3e3b
000000c0: ec49 30bf a6f3 9ebe 12ba 0abd b8c5 99be
000000d0: 9832 c93d 0247 fabe 3fc2 d9be 2e5e 02bf
000000e0: 7275 7c3d 4d94 703f 6781 d03e db17 373f
000000f0: dab6 cebe a720 3ebe 5842 74bf caef fcbe
00000100: cc63 8fbf 7ca7 8f3c eab0 87be b110 863e
00000110: dec5 eb3d b711 05bf d170 f7be 121c a13f
00000120: 5929 d5be 2afc eabe 9a87 843d ff3a 223e
00000130: 4026 bc3e ae90 91bf ff09 093d 8895 0abf
00000140: c11d f6be df94 02bf 5d86 543f 3b6e 0f3f
00000150: 7322 8dbf 36b3 103e eaa2 e8be 76ac bb3e
00000160: 2157 5cbf baff d5be 63d9 a93e 39f0 d6be
00000170: 1e7d febe 2951 953e be4f b4bd 3bf3 85be
00000180: 9bb9 0cbf 43bf 2bbf 6de3 3fbf 4db1 6cbe
00000190: b004 a8be 24e7 903e f468 793f a6b0 bd3f
000001a0: 654f 1f3f b170 adbd 100a bebe 0b69 153d
000001b0: 41c1 a9bd 1b78 bcbe a31f 453f ec72 92bd
000001c0: d513 5e3f f3e6 cb3e 2c0c 183f fa19 473f
000001d0: a3b1 eabe 48b5 59bf f4bf 04bf 0c98 df3d
000001e0: 28a2 21be 3b3e 14bb a914 b53e 692f f2be
000001f0: f955 2cbf c3c1 eebe f90c e9bd 7011 10bf
00000200: f1b7 233e 5d24 933f a619 e23f 41b6 dc3e
00000210: 7ab6 f13d 71e6 7c3f b57a db3e a580 6d3f
00000220: abd1 863f b777 823f 92c4 bb3e bf6b aa3c
00000230: 7a2b 13bf 37a9 223e 9b3c 403e 93ae a23f
00000240: c2e6 f03f fa3f cd3e c9cd f03f 616c 0540
00000250: 6a9e 453d f8de 71be e052 583e 2dc2 533f
00000260: 0368 8b3e 0053 61bd a87b 043f 6d7b 423f
00000270: 236c 12be 273c b23f 5cfd d8bd ede2 f03e
00000280: 07c1 9ebc 5eb0 a43f 72e3 483f bbfa 113f
00000290: b007 1a3e 2854 2f3f 9fad 813f 589d f53e
000002a0: b4e6 2d3f 2507 dd3f 0011 7a3f b289 3fbe
000002b0: f558 913f e9a7 3a3f 07ac 65be d853 0f3e
000002c0: 0304 75be bac9 743e 3115 f8bd c503 9dbd
000002d0: 1a2f c13f 5a5c dabe a95d e03e 4e72 a03e
000002e0: e236 ff3f c369 e53e 39a4 543f 77c1 943f
000002f0: 9c4e aa3d 1c3b 353f 1238 803f 3468 14be
00000300: 8448 793f 859f 713e 6359 503f 9234 893f
00000310: ecc8 603c 2a57 fd3f 22d3 8f3e eda3 6c3f
00000320: 31e0 e5bd 179a c3bd 8007 5c3e 9b66 0c3f
00000330: 1935 003f b52c 683f 625c b83e 9c69 8e3f
00000340: abfc 453e a117 df3f 04ed 8a3f 9c9c b93f
00000350: 0d73 243d dce8 ab3f bec8 28bd 3460 a03d
00000360: 1a22 cb3e 7722 d33d 4b30 1abf 8b17 393f
00000370: 4cea d3be 7c42 583f 48c2 0c3f 8c7e 0dbe
00000380: 6123 0fbe d71c dcbe 0002 423f 8327 39be
00000390: 5304 033f 2de6 c83f 07a8 cc3f d35b 5a3f
000003a0: b09e ec3f 4096 d13f b5c4 f9bd e171 a33f
000003b0: 16cc ac3f 9b9c 69be decc 9a3f 58cc b43f
000003c0: b809 953f 9e1c 0540 9da5 ab3f ee29 963f
000003d0: a7c8 353f ba3d 4d3c c316 c9be 4155 6d3f
000003e0: 73cf 553f 2909 aa3e 2df1 bf3f 3232 d03f
000003f0: a5e5 a13e 98c5 e63e 4047 b43f 3429 3c3d
0.37674677 -0.15143625 1.0220507 -0.55048496 0.3655084 0.3370313 -0.5074161 0.31209126
-0.31743914 -0.29049447 0.2568441 -0.14408292 -0.5529713 0.23083328 -0.49012753 -0.3114463
-0.67208976 -0.5478875 0.024492081 0.43432128 -0.56230724 -0.28549632 -0.07798893 -0.048494026
-0.37783772 -0.6359685 -0.04150427 -1.4373918 -0.8885847 0.3084484 -0.47773132 -0.31094912
-0.28996196 -0.3259235 -0.6519124 0.30257016 -0.47383112 -0.76591295 0.159446 -0.2979633
0.50342053 -0.029378846 -0.5252325 -0.88264257 -0.37277776 -0.6758469 -0.4598251 0.002900824
-0.68862796 -0.31045264 -0.033868857 -0.3003366 0.09824103 -0.488823 -0.4253101 -0.50924957
0.061635442 0.9397629 0.40723726 0.71520776 -0.4037388 -0.18567143 -0.9541373 -0.49401695
-1.120233 0.017535917 -0.26502162 0.2618461 0.115123495 -0.51980156 -0.4832826 1.2586691
-0.41633108 -0.4589551 0.064711764 0.15842818 0.36747932 -1.1372278 0.0334568 -0.54134417
-0.48069575 -0.5100841 0.8301752 0.56027573 -1.1026138 0.14130864 -0.45436794 0.36655015
-0.8607045 -0.41796666 0.33173665 -0.4198015 -0.49704832 0.29163483 -0.08804272 -0.26162133
-0.5497071 -0.6708872 -0.749564 -0.2311451 -0.32816076 0.28301346 0.9742577 1.4819534
0.6223052 -0.0846876 -0.37117052 0.03647713 -0.082888134 -0.36810383 0.770014 -0.07150826
0.8674901 0.39824638 0.5939357 0.7777401 -0.4583865 -0.8504224 -0.518554 0.109176725
-0.15784514 -0.00226201 0.35367325 -0.47301796 -0.67318684 -0.46632203 -0.113794275 -0.5627661
0.15988137 1.1495472 1.7664077 0.431078 0.11802383 0.98789126 0.42867056 0.9277442
1.0532736 1.0192784 0.3667341 0.02080333 -0.57488215 0.15884863 0.18773119 1.2709526
1.8820422 0.40087873 1.8812801 2.08474 0.04824678 -0.23620212 0.21125364 0.82718164
0.27227792 -0.055010796 0.51751184 0.7596958 -0.14299063 1.3924607 -0.105951995 0.4704813
-0.019379152 1.2866323 0.78472054 0.5702321 0.15041995 0.6848779 1.013111 0.47971606
0.6793015 1.7267805 0.9768219 -0.1870487 1.1355273 0.7291246 -0.22428904 0.13996828
-0.23927312 0.23905078 -0.12113417 -0.076667346 1.5092499 -0.42648584 0.43821457 0.31337208
1.9938624 0.44807252 0.83063084 1.1621541 0.08315775 0.7079332 1.0017111 -0.14492875
0.97376275 0.23596008 0.81386393 1.0719168 0.0137197785 1.9792225 0.2809077 0.9243763
-0.11224402 -0.09550875 0.21487236 0.54844064 0.5008102 0.9069322 0.36007982 1.112598
0.19334666 1.7429086 1.0853581 1.4500918 0.040148783 1.3430438 -0.041207068 0.07830849
0.39674455 0.10309308 -0.6022994 0.7230155 -0.41389692 0.8447645 0.5498395 -0.13817805
-0.1397834 -0.42990753 0.757843 -0.18081479 0.51178473 1.5695244 1.5988778 0.8529636
1.8485928 1.6373978 -0.12195722 1.2769128 1.3499782 -0.22813646 1.209377 1.4124861
1.1643591 2.0798717 1.3409916 1.1731546 0.71009296 0.012526924 -0.39275178 0.9270821
0.8351967 0.33210114 1.4995476 1.6265318 0.31620517 0.45072627 1.4084244 0.04593773

dense.weight f4 [65, 128]
00000000: 275a 3ec0 720d a2bf 8f0c 4ebf 51ab 8c40
00000010: d947 543f b74e 6440 fd7b 8abe 7343 2040
00000020: 5ec5 94be 1e7c 253f e17e fb3f 4e4a b3be
00000030: c20d d43e 05d9 7a3e ab02 973f 0ce3 6fbe
00000040: c2ac 483f 80ff de3e ab00 7a3f 00c4 eabf
00000050: acfc 3abf 3048 6ebe b0e7 1a3e d97b b03f
00000060: 8476 fcbe 4a35 13c0 93ef 1140 92ac b9be
00000070: 7171 5b3d 8274 1ebf fa67 40be 841e 4cbf
00000080: 1ea3 2d3f 9b59 15bf 45d2 4240 127c cbbf
00000090: 8b46 b8be 10ca ec3b f1da c5bf cf0b bf3f
000000a0: 204d 2cc0 90a5 033e 5138 f53f 69e5 c03e
000000b0: 04eb a4bf 13ea 223f c35f 07bf ad1e 96be
000000c0: 96d0 103e 95d9 ec3e 9d8d ef3f 1cb1 6c3f
000000d0: d16a ee3f 97df 8ebe 4a66 9bbd d7cb 173f
000000e0: fb75 cb3e 8b24 353f 2aeb 143f a4f0 803f
000000f0: 879f 98be 59c7 8a3d 4380 aa3f fe0c 233e
00000100: e4a9 6cc0 a063 88bd b2a3 58c0 549d 98c0
00000110: da8d c13e 848f 94bf c749 863e 9213 b03f
00000120: 0953 d0bf 2c56 9ebd ffcb bc3f d0dd d33e
00000130: 4091 423f 44c9 92bf 7120 0f3e 07dd 6f3f
00000140: 96dd 74b7 83d2 9440 f312 9bbf 9ed6 ca3f
00000150: d501 a73d 67f6 0ec0 6231 763f 20da c9bf
00000160: 86ec 3c3f 8247 25bf 008e 013f 3fa3 a9be
00000170: 7f17 4ec0 eb8e 17c0 030c 1f3f 3786 153f
00000180: 386b 4840 3c0d c1bf 3625 603f 658f 613f
00000190: 0abb 073e 404e 47be 32ac 033f 5395 eb3d
000001a0: a61c 833f 4315 853f 77cb bcbf 0239 35be
000001b0: 8713 9c3e a984 85bf 442f df3e 583c 55be
000001c0: fd7b 413f a191 dbbd fe75 363f 6589 093f
000001d0: a7d8 433f a736 5a3f 8a1c 98bf 4056 2b3f
000001e0: c85c 903e 4eec edbe bde4 033d 52fa 9140
000001f0: a71b 12be 7f35 1c3f c978 8dbf 6d9b c23e
00000200: 89b7 41c0 5357 a9bf 939e 74be d498 59bf
00000210: b977 0e40 9e2c 663f 77db dbbe 5a1c 983f
00000220: 8d6d 1fbd ff40 dc3d 9fc5 e93f ddf9 57bf
00000230: 1f69 1e3c 9589 c63f 8754 423f f78a 54bf
00000240: c624 283f fee8 233f 36a9 343f 7dfc 00c0
00000250: 2dc2 aebf 4e80 8abe 6dad db3e 91fd 1d40
00000260: 7442 2bbf aad2 18c0 d6e0 1a40 9448 09bf
00000270: df71 f3be 3fde d3bf e7f9 64bf b233 2c3c
00000280: e8b0 febd 548a 9d3d 53f9 5a40 b42b fbbf
00000290: 5329 4e3e 094f 34be 22e7 d1bf 6962 d53f
000002a0: 51e2 723f 808e 823e 5fb6 bf3f df93 f1bd
000002b0: b978 f1bd 1bdb dfbe 761c 2abf b2d4 4cbe
000002c0: c013 1c3e aa2e 05bf 1da7 d23f 5092 0740
000002d0: d3f6 5e3f aecb 963e 693d c23e 3505 8c3e
000002e0: f986 623f 2e66 893e 4410 d73c 4bf6 003f
000002f0: fb8a d4be fc4f 2c3f 306a 323f 48fe b43f
00000300: 4d55 ebbf ba71 b9bf ac3a d4bf 890b 44c0
00000310: 71d5 503f ec05 b5bf 56e2 df3e 965e 073f
00000320: 153f 0fc0 0242 1bbf 5cb9 8c3f 1fbe 663f
00000330: 09e4 9b3f 5145 95be fed0 f63e 5961 373f
00000340: 7881 973e c425 3a40 6abe 5bbf 95ef 8b3f
00000350: 9183 3c3e 39ca 30be edfc a93f b9a2 a9bf
00000360: d6e1 e23d 97e2 32bf ed7b 673d ad7a d1be
00000370: 4778 abbf 93c2 5dbf b631 cf3e aa90 583f
00000380: 290e 2c40 6d8b 83bf 6373 de3f 8ab9 9c3f
00000390: 7801 413f c2e2 b93e 2f0c 003f e626 8dbf
000003a0: 521a 783e f407 1a3f c9f3 c5bf 1e05 78bf
000003b0: 9fc1 05bf 7241 3fbf 0a3c 443f 193b 37bc
000003c0: 05b5 683e 1661 993d be6c 4040 d1d3 013f
000003d0: ca29 343f ff87 ef3d f5db 88bf da30 e33b
000003e0: 7e43 fcbe e9e1 86bf 2ab3 3e3d 1156 1c40
000003f0: 6715 b63e 1f81 7e3e 72c8 22bf eaa9 0a3e
-2.9742525 -1.2660353 -0.8048791 4.3959126 0.8292213 3.5673044 -0.2704772 2.5041168
-0.2905683 0.6464251 1.9648095 -0.35017627 0.41416746 0.24496849 1.1797689 -0.23426455
0.7838861 0.43554306 0.9765727 -1.8341064 -0.73041797 -0.23269725 0.15127444 1.3787795
-0.4930917 -2.3001275 2.2802474 -0.36264473 0.053574983 -0.61896527 -0.18789664 -0.79734063
0.6782702 -0.5833985 3.0440838 -1.5897238 -0.3599132 0.007226236 -1.5457441 1.4925479
-2.6922073 0.12856126 1.9157811 0.37675026 -1.2884221 0.6363842 -0.52880496 -0.2932028
0.14142069 0.46259752 1.8715092 0.9245775 1.8626348 -0.2790496 -0.075878695 0.5929541
0.3973845 0.70758885 0.5817133 1.0073438 -0.2980921 0.06776304 1.3320392 0.15922925
-3.6978693 -0.06659627 -3.3849912 -4.769205 0.37803537 -1.1606297 0.26228163 1.3755972
-1.627534 -0.0773128 1.4749755 0.41380167 0.76002884 -1.1467671 0.13977219 0.93696636
-1.4595125e-05 4.650697 -1.2115158 1.5846746 0.08154646 -2.2337892 0.961691 -1.5769691
0.73798406 -0.6456224 0.506073 -0.3313236 -3.220184 -2.368098 0.62127703 0.5840792
3.131544 -1.5082164 0.8755678 0.8810943 0.13254943 -0.19463444 0.51434624 0.11503091
1.0243118 1.0397114 -1.4749593 -0.17697528 0.30483648 -1.043111 0.43590748 -0.208238
0.75579816 -0.10721136 0.7127379 0.5372527 0.7650246 0.8523964 -1.188371 0.6692848
0.28195786 -0.4646935 0.032200564 4.5618067 -0.14268361 0.6101913 -1.1052486 0.38009205
-3.026827 -1.3229774 -0.23888616 -0.8499882 2.2260573 0.8991183 -0.42940876 1.1883652
-0.038922835 0.107545845 1.8263434 -0.84365636 0.0096686175 1.5510737 0.7591023 -0.83024544
0.6568111 0.6402739 0.70570695 -2.0154107 -1.3653008 -0.27051014 0.4290575 2.4686015
-0.66898274 -2.387858 2.419973 -0.5362637 -0.47547814 -1.6552199 -0.8944382 0.010510372
-0.12436086 0.076923996 3.4214675 -1.9622712 0.20132951 -0.17608275 -1.6398661 1.6670657
0.9487658 0.25499344 1.497753 -0.11795782 -0.11790604 -0.43721852 -0.6644968 -0.20003012
0.15241909 -0.5202433 1.6457249 2.1183052 0.87095374 0.2945227 0.37937477 0.27347723
0.884872 0.2683577 0.026252873 0.50375813 -0.41512284 0.67309546 0.6969328 1.41401
-1.8385407 -1.4487832 -1.6580405 -3.063204 0.81575686 -1.4142432 0.43727368 0.528787
-2.2382252 -0.60647595 1.0994067 0.9013385 1.2178966 -0.29154447 0.48206323 0.71632916
0.29590964 2.908555 -0.85837424 1.093249 0.18409564 -0.17264642 1.3280312 -1.3252784
0.11078231 -0.69877 0.05651467 -0.40913907 -1.3396081 -0.8662502 0.40467614 0.8459574
2.6883643 -1.0276924 1.7378963 1.2244122 0.75392866 0.36305815 0.5001859 -1.1027496
0.2422879 0.60168386 -1.5465022 -0.9688281 -0.5224857 -0.74709237 0.7665411 -0.011183524
0.22725303 0.07489221 3.006637 0.5071383 0.70376265 0.11695861 -1.0692126 0.006933314
-0.49270242 -1.0537692 0.046557583 2.442753 0.35563204 0.24853943 -0.63587105 0.1354138

dense.bias f4 [65]
00000000: 0c60 66bf c30e fc3e 64a7 e4be 4096 ffc0
00000010: 3ba0 fcc0 fb53 da3d cf6b 673e 108e 72be
00000020: c41d e7be 8301 3bbf 7ed9 a43d 1ffc 2fbf
00000030: ebed b7bb 068a 6b3e d894 3f3e 3e92 263e
00000040: acbf 2a3e a283 0ebe 2c66 903e 624f 2abe
00000050: 2321 fb3e 4275 0abf a450 8e3f 197a 813d
00000060: 9e9b 4a3e bcaa 8c3e 273f 433f 9b15 5fbf
00000070: 2422 113e d5aa 5e3d a6e2 7abe 190e aebd
00000080: 187c 6e3f e55f cbbe bf39 1c3f 6814 393f
00000090: 0dae 893e c378 f03e a652 9dbf 515e 7f3e
000000a0: 5982 e43e 002f c23e c05a af3e 1482 3bbd
000000b0: 7cc3 8e3d 89b2 06bf 0b6c 8f3d e087 a6be
000000c0: f7c2 e63e 30f5 33bf 8b0d 3abd 5068 e93e
000000d0: c00a 203b fe4a 8cbd 801f 78bf 8cb3 7e3f
000000e0: 7466 a5be 0657 353f 9964 e93e 7750 523d
000000f0: b1f2 543e 391c e43e ae5f 313d b009 50bf
00000100: 86e9 e73f
-0.89990306 0.49230012 -0.4465896 -7.987091 -7.8945594 0.10660549 0.2259972 -0.23687005
-0.45139897 -0.7304918 0.08049296 -0.6874408 -0.005613079 0.2300187 0.18709123 0.16266724
0.1667468 -0.13917401 0.2820295 -0.16631845 0.4904872 -0.5408517 1.111836 0.063221164
0.19785926 0.2747401 0.7626824 -0.8714234 0.1417318 0.054362137 -0.24500522 -0.08498783
0.931581 -0.397216 0.61025614 0.7229676 0.26890603 0.46967134 -1.2290847 0.24938323
0.44630697 0.37926483 0.34248924 -0.04577835 0.069708794 -0.52616173 0.070030294 -0.3252554
0.4507062 -0.70296 -0.04542307 0.45587397 0.002442047 -0.06850241 -0.96923065 0.99492717
-0.32304728 0.7083591 0.45584562 0.05134627 0.20795704 0.44552782 0.043304138 -0.8126478
1.8118141

square_avg f4 [512, 65]
00000000: b3b9 f132 efbf c233 6935 f62c bf2e 4622
00000010: b8d7 1425 d2df 3932 ded6 5030 6c08 7932
00000020: 5fe8 f02f 993a a52d 1650 5730 a5d3 5e2f
00000030: 55b6 1b31 88de 5033 b828 4a30 bbc5 a032
00000040: bf08 3131 fe64 e331 3ed8 5233 fbe0 5631
00000050: 995d b230 6f9f 2f32 53f0 c532 98b0 0530
00000060: a556 8c30 3d11 8731 bc2e df31 55ca 1c31
00000070: 59cb 572f 6a85 ad30 6c02 a233 253d 1934
00000080: cf4c af33 d0af 1932 b49e 5031 89ad ef2f
00000090: 5cdd 3131 f7f2 fa31 4d8f 342d 47dc b42f
000000a0: 57ab 0532 2927 0134 3e35 bc32 0a7f 6233
000000b0: 22bc 0f33 2fdd 8831 4097 a934 4f2b 0734
000000c0: c40f 2f32 54fb 9a2f 813d 9230 9bb9 942b
000000d0: 3461 7333 9a8f 0b36 7c44 0534 d692 e231
000000e0: 08bb 5533 db6d 9433 b9bb 9e34 3345 2e33
000000f0: 6613 8230 62fb 3833 2320 a82c c618 b32b
00000100: d3cf b52e d788 c032 483c 1234 da44 1532
00000110: b20d 1b23 a790 de23 26ee 6231 841f b132
00000120: c9e5 0532 0b59 3532 966d ba2d 53bf f331
00000130: 6813 e430 49f8 a231 19e1 f832 cc63 d332
00000140: b05e b032 1f1c c231 209d 0332 30f3 b232
00000150: 9c1b 3d32 7bde 1f33 83a2 8833 b4ad 1031
00000160: 5b90 4f2f dd44 9531 aca8 d732 d594 3b32
00000170: 7b12 ac32 27a7 8432 9a72 732c bfc5 c032
00000180: 2095 3f33 a4e2 ec32 80ce 0532 b85b 7b31
00000190: d9b0 9533 2be2 bb2c cd95 e331 18f0 552d
000001a0: 236b b034 fc8b 8d34 63ce 8234 c360 5734
000001b0: ae5b c934 9abf bc34 4722 2834 5260 3635
000001c0: 0579 1c34 f24c 1032 532e e233 823f ca34
000001d0: 0b5d 1e35 19f3 ca33 6a2f 2e33 1491 8334
000001e0: 6249 3132 f719 9933 8784 3735 3877 0135
000001f0: 1332 3c34 789a 0d33 074f f133 044b 7029
00000200: d889 bd33 6b1e 8830 b271 7a33 45a7 dd32
00000210: a9c3 5d33 8f23 3624 67b8 4625 90a1 4534
00000220: f907 3031 52fd f830 d067 6a30 33a4 5d2e
00000230: 6b11 af30 cb35 1b2f 81b5 872f 5787 8130
00000240: ffed f230 2a6b 9d30 b093 ec2f 7216 2c30
00000250: 0aba de30 689e 1b30 9f52 3b30 8784 d530
00000260: 9af0 ed2d 834f bb2f 56d4 532f 48e7 9630
00000270: f0eb 942f cd58 0930 b62c ab2f 42c2 932c
00000280: 3d34 9a2f 40ed 1531 6945 2431 e4eb da2f
00000290: e439 272f d2c6 2030 06bd 272e 5474 1530
000002a0: 1093 dc2c 3eca 2233 aba5 3131 8bcd ac31
000002b0: 096a 5331 64ff 3c32 df10 3e32 63f9 3b30
000002c0: b8db 3f33 e5af dc33 c896 812e d0a5 6f30
000002d0: 10dd f430 7986 c92f 7481 db30 d3ea b032
000002e0: e423 1c30 98e4 8f31 c87e f831 4427 3032
000002f0: 1768 2432 556e 3732 a8b9 e02f 1835 db31
00000300: dc08 de2d accf 1232 3e9b f92d a4ae 0036
00000310: dd42 fd34 6a35 2d32 e95c 2024 ebfa 1729
00000320: dc6b 8033 47a8 ac30 14e4 dc33 a6a1 ec33
00000330: 45bc b62f 6343 3a31 35c3 2f32 f899 2f2f
00000340: 7e31 4735 0688 a034 d35e ff33 c5df 8f33
00000350: 2644 9133 c7c6 3734 a19a 5533 6b2c 8434
00000360: 36b5 ab35 3d38 9032 95d4 a931 9638 1c34
00000370: 2f8b 8434 838b 1634 2ef2 8d34 54c7 9534
00000380: 0653 c830 5e1e 1633 a17c b234 084f a435
00000390: 14c0 5c33 8fd7 e332 c38d 0935 43fe 362e
000003a0: f412 a333 fdc2 2b2e 2bec 5d36 d545 0335
000003b0: 107b d334 37c0 2d35 0c7a 1b36 d368 a134
000003c0: 5b9f 3a34 1186 9a35 674f dd35 5f1b 9933
000003d0: fee1 ae33 aebc 4735 4cb0 a535 502f 3535
000003e0: b051 2836 e49f 4534 e54e 2b32 df75 2d35
000003f0: 04a5 8c35 ee2a 9835 2683 9c35 61a6 e933
2.8140539e-08 9.0687415e-08 6.9976702e-12 2.685875e-18 1.2910042e-16 1.0819308e-08 7.5975304e-10 1.44956225e-08
4.3820855e-10 1.878435e-11 7.8330353e-10 2.0265974e-10 2.2659112e-09 4.8631165e-08 7.3545037e-10 1.8716369e-08
2.5761862e-09 6.618051e-09 4.9091106e-08 3.1268985e-09 1.2977807e-09 1.0222592e-08 2.3043105e-08 4.8636073e-10
1.0210967e-09 3.930977e-09 6.4954673e-09 2.2816e-09 1.962638e-10 1.2625325e-09 7.5441534e-08 1.427148e-07
8.163044e-08 8.945747e-09 3.0358196e-09 4.359715e-10 2.5882718e-09 7.3035795e-09 1.02636346e-11 3.2898326e-10
7.780577e-09 1.2028308e-07 2.1910292e-08 5.2735267e-08 3.3465888e-08 3.9832666e-09 3.1588752e-07 1.258861e-07
1.0189925e-08 2.8191016e-10 1.0640379e-09 1.0567548e-12 5.6666252e-08 2.0796201e-06 1.2411505e-07 6.594159e-09
4.976303e-08 6.91177e-08 2.956638e-07 4.057547e-08 9.464258e-10 4.306947e-08 4.778415e-12 1.2725591e-12
8.267844e-11 2.241397e-08 1.361924e-07 8.6885965e-09 8.405467e-18 2.4130551e-17 3.30227e-09 2.0619844e-08
7.793866e-09 1.0555833e-08 2.1194418e-11 7.093982e-09 1.6594699e-09 4.7430473e-09 2.8973362e-08 2.4609015e-08
2.0532156e-08 5.64934e-09 7.66093e-09 2.0832516e-08 1.1007526e-08 3.7222417e-08 6.362554e-08 2.1053497e-09
1.8877826e-10 4.3442996e-09 2.5105997e-08 1.0918673e-08 2.003184e-08 1.5442835e-08 3.4595994e-12 2.2441666e-08
4.460628e-08 2.757708e-08 7.788572e-09 3.6577443e-09 6.9705216e-08 5.3399694e-12 6.6236e-09 1.216096e-11
3.2860507e-07 2.636515e-07 2.4364553e-07 2.0058637e-07 3.7505873e-07 3.5157137e-07 1.5658689e-07 6.794045e-07
1.4572659e-07 8.3993985e-09 1.05323714e-07 3.767164e-07 5.899498e-07 9.450577e-08 4.0555655e-08 2.450621e-07
1.0319441e-08 7.129341e-08 6.8365665e-07 4.822973e-07 1.7527081e-07 3.296961e-08 1.1236812e-07 5.335577e-14
8.826072e-08 9.903948e-10 5.8311066e-08 2.5803851e-08 5.1633524e-08 3.949508e-17 1.723624e-16 1.8405831e-07
2.5615903e-09 1.8116373e-09 8.527623e-10 5.039542e-11 1.2737876e-09 1.4116279e-10 2.4685323e-10 9.424451e-10
1.767546e-09 1.1453711e-09 4.3033088e-10 6.260513e-10 1.6205501e-09 5.661378e-10 6.8147615e-10 1.5535456e-09
2.7050629e-11 3.4071598e-10 1.9265775e-10 1.097967e-09 2.7088687e-10 4.9966503e-10 3.1136488e-10 4.1995582e-12
2.8049554e-10 2.1817215e-09 2.3904596e-09 3.982158e-10 1.5209128e-10 5.84902e-10 3.813929e-11 5.4371196e-10
6.2691033e-12 3.7902502e-08 2.5851061e-09 5.0292264e-09 3.0764815e-09 1.1001109e-08 1.1063292e-08 6.8384604e-10
4.4670486e-08 1.0276543e-07 5.893025e-11 8.7183327e-10 1.7816166e-09 3.6657236e-10 1.597114e-09 2.0595882e-08
5.6803473e-10 4.187836e-09 7.2321633e-09 1.0253476e-08 9.569724e-09 1.06770885e-08 4.087728e-10 6.379775e-09
2.5242412e-11 8.545538e-09 2.8376964e-11 1.917514e-06 4.7173572e-07 1.008207e-08 3.4773167e-17 3.3746372e-14
5.980084e-08 1.2562474e-09 1.02860355e-07 1.101901e-07 3.323938e-10 2.7104867e-09 1.0230726e-08 1.5970858e-10
7.42053e-07 2.9901292e-07 1.1891611e-07 6.69966e-08 6.764485e-08 1.7115518e-07 4.973356e-08 2.4619234e-07
1.2793232e-06 1.678938e-08 4.942715e-09 1.4549218e-07 2.4688185e-07 1.4020593e-07 2.6439506e-07 2.7898443e-07
1.4575512e-09 3.4952215e-08 3.3245763e-07 1.2241953e-06 5.1397436e-08 2.6524303e-08 5.124277e-07 4.160784e-11
7.5937265e-08 3.9054083e-11 3.3069034e-06 4.890292e-07 3.9391352e-07 6.472723e-07 2.316784e-06 3.0064857e-07
1.7380573e-07 1.1512913e-06 1.6488892e-06 7.1295965e-08 8.143614e-08 7.440784e-07 1.2344767e-06 6.7496603e-07
2.50815e-06 1.8405223e-07 9.9714486e-09 6.461905e-07 1.0478839e-06 1.1337377e-06 1.1661075e-06 1.0880172e-07

square_avg f4 [512, 128]
00000000: 4b1b 2035 668d 7c33 1e97 3333 9d71 4734
00000010: 5c5f cb35 0c50 ba33 e069 f733 89a2 2235
00000020: 7807 0b34 4ab2 c934 672f 6b34 9a8e 4334
00000030: 5e8f 4733 a966 b134 2665 ac33 0fcb e634
00000040: 62d5 1834 c457 e733 2ca5 b233 a11c 5735
00000050: 2887 d433 21c5 9f34 c2e8 3334 3172 7a32
00000060: 1c22 3533 809c ca33 f2a1 6b34 12f7 a234
00000070: 769c a433 7bee 7834 f613 0234 3e15 d234
00000080: ac82 0034 b1c8 4833 c221 9a34 d469 db31
00000090: c996 9633 f236 a032 b7cd 4f34 c30d 9233
000000a0: 868f 3734 132f 3934 6af1 d034 b6a5 c733
000000b0: f829 0034 fc24 5733 c664 d932 9123 1234
000000c0: 1f1a 6233 de53 1834 3d0d 8733 8cbc f933
000000d0: 55e9 0a34 2330 5c33 9fea 1d33 0c05 9d33
000000e0: 8528 8e34 2c25 d333 f88e 5a34 ce79 5b33
000000f0: a045 3633 c5c3 2e33 04c2 2433 ad82 8d33
00000100: 3d7e 9035 e899 ff33 6d38 2634 f680 5333
00000110: 7cbc 8734 a61d 0634 acd9 b333 5911 2932
00000120: bdf0 0435 64ce 1e34 789c eb33 0f14 5c34
00000130: 0d0d db33 e143 bf33 7efa 8734 814d dd34
00000140: cc67 d533 85f6 3e35 9d59 0c35 6fad 9c33
00000150: f4be 5d34 cecc e434 32fb 2734 9b7b 2235
00000160: 9e76 3634 74e6 2134 5b73 1535 fbea cc32
00000170: bde6 2b35 eaef 5c33 d4ac 8834 0371 0634
00000180: 0176 1e34 7209 c933 ec65 1433 0cad 0434
00000190: 4961 1a33 a158 7133 2836 2a32 f898 a032
000001a0: a403 3632 da5b 0333 2361 7134 01ac 8234
000001b0: 7437 2c34 87ce 7b32 071b 1634 16bd f334
000001c0: c18f 7d32 e5c6 0934 1f37 6233 4eff 4433
000001d0: 5276 ef34 5b8d 0e33 ddf6 9a33 04ad 4134
000001e0: e679 6333 7108 8a34 4bd7 0533 2ef6 6233
000001f0: b8e1 b833 0bbc 1434 6738 9c34 0fbc 4333
00000200: 5cca 4837 adce 0333 504b 4c33 9488 f835
00000210: 81be f434 0eb6 8f32 c20a 1c33 9c60 9532
00000220: a7c2 3d33 b385 1f34 6197 8633 bd12 3733
00000230: e927 aa32 5351 e533 dcd5 8c32 6368 3534
00000240: fec7 c632 2ab5 2b33 25e9 c532 b078 9e32
00000250: 49b8 7832 474f b134 07aa 2c33 c648 7d32
00000260: c98c 0133 795d 0235 18bc 3333 5bf1 dd36
00000270: e7f4 d232 68c0 6b32 5371 2033 12b1 1033
00000280: 7107 bf32 1b13 e731 649c c033 5734 4232
00000290: 371c 6a32 2c4b 8532 1273 2f34 c4ac 6f33
000002a0: 2426 c633 ab13 ae33 98c8 d536 ab5d 1633
000002b0: 2259 5c32 0d88 a232 1600 5b32 7ab4 3933
000002c0: c234 8932 dc34 e132 c1bc 0533 ae72 3733
000002d0: 4138 2835 21e3 1f33 4fe8 2332 bc41 c432
000002e0: 14e5 ed32 b4bc 2d33 0405 4a33 78f3 9232
000002f0: bd47 8432 2a49 2033 8435 0e34 cb20 d232
00000300: fb17 0833 b99e 9035 92d0 1b33 a975 8331
00000310: b40a f933 ce90 1032 5da5 8733 e870 9e34
00000320: cc37 d233 ef9f bb33 07c3 9e34 d40a 0135
00000330: ea87 c433 fe28 9b34 558e 2c33 bb6d 9b33
00000340: e46c 2333 b2a4 d433 b271 4333 4649 2e33
00000350: 7898 0c33 433c 3432 42de 1934 6af7 7333
00000360: a2f9 8533 ba92 6535 a9c2 8e33 3b14 b431
00000370: 279c 2837 550b c132 fe88 6332 c453 9c33
00000380: 9fc3 2933 57b1 bd32 7db0 6532 98b9 8735
00000390: 45d9 9a32 18f3 7732 bcfd b531 50d4 0b33
000003a0: fd25 4232 dfaa cf32 0a63 7c33 4033 6a32
000003b0: a4c6 8a33 8dad 0f32 5d49 9c32 286e 9932
000003c0: b40f 1133 f0bf 4133 ce4f 9532 ec93 5432
000003d0: 0242 de33 bc2e 1c32 7a5a 9a32 0b2d 1933
000003e0: b368 ca32 a686 2b33 a4ba 8134 a0f3 3633
000003f0: d2ed 9c33 8380 1233 f6cf 6033 d5be 7833
5.964436e-07 5.8801923e-08 4.1814125e-08 1.8574652e-07 1.5152432e-06 8.6758604e-08 1.1521092e-07 6.058622e-07
1.2948101e-07 3.756889e-07 2.1903325e-07 1.8212668e-07 4.646369e-08 3.3043514e-07 8.027773e-08 4.2988583e-07
1.4233731e-07 1.077274e-07 8.3188155e-08 8.01354e-07 9.896604e-08 2.9759488e-07 1.6755351e-07 1.4577879e-08
4.217337e-08 9.434825e-08 2.1944996e-07 3.035462e-07 7.665305e-08 2.3183559e-07 1.2114455e-07 3.9131004e-07
1.1968467e-07 4.6748657e-08 2.8709297e-07 6.38577e-09 7.012347e-08 1.8651438e-08 1.9353216e-07 6.801158e-08
1.7095417e-07 1.7246593e-07 3.891867e-07 9.296802e-08 1.1936197e-07 5.0092225e-08 2.5307951e-08 1.3610249e-07
5.2643482e-08 1.4186614e-07 6.2888354e-08 1.16292625e-07 1.2937137e-07 5.126652e-08 3.6767798e-08 7.3118e-08
2.6479043e-07 9.832215e-08 2.0354844e-07 5.110069e-08 4.24385e-08 4.0690583e-08 3.836068e-08 6.589594e-08
1.0765576e-06 1.1902358e-07 1.5480482e-07 4.9244555e-08 2.528285e-07 1.2490509e-07 8.374931e-08 9.841039e-09
4.952415e-07 1.4789981e-07 1.0971502e-07 2.0496394e-07 1.0200356e-07 8.906478e-08 2.5327967e-07 4.122085e-07
9.937466e-08 7.113925e-07 5.228447e-07 7.2958635e-08 2.0651697e-07 4.2617324e-07 1.5644471e-07 6.052957e-07
1.6993224e-07 1.5078132e-07 5.567469e-07 2.3855582e-08 6.403823e-07 5.1440942e-08 2.5457723e-07 1.2520836e-07
1.4757826e-07 9.36151e-08 3.4551633e-08 1.2356412e-07 3.59444e-08 5.6192793e-08 9.907616e-09 1.8696014e-08
1.0594622e-08 3.0584353e-08 2.2480212e-07 2.4339536e-07 1.6038922e-07 1.4657082e-08 1.3979671e-07 4.5399855e-07
1.4759224e-08 1.2831477e-07 5.2669858e-08 4.5867004e-08 4.4603308e-07 3.3190513e-08 7.216088e-08 1.8037468e-07
5.2963422e-08 2.5710645e-07 3.1162283e-08 5.2843625e-08 8.609226e-08 1.3851984e-07 2.9098302e-07 4.5573014e-08
1.1968044e-05 3.0688785e-08 4.7565948e-08 1.8517189e-06 4.5587151e-07 1.673018e-08 3.6331365e-08 1.7389816e-08
4.4182027e-08 1.4856668e-07 6.267397e-08 4.262505e-08 1.9808754e-08 1.0678436e-07 1.6395397e-08 1.6894914e-07
2.314118e-08 3.9978808e-08 2.303984e-08 1.8448503e-08 1.44774015e-08 3.30265e-07 4.020151e-08 1.4743085e-08
3.0163196e-08 4.8564794e-07 4.1847755e-08 6.6144107e-06 2.4558586e-08 1.3722548e-08 3.735597e-08 3.3688657e-08
2.223871e-08 6.725157e-09 8.969144e-08 1.1304187e-08 1.3627008e-08 1.5517422e-08 1.6340007e-07 5.5803653e-08
9.227031e-08 8.106084e-08 6.371247e-06 3.5009787e-08 1.2825952e-08 1.892115e-08 1.2747497e-08 4.323781e-08
1.597289e-08 2.6217485e-08 3.1138146e-08 4.271231e-08 6.266674e-07 3.7226645e-08 9.54067e-09 2.2847296e-08
2.7694604e-08 4.0451326e-08 4.703635e-08 1.7107354e-08 1.5399445e-08 3.7319445e-08 1.324425e-07 2.446213e-08
3.1686778e-08 1.077503e-06 3.6278443e-08 3.825978e-09 1.1596913e-07 8.414828e-09 6.316507e-08 2.9511943e-07
9.7890364e-08 8.736958e-08 2.9571694e-07 4.8072e-07 9.151684e-08 2.8900826e-07 4.017632e-08 7.23771e-08
3.805043e-08 9.901977e-08 4.550538e-08 4.0579174e-08 3.273496e-08 1.0491081e-08 1.4330092e-07 5.6802868e-08
6.238703e-08 8.5522663e-07 6.647799e-08 5.2409894e-09 1.0049937e-05 2.247331e-08 1.32442874e-08 7.279553e-08
3.9526295e-08 2.208314e-08 1.3369683e-08 1.0112299e-06 1.8026762e-08 1.4432565e-08 5.2966396e-09 3.2556557e-08
1.1300924e-08 2.4175675e-08 5.8763398e-08 1.36322456e-08 6.462258e-08 8.363156e-09 1.8194152e-08 1.7861638e-08
3.3774725e-08 4.511088e-08 1.7382174e-08 1.2373658e-08 1.0349687e-07 9.091021e-09 1.7969104e-08 3.5664055e-08
2.3563507e-08 3.9936502e-08 2.416392e-07 4.2596753e-08 7.307575e-08 3.4110155e-08 5.2343204e-08 5.791556e-08
