resources/saved_models/lorenz/tcn_1_10_128.ckpt (torch, 626469 bytes, 177 tensors)

tcn.network.0.conv1.bias f4 [30]
00000000: 5048 a13e 65a4 963e d734 d4be 8f19 0fbe
00000010: 96f0 9d3e b5a4 21be c50b ec3e 4057 b13e
00000020: 665d e9be cfe5 80be d7cf f2be 04f6 ee3e
00000030: b759 99be 10c5 7d3e 7ae1 023f 95f3 0dbe
00000040: f754 d23e 7bc4 44be 015d 033f 0e2b 76bc
00000050: 3cdd 8ebe 9eca bc3e 48cd 973d 3698 e73e
00000060: 8851 043f 73fb acbd e368 843e da3f db3e
00000070: 36f2 ff3d 6646 163e
0.31500483 0.29422298 -0.41446564 -0.13974594 0.30847615 -0.15785487 0.4610273 0.3463688
-0.4557907 -0.2517533 -0.47424194 0.4667207 -0.2995126 0.24782205 0.511253 -0.1386245
0.41080448 -0.19215576 0.5131379 -0.0150249135 -0.27903163 0.36873335 0.07412201 0.45233315
0.51686907 -0.08446398 0.25861272 0.42822152 0.1249737 0.14675292

tcn.network.0.conv1.weight_g f4 [30, 1, 1]
00000000: 1cd9 303f 27cd 2a3f d3f3 203f ba61 513f
00000010: c200 2b3f 323d 253f d01c 553f d145 103f
00000020: 24b3 1a3f c711 e93e 097c 383f 5b45 713f
00000030: fb81 2c3f 7b5b 103f 86ae cd3e 94fe 2a3f
00000040: 2e98 093f 7211 373f 30d8 1c3f d4a7 bf3e
00000050: 74d6 0d3f 11d4 fd3e 7856 0b3f 6286 a13e
00000060: 5fe0 013f e9c8 e83e 78d0 403f 8d61 e63e
00000070: d77f 1d3f be4a 223f
0.6908128 0.6671929 0.62872046 0.81789744 0.6679803 0.645465 0.8324709 0.5635653
0.60429597 0.45521376 0.7206426 0.94246453 0.67385834 0.5638959 0.40172213 0.66794705
0.5374783 0.71510994 0.61267376 0.3743273 0.55405354 0.49575856 0.54428816 0.31547838
0.5073299 0.45465782 0.753181 0.449963 0.61523193 0.633953

tcn.network.0.conv1.weight_v f4 [30, 1, 4]
00000000: 5c7b 48be e01e f63d 2b31 0a3f a733 81be
00000010: af56 98be bf14 ca3e 286a 2c3e ba8c b8be
00000020: 2e73 a6be b057 933e 7b48 6abc edb7 e43e
00000030: 1ef7 a0be b48d cf3e 5f48 c13e 833e f2be
00000040: cc07 983e 1802 debe d789 96be c1bb b6be
00000050: 0e3e 0a3e cb88 913d 46b8 e13e 57a1 b8be
00000060: 654f ac3e caca c5be 50a3 9bbe 6c55 df3e
00000070: b36f 8ebe 5bcd d03d 0f40 b33e c787 a7be
00000080: 2d8e 27be 5a6e 56be 9cf2 d53e b644 a93e
00000090: e1c1 72bd 3beb dd3e 33dc 823d 3cb3 b5bd
000000a0: d433 953e eb71 3c3e 5a30 a93e ee9b d4be
000000b0: f125 b6be a995 abbe 0831 d8be f14e 143f
000000c0: 0b2a 78be 7ef1 90be 49fa 853e 807b fcbe
000000d0: 7175 93be 03b8 013e f558 fbbd 8f80 a03e
000000e0: 0dd5 723d 6f0b 69bd 44b9 e4be 1238 883d
000000f0: 3368 7bbe a985 913e a19f d9be bf6f 4b3e
00000100: e53f 74be 2bac 513e 5f48 9d3e acba a8be
00000110: 6471 47be cb3f c8be e60e 903e f39c f4be
00000120: 5331 7d3e 62a1 bd3e 2dfe 793d 08f3 f0be
00000130: efeb 71be c3b5 273e 0d1a 173d 85bb 47be
00000140: 612c 0ebe 9a59 a53e 1e8d ecbd ef56 c3be
00000150: 7178 ef3e fbef 2fbe 8dab bd3e f58d 72bd
00000160: 761b 703e 96e7 67be fb1f 04be a5ce ffbe
00000170: 3934 c53e 46b0 073e d94f 0c3d 7c83 06be
00000180: 1531 69be a84a f23e f9ee 45be 93ca 1dbe
00000190: b493 003d 48d9 803e 3b6a bd3e aff9 eebc
000001a0: 44c2 d13e 483c fdbe 3307 343e 30ce a23e
000001b0: 8d75 093e 3a94 f8be 3706 83be 3026 e4bd
000001c0: ea24 8abe fca6 f1bd d277 713d 5462 903e
000001d0: 5cfa 84be 9667 68be dad7 843e 44be 323e
-0.19578308 0.12017608 0.53981274 -0.2523472 -0.29753634 0.39468953 0.1683737 -0.36044866
-0.3250975 0.28777838 -0.014299507 0.44671574 -0.31438535 0.40537798 0.37750527 -0.47313318
0.2969345 -0.43360972 -0.29402038 -0.3569012 0.13500234 0.07106169 0.44085902 -0.36060593
0.33654323 -0.38631278 -0.30398035 0.4361986 -0.27819595 0.101954184 0.3500981 -0.32720777
-0.1636283 -0.20940533 0.4178666 0.33060235 -0.05926693 0.4334353 0.06389656 -0.08872077
0.29141104 0.18402831 0.33044702 -0.41525215 -0.35575822 -0.3351262 -0.42224908 0.57932955
-0.24234788 -0.28309244 0.26167515 -0.49312973 -0.28800538 0.12667851 -0.122728266 0.31348082
0.059285212 -0.05689567 -0.44672596 0.066513196 -0.24551468 0.28422287 -0.425046 0.19866847
-0.23852499 0.20475833 0.30719277 -0.3295492 -0.19476849 -0.3911117 0.28136367 -0.47775993
0.24725847 0.37037188 0.061033417 -0.47060418 -0.23625158 0.1637793 0.03689008 -0.19505127
-0.13884117 0.32294923 -0.115503535 -0.38152263 0.46771577 -0.17181389 0.37044945 -0.059217412
0.23447976 -0.22646937 -0.12902825 -0.49962345 0.38516405 0.13250837 0.034255836 -0.13136095
-0.2277263 0.47322583 -0.19329442 -0.15409307 0.03139086 0.25165772 0.3699511 -0.029171793
0.40968525 -0.49460053 0.17580871 0.31797934 0.13423748 -0.48550588 -0.2559068 -0.11140096
-0.26981288 -0.11799428 0.05895216 0.28200018 -0.2597226 -0.22695765 0.25945932 0.17455393

tcn.network.0.conv2.bias f4 [30]
00000000: 3508 853d adc5 593d 4f40 55bc fd29 e83d
00000010: 49b7 f33d d478 c33a de9f babc 4134 b33c
00000020: 8aa0 79bd acaa 7b3b 5593 c43d eebc c0bc
00000030: 6c2a b73d e555 a63d fbe7 2c3d f2cd f4bc
00000040: 883f 7fbc d6b2 3a3d 6e05 5f3d f67d 703d
00000050: 4f57 96bd 687a 1a3d c577 bb3c acd1 b3bd
00000060: 6e22 1a3e 8eec 68bb e8eb a43d 2cd2 103e
00000070: 7976 113e 162d d63c
0.06495706 0.053167034 -0.013015821 0.11336134 0.11900193 0.0014913329 -0.022781309 0.021875503
-0.060944118 0.003840129 0.09598414 -0.023527589 0.08943638 0.08121852 0.04221342 -0.029883359
-0.015579112 0.045580707 0.054448538 0.058713876 -0.073408715 0.037714392 0.022884259 -0.08780226
0.15052196 -0.0035541388 0.08052808 0.14142674 0.1420535 0.026144546

tcn.network.0.conv2.weight_g f4 [30, 1, 1]
00000000: f14a 263f 04fa 0a3f c36a 293f e91b 363f
00000010: 3c76 1d3f 1518 0a3f d60e 093f 376d 123f
00000020: ad28 003f 12fb 1e3f ee4d 363f 3e51 0f3f
00000030: d834 213f f709 353f 7762 1e3f 952c 1d3f
00000040: 6281 253f 891b 173f 92da 253f dc58 133f
00000050: 28cf 233f 7575 093f c7e8 223f 9080 0b3f
00000060: 1f81 073f 2d8b 213f 22d9 2c3f 957e 183f
00000070: c841 233f 3c48 1c3f
0.649581 0.54287744 0.6617853 0.7113634 0.61508536 0.53942996 0.5353826 0.571979
0.50062066 0.6210185 0.7121266 0.5598334 0.6297126 0.7071833 0.61868995 0.6139615
0.6465055 0.5902639 0.64786637 0.57557464 0.6398797 0.5369485 0.6363644 0.54493046
0.529314 0.6310299 0.6751882 0.5956815 0.6377225 0.6104772

tcn.network.0.conv2.weight_v f4 [30, 30, 4]
00000000: 6ece 48bd 6d56 9a3d 90be 04bd d4a2 903d
00000010: 3d37 4fbd 9234 40bd 35a5 403c eb7e 723c
00000020: ad42 32bd 624a 16bd 3d13 a2bc 8960 143d
00000030: 058d 85bc e823 db3d f14e 9b3d d956 82bc
00000040: bffb 6bbd e02c 01bd 8a13 713d a8c4 06bd
00000050: 8f32 2dbd 88ea 8c3c df13 c23d c94c cf3d
00000060: 7ce2 2cbd f35b 06bd 5029 8cbc 6788 cd3c
00000070: d646 97bd 5f6b d4bc b28b d93c 8f19 14bd
00000080: bd2f 3dbd 7600 62ba 856e 36bc 317a 8b3d
00000090: 57ee b2bc 6561 06bd 5977 d0bc cd9e 9bbc
000000a0: 19b7 173c 2d90 a73d 2071 6c3e 11bd de3d
000000b0: 4173 44bd c744 203a 0d06 cebc 28cd b83d
000000c0: 08af 46bc 8c8f c83d 7c47 ac3b 45d3 44bd
000000d0: b9ed 7fbd c63e c6bc b765 80bd 0e21 a73b
000000e0: a435 66bd 90c5 abbd bdd7 14bd 1994 09bd
000000f0: 6876 d53a 4d18 553c c50c e93d 2a70 3a3e
00000100: 91a1 d5bc 91ba 60bd 9786 9c3d 9026 1a3d
00000110: b793 eabc 7cf8 2bbb 7775 41bc 02dd 4abc
00000120: 81a0 86bd d836 b03a 03cf fd3c d1f4 ff3b
00000130: 004d 74bc 43f3 cabc a4ec ff3c ee94 193d
00000140: ff0c d8bc 5d65 1d3d 8303 353e ece8 18bc
00000150: a8c4 63bd e05a e9bb 2c76 4cbd 9dce 1b3a
00000160: f134 26bd ccb3 34bd 349f 3b3d 8281 36bd
00000170: a7d1 a1bd 07de 54bd 42e7 00bc fefa bcbc
00000180: 56e0 82bd b78e fbbc f912 5fbd a155 8f3d
00000190: 07bc 79bc 25d4 9dbc 76ba 153c 1c17 f3bc
000001a0: e1ed 52bd 3939 e8bc 653c aebd b03c 903d
000001b0: a01d 0cbd ff8f a63c c6bf b4bb 9761 993c
000001c0: c478 37bd fa9d 053c e930 8fbd 5744 fcbb
000001d0: a5e6 46bd a83f 3fbd 9f29 54bd dbc1 173d
000001e0: c563 263d 6ae6 aebd 16e9 afbd efe2 ef3c
000001f0: d312 9c3d 117f 083d 44a0 8cbc ebaa 50bd
00000200: d4fe 7fbd 9732 4abd b97c 82bd 600f 573d
00000210: d021 873d c286 da3d 8bad cb3d daee 4e3d
00000220: eee9 fb3c 394c 09bd 52f6 9c3c 029b f7bb
00000230: dd2b eb3d 45e4 913b 2f1e bc3d 0222 a43d
00000240: 32d7 113d 6e3d 3cbc 99e5 b6bd 632e 273d
00000250: e9d5 ef3c 8153 d93a adb9 34bb 98d7 2d3c
00000260: 4b70 36bd 0375 9d3d ba90 153e b6a9 c93d
00000270: 5a1d ddbd f9a0 a7bc 04ce 9abd 66c8 64bc
00000280: 23d9 623d f645 c53d f1ff 4f3e 0248 883c
00000290: c4fd 493c f8ea 533d fb2e 8ebd 7eee 233d
000002a0: ab26 ab3c 8704 91bc 9f8c a53d bd85 423b
000002b0: 4a6b a2bd 54bc e8bd e8e8 36be 3667 503d
000002c0: 711f e63b beef 113d 8577 86bd 61cd 21bc
000002d0: fc8b d23b 0a92 86bd 872d 563c 8e1a b93d
000002e0: 49ef ca3d 710b 47bd e4e3 5fbd dec4 48bc
000002f0: 328a c7bb 333d 2cbc dabc 8f3d 586a 14bd
00000300: 6c7b cb3b 0e8c 733c 3b6c edbc 50b6 afbb
00000310: 0108 b2bb 970c 2fbd 1dcc c13c 5ce3 b63c
00000320: a014 cd3c 469d 00bd 0280 803d 3167 2a3d
00000330: 35b2 e53c 7e0a 11be a248 24bd b799 cbbc
00000340: 1955 a73c c5b9 80bc 9a0a 1e3c 1304 5abc
00000350: f80c 5d3d eb5f 06bd d992 dfbb cd0f 37bb
00000360: e8d0 533d 4a9c 65bd fd0e 28bd 9641 7c3c
00000370: 7fad 94bd cdd9 683d 1133 cfbd 488e 07bd
00000380: d765 bebd 4294 afbd 7e37 41bd 7b82 5dbe
00000390: 2fad 0ebd c8da 03bc 4794 f9ba 942b f53c
000003a0: 20ea cbbb 16de b4bd 4757 973b 785b d5bc
000003b0: 6326 3fbd dfa4 9fbd 27d9 9dbd 4cdd b0bc
000003c0: cd56 e2bc 21f2 50bd c5a3 5f3d eb80 7f3d
000003d0: 922b 88bc 98b6 52bd 58ab 843c e850 633c
000003e0: 63c6 da39 f1df 81bc 8d0d 7dbc e3e9 d53c
000003f0: 97a0 27bd 5cd4 89bd 7b45 963d 1dfa 7dbd
-0.04902499 0.07536016 -0.032408297 0.07062307 -0.05058979 -0.046925135 0.011758138 0.014800767
-0.04352062 -0.03669203 -0.019784564 0.036224876 -0.016302595 0.10700208 0.07583416 -0.015910553
-0.05761313 -0.031536937 0.058856525 -0.03290239 -0.042284545 0.017201677 0.09476446 0.101220675
-0.04220818 -0.032802533 -0.017109543 0.025089456 -0.07386558 -0.025930105 0.02655587 -0.036157187
-0.046188105 -0.00086212845 -0.011134748 0.068104155 -0.021842165 -0.032807726 -0.025447534 -0.01899662
0.0092599625 0.08181796 0.23090029 0.10875905 -0.047961477 0.0006113764 -0.02514937 0.090235054
-0.012126692 0.097930044 0.005257545 -0.048053045 -0.06248257 -0.024199855 -0.062694006 0.005100376
-0.0562035 -0.083872914 -0.036338557 -0.033588503 0.0016285898 0.013006282 0.11379389 0.1820685
-0.026078017 -0.054865424 0.076428585 0.037634432 -0.028634889 -0.0026240638 -0.011807791 -0.012381794
-0.065735824 0.0013444079 0.0309825 0.007811167 -0.014910936 -0.0247742 0.031240769 0.037495546
-0.026373385 0.038426746 0.17677121 -0.009332877 -0.055607468 -0.007121429 -0.049917385 0.00059435685
-0.040577833 -0.04411678 0.045806125 -0.044557102 -0.07901316 -0.051969554 -0.007867636 -0.023068901
-0.06390445 -0.0307077 -0.054461453 0.06998754 -0.015242583 -0.019266197 0.009138694 -0.029674105
-0.05149639 -0.028347598 -0.08507613 0.07042825 -0.03420794 0.020332335 -0.0055160252 0.018723292
-0.044792905 0.00815534 -0.06991751 -0.0076985764 -0.048559804 -0.046691567 -0.051797505 0.03705011
0.04062249 -0.08540042 -0.085893795 0.029283015 0.07620778 0.033324305 -0.017166264 -0.05094425
-0.062498882 -0.049364652 -0.06371445 0.052504897 0.06598246 0.10670234 0.0994521 0.050520755
0.030751195 -0.033519957 0.019160423 -0.00755632 0.11482976 0.0044522607 0.091854446 0.08014299
0.035605617 -0.011489255 -0.08930511 0.040815722 0.029276805 0.0016580672 -0.0027576492 0.010610484
-0.044540685 0.07688334 0.1460599 0.09846823 -0.10796614 -0.0204625 -0.075588256 -0.013963794
0.05538286 0.096324846 0.20312478 0.016635899 0.012328569 0.051737756 -0.069425546 0.040022366
0.020892462 -0.017702354 0.08083462 0.0029681765 -0.0793062 -0.11364046 -0.17862284 0.05087968
0.007022791 0.035629027 -0.06565765 -0.009875626 0.006425379 -0.065708235 0.013072378 0.09038268
0.09908921 -0.048594896 -0.054660693 -0.012253968 -0.006089472 -0.010512638 0.070184425 -0.03623423
0.0062097814 0.014864935 -0.028982272 -0.0053623095 -0.005433083 -0.042736616 0.0236569 0.02232521
0.025034249 -0.031399988 0.062744156 0.041602317 0.028039077 -0.14164159 -0.04010833 -0.02485357
0.02042632 -0.015713582 0.009646082 -0.013306635 0.053967446 -0.03280632 -0.0068229255 -0.0027933002
0.0517129 -0.056057252 -0.04102992 0.015396496 -0.07259654 0.056848336 -0.10117162 -0.033094674
-0.09296768 -0.085732 -0.047172062 -0.21631806 -0.03483313 -0.008047767 -0.0019041382 0.029928006
-0.0062229782 -0.08831422 0.0046185586 -0.026044592 -0.046667468 -0.077951185 -0.07707434 -0.021589898
-0.02762928 -0.051012162 0.054599542 0.062378805 -0.016622338 -0.051443666 0.016194984 0.01387427
0.0004172801 -0.015853854 -0.015445125 0.026112502 -0.040924635 -0.067299575 0.07337471 -0.062006105

tcn.network.0.net.0.bias f4 [30]
00000000: 5048 a13e 65a4 963e d734 d4be 8f19 0fbe
00000010: 96f0 9d3e b5a4 21be c50b ec3e 4057 b13e
00000020: 665d e9be cfe5 80be d7cf f2be 04f6 ee3e
00000030: b759 99be 10c5 7d3e 7ae1 023f 95f3 0dbe
00000040: f754 d23e 7bc4 44be 015d 033f 0e2b 76bc
00000050: 3cdd 8ebe 9eca bc3e 48cd 973d 3698 e73e
00000060: 8851 043f 73fb acbd e368 843e da3f db3e
00000070: 36f2 ff3d 6646 163e
0.31500483 0.29422298 -0.41446564 -0.13974594 0.30847615 -0.15785487 0.4610273 0.3463688
-0.4557907 -0.2517533 -0.47424194 0.4667207 -0.2995126 0.24782205 0.511253 -0.1386245
0.41080448 -0.19215576 0.5131379 -0.0150249135 -0.27903163 0.36873335 0.07412201 0.45233315
0.51686907 -0.08446398 0.25861272 0.42822152 0.1249737 0.14675292

tcn.network.0.net.0.weight_g f4 [30, 1, 1]
00000000: 1cd9 303f 27cd 2a3f d3f3 203f ba61 513f
00000010: c200 2b3f 323d 253f d01c 553f d145 103f
00000020: 24b3 1a3f c711 e93e 097c 383f 5b45 713f
00000030: fb81 2c3f 7b5b 103f 86ae cd3e 94fe 2a3f
00000040: 2e98 093f 7211 373f 30d8 1c3f d4a7 bf3e
00000050: 74d6 0d3f 11d4 fd3e 7856 0b3f 6286 a13e
00000060: 5fe0 013f e9c8 e83e 78d0 403f 8d61 e63e
00000070: d77f 1d3f be4a 223f
0.6908128 0.6671929 0.62872046 0.81789744 0.6679803 0.645465 0.8324709 0.5635653
0.60429597 0.45521376 0.7206426 0.94246453 0.67385834 0.5638959 0.40172213 0.66794705
0.5374783 0.71510994 0.61267376 0.3743273 0.55405354 0.49575856 0.54428816 0.31547838
0.5073299 0.45465782 0.753181 0.449963 0.61523193 0.633953

tcn.network.0.net.0.weight_v f4 [30, 1, 4]
00000000: 5c7b 48be e01e f63d 2b31 0a3f a733 81be
00000010: af56 98be bf14 ca3e 286a 2c3e ba8c b8be
00000020: 2e73 a6be b057 933e 7b48 6abc edb7 e43e
00000030: 1ef7 a0be b48d cf3e 5f48 c13e 833e f2be
00000040: cc07 983e 1802 debe d789 96be c1bb b6be
00000050: 0e3e 0a3e cb88 913d 46b8 e13e 57a1 b8be
00000060: 654f ac3e caca c5be 50a3 9bbe 6c55 df3e
00000070: b36f 8ebe 5bcd d03d 0f40 b33e c787 a7be
00000080: 2d8e 27be 5a6e 56be 9cf2 d53e b644 a93e
00000090: e1c1 72bd 3beb dd3e 33dc 823d 3cb3 b5bd
000000a0: d433 953e eb71 3c3e 5a30 a93e ee9b d4be
000000b0: f125 b6be a995 abbe 0831 d8be f14e 143f
000000c0: 0b2a 78be 7ef1 90be 49fa 853e 807b fcbe
000000d0: 7175 93be 03b8 013e f558 fbbd 8f80 a03e
000000e0: 0dd5 723d 6f0b 69bd 44b9 e4be 1238 883d
000000f0: 3368 7bbe a985 913e a19f d9be bf6f 4b3e
00000100: e53f 74be 2bac 513e 5f48 9d3e acba a8be
00000110: 6471 47be cb3f c8be e60e 903e f39c f4be
00000120: 5331 7d3e 62a1 bd3e 2dfe 793d 08f3 f0be
00000130: efeb 71be c3b5 273e 0d1a 173d 85bb 47be
00000140: 612c 0ebe 9a59 a53e 1e8d ecbd ef56 c3be
00000150: 7178 ef3e fbef 2fbe 8dab bd3e f58d 72bd
00000160: 761b 703e 96e7 67be fb1f 04be a5ce ffbe
00000170: 3934 c53e 46b0 073e d94f 0c3d 7c83 06be
00000180: 1531 69be a84a f23e f9ee 45be 93ca 1dbe
00000190: b493 003d 48d9 803e 3b6a bd3e aff9 eebc
000001a0: 44c2 d13e 483c fdbe 3307 343e 30ce a23e
000001b0: 8d75 093e 3a94 f8be 3706 83be 3026 e4bd
000001c0: ea24 8abe fca6 f1bd d277 713d 5462 903e
000001d0: 5cfa 84be 9667 68be dad7 843e 44be 323e
-0.19578308 0.12017608 0.53981274 -0.2523472 -0.29753634 0.39468953 0.1683737 -0.36044866
-0.3250975 0.28777838 -0.014299507 0.44671574 -0.31438535 0.40537798 0.37750527 -0.47313318
0.2969345 -0.43360972 -0.29402038 -0.3569012 0.13500234 0.07106169 0.44085902 -0.36060593
0.33654323 -0.38631278 -0.30398035 0.4361986 -0.27819595 0.101954184 0.3500981 -0.32720777
-0.1636283 -0.20940533 0.4178666 0.33060235 -0.05926693 0.4334353 0.06389656 -0.08872077
0.29141104 0.18402831 0.33044702 -0.41525215 -0.35575822 -0.3351262 -0.42224908 0.57932955
-0.24234788 -0.28309244 0.26167515 -0.49312973 -0.28800538 0.12667851 -0.122728266 0.31348082
0.059285212 -0.05689567 -0.44672596 0.066513196 -0.24551468 0.28422287 -0.425046 0.19866847
-0.23852499 0.20475833 0.30719277 -0.3295492 -0.19476849 -0.3911117 0.28136367 -0.47775993
0.24725847 0.37037188 0.061033417 -0.47060418 -0.23625158 0.1637793 0.03689008 -0.19505127
-0.13884117 0.32294923 -0.115503535 -0.38152263 0.46771577 -0.17181389 0.37044945 -0.059217412
0.23447976 -0.22646937 -0.12902825 -0.49962345 0.38516405 0.13250837 0.034255836 -0.13136095
-0.2277263 0.47322583 -0.19329442 -0.15409307 0.03139086 0.25165772 0.3699511 -0.029171793
0.40968525 -0.49460053 0.17580871 0.31797934 0.13423748 -0.48550588 -0.2559068 -0.11140096
-0.26981288 -0.11799428 0.05895216 0.28200018 -0.2597226 -0.22695765 0.25945932 0.17455393

tcn.network.0.net.4.bias f4 [30]
00000000: 3508 853d adc5 593d 4f40 55bc fd29 e83d
00000010: 49b7 f33d d478 c33a de9f babc 4134 b33c
00000020: 8aa0 79bd acaa 7b3b 5593 c43d eebc c0bc
00000030: 6c2a b73d e555 a63d fbe7 2c3d f2cd f4bc
00000040: 883f 7fbc d6b2 3a3d 6e05 5f3d f67d 703d
00000050: 4f57 96bd 687a 1a3d c577 bb3c acd1 b3bd
00000060: 6e22 1a3e 8eec 68bb e8eb a43d 2cd2 103e
00000070: 7976 113e 162d d63c
0.06495706 0.053167034 -0.013015821 0.11336134 0.11900193 0.0014913329 -0.022781309 0.021875503
-0.060944118 0.003840129 0.09598414 -0.023527589 0.08943638 0.08121852 0.04221342 -0.029883359
-0.015579112 0.045580707 0.054448538 0.058713876 -0.073408715 0.037714392 0.022884259 -0.08780226
0.15052196 -0.0035541388 0.08052808 0.14142674 0.1420535 0.026144546

tcn.network.0.net.4.weight_g f4 [30, 1, 1]
00000000: f14a 263f 04fa 0a3f c36a 293f e91b 363f
00000010: 3c76 1d3f 1518 0a3f d60e 093f 376d 123f
00000020: ad28 003f 12fb 1e3f ee4d 363f 3e51 0f3f
00000030: d834 213f f709 353f 7762 1e3f 952c 1d3f
00000040: 6281 253f 891b 173f 92da 253f dc58 133f
00000050: 28cf 233f 7575 093f c7e8 223f 9080 0b3f
00000060: 1f81 073f 2d8b 213f 22d9 2c3f 957e 183f
00000070: c841 233f 3c48 1c3f
0.649581 0.54287744 0.6617853 0.7113634 0.61508536 0.53942996 0.5353826 0.571979
0.50062066 0.6210185 0.7121266 0.5598334 0.6297126 0.7071833 0.61868995 0.6139615
0.6465055 0.5902639 0.64786637 0.57557464 0.6398797 0.5369485 0.6363644 0.54493046
0.529314 0.6310299 0.6751882 0.5956815 0.6377225 0.6104772

tcn.network.0.net.4.weight_v f4 [30, 30, 4]
00000000: 6ece 48bd 6d56 9a3d 90be 04bd d4a2 903d
00000010: 3d37 4fbd 9234 40bd 35a5 403c eb7e 723c
00000020: ad42 32bd 624a 16bd 3d13 a2bc 8960 143d
00000030: 058d 85bc e823 db3d f14e 9b3d d956 82bc
00000040: bffb 6bbd e02c 01bd 8a13 713d a8c4 06bd
00000050: 8f32 2dbd 88ea 8c3c df13 c23d c94c cf3d
00000060: 7ce2 2cbd f35b 06bd 5029 8cbc 6788 cd3c
00000070: d646 97bd 5f6b d4bc b28b d93c 8f19 14bd
00000080: bd2f 3dbd 7600 62ba 856e 36bc 317a 8b3d
00000090: 57ee b2bc 6561 06bd 5977 d0bc cd9e 9bbc
000000a0: 19b7 173c 2d90 a73d 2071 6c3e 11bd de3d
000000b0: 4173 44bd c744 203a 0d06 cebc 28cd b83d
000000c0: 08af 46bc 8c8f c83d 7c47 ac3b 45d3 44bd
000000d0: b9ed 7fbd c63e c6bc b765 80bd 0e21 a73b
000000e0: a435 66bd 90c5 abbd bdd7 14bd 1994 09bd
000000f0: 6876 d53a 4d18 553c c50c e93d 2a70 3a3e
00000100: 91a1 d5bc 91ba 60bd 9786 9c3d 9026 1a3d
00000110: b793 eabc 7cf8 2bbb 7775 41bc 02dd 4abc
00000120: 81a0 86bd d836 b03a 03cf fd3c d1f4 ff3b
00000130: 004d 74bc 43f3 cabc a4ec ff3c ee94 193d
00000140: ff0c d8bc 5d65 1d3d 8303 353e ece8 18bc
00000150: a8c4 63bd e05a e9bb 2c76 4cbd 9dce 1b3a
00000160: f134 26bd ccb3 34bd 349f 3b3d 8281 36bd
00000170: a7d1 a1bd 07de 54bd 42e7 00bc fefa bcbc
00000180: 56e0 82bd b78e fbbc f912 5fbd a155 8f3d
00000190: 07bc 79bc 25d4 9dbc 76ba 153c 1c17 f3bc
000001a0: e1ed 52bd 3939 e8bc 653c aebd b03c 903d
000001b0: a01d 0cbd ff8f a63c c6bf b4bb 9761 993c
000001c0: c478 37bd fa9d 053c e930 8fbd 5744 fcbb
000001d0: a5e6 46bd a83f 3fbd 9f29 54bd dbc1 173d
000001e0: c563 263d 6ae6 aebd 16e9 afbd efe2 ef3c
000001f0: d312 9c3d 117f 083d 44a0 8cbc ebaa 50bd
00000200: d4fe 7fbd 9732 4abd b97c 82bd 600f 573d
00000210: d021 873d c286 da3d 8bad cb3d daee 4e3d
00000220: eee9 fb3c 394c 09bd 52f6 9c3c 029b f7bb
00000230: dd2b eb3d 45e4 913b 2f1e bc3d 0222 a43d
00000240: 32d7 113d 6e3d 3cbc 99e5 b6bd 632e 273d
00000250: e9d5 ef3c 8153 d93a adb9 34bb 98d7 2d3c
00000260: 4b70 36bd 0375 9d3d ba90 153e b6a9 c93d
00000270: 5a1d ddbd f9a0 a7bc 04ce 9abd 66c8 64bc
00000280: 23d9 623d f645 c53d f1ff 4f3e 0248 883c
00000290: c4fd 493c f8ea 533d fb2e 8ebd 7eee 233d
000002a0: ab26 ab3c 8704 91bc 9f8c a53d bd85 423b
000002b0: 4a6b a2bd 54bc e8bd e8e8 36be 3667 503d
000002c0: 711f e63b beef 113d 8577 86bd 61cd 21bc
000002d0: fc8b d23b 0a92 86bd 872d 563c 8e1a b93d
000002e0: 49ef ca3d 710b 47bd e4e3 5fbd dec4 48bc
000002f0: 328a c7bb 333d 2cbc dabc 8f3d 586a 14bd
00000300: 6c7b cb3b 0e8c 733c 3b6c edbc 50b6 afbb
00000310: 0108 b2bb 970c 2fbd 1dcc c13c 5ce3 b63c
00000320: a014 cd3c 469d 00bd 0280 803d 3167 2a3d
00000330: 35b2 e53c 7e0a 11be a248 24bd b799 cbbc
00000340: 1955 a73c c5b9 80bc 9a0a 1e3c 1304 5abc
00000350: f80c 5d3d eb5f 06bd d992 dfbb cd0f 37bb
00000360: e8d0 533d 4a9c 65bd fd0e 28bd 9641 7c3c
00000370: 7fad 94bd cdd9 683d 1133 cfbd 488e 07bd
00000380: d765 bebd 4294 afbd 7e37 41bd 7b82 5dbe
00000390: 2fad 0ebd c8da 03bc 4794 f9ba 942b f53c
000003a0: 20ea cbbb 16de b4bd 4757 973b 785b d5bc
000003b0: 6326 3fbd dfa4 9fbd 27d9 9dbd 4cdd b0bc
000003c0: cd56 e2bc 21f2 50bd c5a3 5f3d eb80 7f3d
000003d0: 922b 88bc 98b6 52bd 58ab 843c e850 633c
000003e0: 63c6 da39 f1df 81bc 8d0d 7dbc e3e9 d53c
000003f0: 97a0 27bd 5cd4 89bd 7b45 963d 1dfa 7dbd
-0.04902499 0.07536016 -0.032408297 0.07062307 -0.05058979 -0.046925135 0.011758138 0.014800767
-0.04352062 -0.03669203 -0.019784564 0.036224876 -0.016302595 0.10700208 0.07583416 -0.015910553
-0.05761313 -0.031536937 0.058856525 -0.03290239 -0.042284545 0.017201677 0.09476446 0.101220675
-0.04220818 -0.032802533 -0.017109543 0.025089456 -0.07386558 -0.025930105 0.02655587 -0.036157187
-0.046188105 -0.00086212845 -0.011134748 0.068104155 -0.021842165 -0.032807726 -0.025447534 -0.01899662
0.0092599625 0.08181796 0.23090029 0.10875905 -0.047961477 0.0006113764 -0.02514937 0.090235054
-0.012126692 0.097930044 0.005257545 -0.048053045 -0.06248257 -0.024199855 -0.062694006 0.005100376
-0.0562035 -0.083872914 -0.036338557 -0.033588503 0.0016285898 0.013006282 0.11379389 0.1820685
-0.026078017 -0.054865424 0.076428585 0.037634432 -0.028634889 -0.0026240638 -0.011807791 -0.012381794
-0.065735824 0.0013444079 0.0309825 0.007811167 -0.014910936 -0.0247742 0.031240769 0.037495546
-0.026373385 0.038426746 0.17677121 -0.009332877 -0.055607468 -0.007121429 -0.049917385 0.00059435685
-0.040577833 -0.04411678 0.045806125 -0.044557102 -0.07901316 -0.051969554 -0.007867636 -0.023068901
-0.06390445 -0.0307077 -0.054461453 0.06998754 -0.015242583 -0.019266197 0.009138694 -0.029674105
-0.05149639 -0.028347598 -0.08507613 0.07042825 -0.03420794 0.020332335 -0.0055160252 0.018723292
-0.044792905 0.00815534 -0.06991751 -0.0076985764 -0.048559804 -0.046691567 -0.051797505 0.03705011
0.04062249 -0.08540042 -0.085893795 0.029283015 0.07620778 0.033324305 -0.017166264 -0.05094425
-0.062498882 -0.049364652 -0.06371445 0.052504897 0.06598246 0.10670234 0.0994521 0.050520755
0.030751195 -0.033519957 0.019160423 -0.00755632 0.11482976 0.0044522607 0.091854446 0.08014299
0.035605617 -0.011489255 -0.08930511 0.040815722 0.029276805 0.0016580672 -0.0027576492 0.010610484
-0.044540685 0.07688334 0.1460599 0.09846823 -0.10796614 -0.0204625 -0.075588256 -0.013963794
0.05538286 0.096324846 0.20312478 0.016635899 0.012328569 0.051737756 -0.069425546 0.040022366
0.020892462 -0.017702354 0.08083462 0.0029681765 -0.0793062 -0.11364046 -0.17862284 0.05087968
0.007022791 0.035629027 -0.06565765 -0.009875626 0.006425379 -0.065708235 0.013072378 0.09038268
0.09908921 -0.048594896 -0.054660693 -0.012253968 -0.006089472 -0.010512638 0.070184425 -0.03623423
0.0062097814 0.014864935 -0.028982272 -0.0053623095 -0.005433083 -0.042736616 0.0236569 0.02232521
0.025034249 -0.031399988 0.062744156 0.041602317 0.028039077 -0.14164159 -0.04010833 -0.02485357
0.02042632 -0.015713582 0.009646082 -0.013306635 0.053967446 -0.03280632 -0.0068229255 -0.0027933002
0.0517129 -0.056057252 -0.04102992 0.015396496 -0.07259654 0.056848336 -0.10117162 -0.033094674
-0.09296768 -0.085732 -0.047172062 -0.21631806 -0.03483313 -0.008047767 -0.0019041382 0.029928006
-0.0062229782 -0.08831422 0.0046185586 -0.026044592 -0.046667468 -0.077951185 -0.07707434 -0.021589898
-0.02762928 -0.051012162 0.054599542 0.062378805 -0.016622338 -0.051443666 0.016194984 0.01387427
0.0004172801 -0.015853854 -0.015445125 0.026112502 -0.040924635 -0.067299575 0.07337471 -0.062006105

tcn.network.0.downsample.weight f4 [30, 1, 1]
00000000: 25b8 ddbc 4f74 a9bd 13ec cebc d709 013e
00000010: 1a4a a7bd 098e b23d d1cc da3d 2036 a1bd
00000020: b3a8 13be 0f08 1abd 0783 ed3d 30ef d73c
00000030: 4dd4 9dbd cfb0 573d 69e2 db3d 31f6 103b
00000040: 8926 6bbd 502a fb3b d825 9d3d b65a d2bc
00000050: 6552 503d a0b9 eebd 5580 9c3d 6944 533c
00000060: 2f36 59bd 18fd dabd 24ac c2bb 41ce e13c
00000070: 5dd7 423d f7d7 96bd
-0.027065346 -0.08274137 -0.025259053 0.1260141 -0.081684306 0.08718497 0.10683597 -0.07871652
-0.14419822 -0.03760534 0.11597257 0.02635917 -0.07706509 0.052658852 0.10736544 0.0022119398
-0.057409797 0.007664956 0.07673234 -0.02567802 0.050859828 -0.11656499 0.07641665 0.012894728
-0.05303019 -0.10692805 -0.005940931 0.02756417 0.047568668 -0.07365411

tcn.network.0.downsample.bias f4 [30]
00000000: 05f2 99be be42 973d 09ff 7b3e 5b49 563f
00000010: 5bf1 05bf 791f 013f 1439 d33e 7b3c ae3d
00000020: 51d7 dd3e 49f9 78bf 34cd 563f 09e9 01bf
00000030: 85f3 40be aabb ab3e d8f5 383f f2d6 78be
00000040: b8a0 ae3e 6d33 37bf 44c2 d0bd 3866 bcbe
00000050: ec35 02bc 4a92 733f 61fc 243e 1bdd 5ebf
00000060: fd81 08bf d751 3c3f 6964 39bf efb7 34bf
00000070: 3e09 52bf 79e0 45bf
-0.3006746 0.07385777 0.24609007 0.8370568 -0.52321404 0.5043865 0.41254485 0.085076295
0.43328336 -0.9725538 0.83906865 -0.5074621 -0.18842895 0.33541614 0.7225013 -0.24300745
0.34106994 -0.71562845 -0.10193303 -0.36796737 -0.007947426 0.95145094 0.161119 -0.8705613
-0.53323346 0.7356238 -0.7241884 -0.7059316 -0.8204535 -0.77295643

tcn.network.1.conv1.bias f4 [30]
00000000: 89da 7ebd 877c b43d b47c 933d f540 83bc
00000010: 7898 c4bc 3857 7b3c 1ae2 ce3d 0381 eebd
00000020: e8ef 2ebd 051d 9f3d 5199 603d 2012 963c
00000030: a0d5 aabd 941d 35bd 27ae 25bc 8f03 72bd
00000040: 5715 60bd f448 cb3c ae0c 20bd d392 0d3c
00000050: fce9 40bc 9b11 223d 74b0 56bd afa1 a63c
00000060: e2eb 31bd 75d2 433c 2c69 eebb da85 dfba
00000070: 57a3 8f3d 26e5 10bd
-0.06222013 0.08812814 0.072015196 -0.016022185 -0.023998484 0.015340619 0.10101719 -0.11645701
-0.04270926 0.07769207 0.054833714 0.01831919 -0.08341527 -0.04421766 -0.010112322 -0.059085425
-0.05470785 0.02481506 -0.039074592 0.008640963 -0.011774536 0.03956757 -0.052414373 0.020340769
-0.043437846 0.011952032 -0.007275721 -0.0017053441 0.070135765 -0.035374783

tcn.network.1.conv1.weight_g f4 [30, 1, 1]
00000000: 84a2 293f 63ec 323f 403f 133f 6439 213f
00000010: 9386 303f dca4 223f 238f 063f 3490 303f
00000020: 0b0b 273f 02dd 213f 49f9 2c3f 2b09 253f
00000030: e22a 223f ff05 393f 395f 303f 9ccc 243f
00000040: 0e09 153f 0862 173f d7a1 173f 6c35 113f
00000050: 7768 273f e92d 2f3f 227c 213f 90e4 2a3f
00000060: 5ec5 313f aec4 163f 1eb8 233f 50e7 353f
00000070: fa1a 133f 423d 353f
0.66263604 0.6989195 0.57518387 0.62978196 0.68955344 0.63532805 0.5256216 0.68970037
0.65251225 0.63227856 0.6756788 0.64467114 0.63346684 0.72274774 0.688953 0.6437471
0.5821694 0.5913396 0.59231323 0.5672214 0.65393776 0.6842943 0.63080037 0.6675501
0.69441783 0.5889386 0.63952816 0.7105608 0.5746304 0.70796597

tcn.network.1.conv1.weight_v f4 [30, 30, 4]
00000000: a124 153d 3f68 51bd 893d dfb9 8ee7 463d
00000010: 63c8 15bc d89e c23b ffa8 b8bc 90c4 093c
00000020: 3bb4 dbbc b137 3fbd cc46 abbc f9e2 a7bb
00000030: 8cd1 f33c a774 8e3d 9e03 163d a469 a4bd
00000040: c3f5 493a 1dfb 9c3b 6a6a ec3c 6f87 4c3d
00000050: 129a 8a3d e789 0b3d f97e 833d d0a3 c23c
00000060: f222 293b 00a7 08bd 011e c4bb 0fca 94bd
00000070: 51b0 493c 5751 d838 b556 53bd e706 323d
00000080: 699a 393c cfc3 65bd 5650 9abd 2e75 5a3d
00000090: 23f4 92bc a649 e13c 7546 363d a985 30bd
000000a0: 84af 9dbc 60f2 9e3d 09a0 803d 52ef 573c
000000b0: ee22 013c 8295 9b3b 6137 1bbc 2737 4d3d
000000c0: a539 dcbb 6b08 963b 5a32 84bd 4934 f43c
000000d0: a6d9 e9bc 6a57 bc3d f662 9b3c ae73 a0bd
000000e0: 2b8a 77bd 9368 51bb d1ed 993d 4659 ae3c
000000f0: 83b3 0bbc a7cc 83bc 71b4 b53c 49d8 74bd
00000100: 4656 883c d945 25bd 4122 813d 923d 913d
00000110: 8561 beba 4840 06bb ae60 57bb b698 893d
00000120: b743 03bc 7ae8 453b 46e2 de3c ec61 3abd
00000130: 6c49 09bd 408a d73c d480 f93c db50 be3d
00000140: 7569 ef3c 478a 563d ab0d 0a3e 9e57 4dbd
00000150: 8b39 1e3d 5ede 53bd 78f7 44bd da7f 7f3d
00000160: dfdc 92bc ca08 b13d ddf2 553d 2639 b7bd
00000170: bb96 f3bb a257 e038 08e1 48bc d012 77b7
00000180: bd2a a63b edba 33bc d37c 94bc 65ca c33d
00000190: f380 28bd b5cf 75bd 5af5 6abd f5a3 3dbd
000001a0: 3820 07bd 81c5 a53c a0c9 593c 3fa2 02be
000001b0: b28a 4e3c be3c 043d 6339 c93c f076 323c
000001c0: c6da 04bd 048e 8ebd 859f 2cb9 bfca 833d
000001d0: 016e 0c3d d4ff 1abc 1c97 7fbc 8740 ed3c
000001e0: 954d abbc 4e58 0b3b cbc1 b73d 2cb0 00bd
000001f0: cdb0 5fbd 2c2e 923c 64bb 3fbc 8519 5dbd
00000200: 76aa 203c d7f0 073d d630 b33c 47e3 be3c
00000210: bbd2 b9bd e1b1 d9bd 7438 95bd 6fff 123c
00000220: dcb0 2cbb 8086 abbb b991 2fbb 5b59 003e
00000230: c46e e7bc 0887 f13a 3bef 84bd 9289 debc
00000240: f8f9 683c ee32 d0bd 0c43 8ebc 581f 5abb
00000250: bef6 213c 6fe8 843c 875b 153d ca9a 55bd
00000260: abcd 1e3d c0fe 1d3d c5e3 283d a7ac 9fbd
00000270: d238 8e3c d6e8 13bd b7aa c13c ee76 84bd
00000280: 60ce c4bd 4936 073d 14c3 0abd 6cf8 a9bd
00000290: 3954 f8bc 6bcd 8bbb 63fc 0fbc 4ca5 cabd
000002a0: fe4c ccbc 7c90 d43c ae1e 893b d736 e9bd
000002b0: dfd6 313c c558 ecbd c56a 2dbd 1814 d43c
000002c0: ec9a 57bc f05b e53c a79f fc3b 2083 91bd
000002d0: 8c66 3abc 801e f73c 30fb 66bd 4092 edbc
000002e0: 79e6 973d 4f4c 873d 61bc b13d 3e0a a03c
000002f0: a77c 493c 47e2 373a e87c b53c 0699 d5bd
00000300: 9269 af3b b74f 983d fa85 383b 9177 a23d
00000310: 4b29 823c 6dc9 723c ab08 2b3c dc42 643c
00000320: 1e92 1c3c 07f2 84bd 47c4 97bc 1140 c73a
00000330: f937 603d 2689 673d f7b3 7a3d d745 713d
00000340: 9d7a 4b3d 7a5a 03bd eae4 54bd 8e62 8d3d
00000350: 49a1 50b5 5e6d 1f35 5f31 083a b140 4d37
00000360: 2c79 e1bc 47ca 0cbb d9e3 0e3d 4eaf 28bd
00000370: 6cbb 1bbc a9c1 56bd 15d4 ab3d d82d 043d
00000380: 450f 933c 76c9 aa3b f035 6bbd 2883 7abd
00000390: 2885 16bc f666 3abc 35d3 81bd d93f fcba
000003a0: bd5a 1ebd 75a3 a4bc 8ef8 963d a321 88bc
000003b0: 0860 05bc a5a3 d83b 2815 c53b 7a0d 5fbd
000003c0: 9e94 7b3c ec4f 5dbd ca9a 63bd 472c fd3d
000003d0: c380 afbc da3f 203c 1c63 163c 5d1f 8bbd
000003e0: 17b9 67bd bf1f bb3c b3d0 c33b 10e3 c53d
000003f0: df49 fe3c e8bd 8dbd a36a 993d 3bd2 debc
0.036411885 -0.051124807 -0.00042579722 0.04856067 -0.009142014 0.005939346 -0.022541521 0.008408681
-0.026819339 -0.04668397 -0.020907782 -0.005123493 0.029763006 0.069558434 0.036624543 -0.08027962
0.0007704163 0.004790677 0.028859336 0.049933847 0.06767668 0.03406706 0.064207025 0.023759753
0.0025808183 -0.03336239 -0.005985022 -0.07265102 0.0123101035 0.00010314833 -0.051596362 0.043463614
0.011328318 -0.05609494 -0.07534854 0.053334408 -0.01793868 0.027500939 0.044500787 -0.04309622
-0.019248731 0.07761073 0.06280524 0.013179617 0.007881863 0.0047480473 -0.009473653 0.050101425
-0.006720739 0.00457864 -0.06454916 0.029810088 -0.028546166 0.091963604 0.018968087 -0.07834564
-0.0604345 -0.00319532 0.07516063 0.021282803 -0.008526686 -0.016088797 0.022180768 -0.059776578
0.0166427 -0.040349815 0.063053615 0.07091822 -0.0014524913 -0.0020485092 -0.0032864022 0.067185804
-0.00801175 0.0030198381 0.027207505 -0.04550354 -0.033517286 0.02631104 0.030456938 0.09292766
0.02922509 0.052377965 0.13481776 -0.050132386 0.038629096 -0.051725738 -0.048087567 0.062377788
-0.017927585 0.086442545 0.052233566 -0.08946447 -0.00743374 0.00010697475 -0.012260683 -1.4726727e-05
0.005071013 -0.01096986 -0.018125927 0.09560088 -0.0411386 -0.060012538 -0.05736289 -0.04629894
-0.03298971 0.020235779 0.0132927 -0.12757204 0.01260631 0.03228449 0.024563497 0.010892615
-0.0324352 -0.06960681 -0.00016462624 0.06435155 0.034284595 -0.009460408 -0.015599992 0.028961433
-0.020911017 0.002126235 0.0897251 -0.03141801 -0.05461197 0.017844282 -0.011702392 -0.053979415
0.009806266 0.033188667 0.021873873 0.023301734 -0.09073397 -0.10629631 -0.07286158 0.008972033
-0.0026350534 -0.0052345395 -0.0026789738 0.12534086 -0.02825106 0.0018427083 -0.06490942 -0.027165208
0.014219753 -0.10165964 -0.017365955 -0.0033282842 0.009885488 0.016224114 0.03646424 -0.05214957
0.03877036 0.038573027 0.041232843 -0.07796603 0.017361078 -0.03611072 0.023640973 -0.064679965
-0.096096754 0.033010755 -0.033877447 -0.08299336 -0.030313598 -0.004266431 -0.008788201 -0.09894809
-0.024939056 0.025947802 0.0041845655 -0.11387413 0.010854452 -0.11540369 -0.04233815 0.025888488
-0.013159495 0.02799794 0.0077094617 -0.07105088 -0.011376988 0.03016591 -0.056391895 -0.029000401
0.07417006 0.066063516 0.086785085 0.019536134 0.012297786 0.0007014614 0.022154287 -0.104295775
0.005353161 0.074370794 0.0028156028 0.07932962 0.01588883 0.014818531 0.010439078 0.013931956
0.009556321 -0.064914756 -0.01852621 0.0015201588 0.05474088 0.05652728 0.061206784 0.058904495
0.04967748 -0.032068707 -0.051976122 0.069035634 -7.772074e-07 5.9391266e-07 0.0005195345 1.2234014e-05
-0.0275236 -0.0021482871 0.03488526 -0.04118281 -0.009505134 -0.052430782 0.08390061 0.032270283
0.017951617 0.0052120043 -0.057424486 -0.061160237 -0.00918702 -0.011377087 -0.06339113 -0.0019245102
-0.038660754 -0.020097474 0.07371627 -0.016617602 -0.008140571 0.006611305 0.006014485 -0.05445621
0.015355257 -0.054031298 -0.05556754 0.12361961 -0.021423703 0.009780848 0.009178903 -0.067930914
-0.056573 0.022842286 0.0059758066 0.09662449 0.031041084 -0.06920987 0.074910425 -0.027199855

tcn.network.1.conv2.bias f4 [30]
00000000: ab87 11bc 0de6 853c 1f98 1bbb 48c8 ea3c
00000010: 6738 053d e1a2 efba 52e6 353d 1c01 783c
00000020: dde1 82bc 128a 99bc 9f70 61bc b817 a4ba
00000030: 1a9b cabc 478a 65bc 69c6 6b3b 123a 753c
00000040: 7d91 793d e0f4 153d 94b2 fbbc 2688 473d
00000050: 4235 303d eecc bfbb af4b f4bb a6b7 d63c
00000060: 3733 be3c dcd5 9b3c ad5c 16bc 76f8 62bd
00000070: 3e63 1fbd eda6 3fbc
-0.008882443 0.016345048 -0.0023741794 0.028659955 0.032524493 -0.0018282795 0.044409104 0.015136983
-0.01597684 -0.018742595 -0.013759761 -0.0012519276 -0.024732161 -0.014010019 0.0035976416 0.014967458
0.060929764 0.036610484 -0.030724801 0.048713826 0.04301954 -0.005853287 -0.0074553112 0.026210617
0.02321778 0.019022875 -0.009177369 -0.055412732 -0.038913004 -0.011697513

tcn.network.1.conv2.weight_g f4 [30, 1, 1]
00000000: 6b01 1e3f 9634 263f b09e 2a3f 0540 373f
00000010: 6268 3c3f 2d70 343f 3b6e 323f 98e6 223f
00000020: 5f2d 333f 0c21 393f 8353 2e3f e85e 1c3f
00000030: 55d0 273f fe8f 263f 3ba8 3b3f c53c 223f
00000040: 62c3 3b3f 576f 2e3f b51a 2f3f 1fde 373f
00000050: 274e 353f c53b 143f 4aa6 3f3f 24d1 383f
00000060: 8733 2c3f ddcf 213f c349 303f f35d 1e3f
00000070: e8cc 1e3f 6d20 203f
0.61720914 0.6492399 0.6664839 0.7158206 0.73596776 0.70483667 0.6969945 0.6363311
0.69991106 0.7231605 0.6809618 0.61082315 0.65552264 0.65063465 0.73303574 0.63373977
0.73345006 0.6813864 0.68400127 0.71823305 0.70822376 0.579037 0.7486311 0.72194123
0.67266124 0.632078 0.6886255 0.61862105 0.6203141 0.6254948

tcn.network.1.conv2.weight_v f4 [30, 30, 4]
00000000: 390c 66bc cd68 a4bc f0bc f33b 96f0 4ebc
00000010: 16cb 123d d61c bdbc 15af ee3b c4cf a13d
00000020: 8b2e a4bc 0ddb 703d e5f2 073d a6c4 9fbc
00000030: 722c 1b3b 1cda 3a3d a1db 093d 6088 a03c
00000040: eb3f 363a b600 dcbc 0f67 97bb 76d9 14be
00000050: 2467 08bd 8f1d b53c 78e9 853c 5b03 be3d
00000060: 894c abbd 7084 3dbd 0205 b93d 08ef 8d3d
00000070: 10aa fbbc d1f7 393d d892 1cbd 80c0 e7bd
00000080: 4434 a2ba c33b fd39 6962 673d a7b7 203d
00000090: 8949 a3bc 30b6 d9bc b992 2c3b 9134 a73d
000000a0: 0f94 f0bc d720 083d 3310 e8bc bbd9 60bd
000000b0: 1ee1 1bbd bcf6 c63c ce98 a13d 988f 2dbd
000000c0: a626 713c 6f9f 55bb 4c72 b1bc f3f3 cabd
000000d0: 97c6 433c 3938 af3d 4df6 d63d 389a 273d
000000e0: 90f9 8a3c e355 30bc 49f5 7cbb 9180 93bd
000000f0: 69b4 71bc c6de de3c 13f6 65bd 68a2 0cbb
00000100: a3f5 5c3d 148c 91bd f750 96bd 797e 9fbc
00000110: 29b4 0e3d 63fc 8d3c a549 973c b69b 2ebd
00000120: 8302 8c3c 9e8a e7bb 9bff e13c 2657 97bd
00000130: 09e5 1fbd fb80 653c a7b9 853d 2eee dd3d
00000140: a126 a6bd d9b9 d3bd 4c7f b0bd ce97 e2bd
00000150: 9d34 62bd e0cd 5cba 8bee efbc d0e5 5ebd
00000160: 8b95 ebbb 1efd 5e3c 89be ae3c d9a2 53bc
00000170: 9c02 10bd e5d9 52bd 5adb 2b3d e5d0 35bd
00000180: 9e6d f93b c0ce 78ba 41b7 c83c ede1 a73d
00000190: 6089 a73c 0bf6 37bd ed5e 18bd 60c0 ab3c
000001a0: fa33 033d ca43 233d 086e aa3d 5055 013e
000001b0: cb27 45bc 2007 1bbd eaed cdbd cc39 75bd
000001c0: 8c1f b23c 1fa4 053d 189e 823d ed64 483d
000001d0: 827e 22bc bade 543d 4411 a43d 1218 d83d
000001e0: 68e4 46bd d52a 363d ace2 303d b3b1 3a3d
000001f0: c0f6 abbc d443 613d d0cb 4bbd 99ae 7e3d
00000200: f87f 143d 63df df3b f441 e33c f008 67bb
00000210: fe87 c33c 2235 07bb 93e5 f93b ceef 9c3d
00000220: fb62 3ebc 85ea cb3c 8916 70bd 2667 c5bd
00000230: 1ae9 8cbc 8afa f9bc 65ca d0bb ef04 413d
00000240: 4807 203d a5de 8c3c 7691 223d 9acc 273c
00000250: 7880 14bd 5aca e8bc cd9f 37bd 7817 06be
00000260: 98dc 0bbd 8df9 15bd b0b3 a83c dbfa 973d
00000270: 0264 36bd 994f 4e3d 1a7c 183d d159 993d
00000280: 8622 1b3d 930b 1ebb 5d72 46bc ff7f a8bd
00000290: 2e83 5abd 570e aabc 4ed1 e83d 0afa 92bb
000002a0: 20a9 063d e4e9 6d3c 2975 8ebc 26a3 0abe
000002b0: 8b41 99bc b604 a83c 1d3a 063e 5a18 b93d
000002c0: 2fac 48bc 32bb b23c 22cf c7bd a5c8 c8bd
000002d0: d36b 15bd cd2f c939 dd00 a03c 067c a33d
000002e0: 54db f8bc 88be 07bd e8e8 f6bc 148d 7e3c
000002f0: 5589 e8bc 492c 14bd 87b3 c83b a72a 99bd
00000300: eb2d 06bb 7e1e adbc e2d4 8e3d 238c 713d
00000310: 603f a03c a1a0 ab3a 00dd a63c 4e14 873d
00000320: b635 3f3c 88d3 adbd 7152 56bd 8e03 eabd
00000330: f5db 2fbd 6704 ecbc 02b9 44bc a6a8 85bd
00000340: ee41 acbb ab59 0abc 8eb6 0e3d 04a8 f13d
00000350: c493 f33c a567 043d 85ec cebb 3477 fdbc
00000360: 6c51 6bbd 498f 59bd bbd3 953d 5db9 ba3d
00000370: 3739 a3ba 66b0 7e3d 967e 2b3d a94d bc3d
00000380: 4866 4b3c d5ec a93c e11c f63c df67 5a3b
00000390: 539b 8c3d eaa7 bbbd 67ca 113d d051 fdbd
000003a0: 9f72 83bd 7d0c 193d 1d18 e5bc 6d3e 283d
000003b0: c915 4ebd 39aa 9cbc 4b6e e1bc 8136 b03d
000003c0: 8674 6f3c 537c 29bd c59c 18bc afc8 163e
000003d0: 92ed 8d3c 5099 89bd 4afd 383c cb33 e7bd
000003e0: d198 423c 8295 43bc 1b00 1abd a6ee 0fbd
000003f0: a694 ae3c cc2e 793b 6a01 62bb eecd 8abc
-0.014041 -0.020069504 0.0074382946 -0.012630602 0.03583821 -0.02308504 0.007284055 0.07900956
-0.020041725 0.058802653 0.033190627 -0.019502949 0.0023677615 0.04561816 0.03365672 0.019596279
0.00069522735 -0.026855808 -0.00462044 -0.1453608 -0.033301488 0.022108821 0.016346678 0.09277984
-0.08364207 -0.04626888 0.09034158 0.06930357 -0.03072074 0.04540235 -0.03822598 -0.11316013
-0.0012375196 0.00048300446 0.056490336 0.039237645 -0.019932525 -0.026576132 0.002633257 0.08164323
-0.029367475 0.033234444 -0.028328037 -0.054895144 -0.038056485 0.024287574 0.07890473 -0.04237327
0.014718687 -0.003259625 -0.021660946 -0.09909811 0.011949203 0.085556455 0.10496197 0.04091856
0.016964704 -0.0107626645 -0.003859835 -0.072022565 -0.014752486 0.027205836 -0.056142878 -0.0021459106
0.053945195 -0.07106796 -0.073396616 -0.019469487 0.034839783 0.017332261 0.018467734 -0.042628966
0.017091041 -0.007066085 0.027587702 -0.07389669 -0.039036784 0.014007802 0.06529551 0.10836445
-0.08112837 -0.10338182 -0.0861803 -0.11064111 -0.055225957 -0.0008423012 -0.02928855 -0.054418385
-0.007189458 0.0136101525 0.021331089 -0.012917244 -0.03515874 -0.05147733 0.041957237 -0.04438867
0.0076119443 -0.00094912574 0.024501445 0.08197389 0.020451248 -0.04491238 -0.037199903 0.020965755
0.03203199 0.03985957 0.08321768 0.126302 -0.012033413 -0.03784859 -0.10055144 -0.059869573
0.021743558 0.03262722 0.0637781 0.048924375 -0.009917857 0.05197022 0.08011106 0.10551466
-0.04855767 0.04447444 0.04318492 0.045579623 -0.020991683 0.054996327 -0.049754918 0.062178228
0.036254853 0.0068320497 0.02774141 -0.003525313 0.023868557 -0.0020631035 0.0076262443 0.076629266
-0.0116202785 0.024892101 -0.05861524 -0.09638815 -0.017200995 -0.030514974 -0.0063717836 0.047123846
0.039069444 0.017196009 0.039689504 0.010241652 -0.03625533 -0.028416801 -0.044830132 -0.1309489
-0.03414592 -0.036614943 0.020593494 0.07420894 -0.04452897 0.05036888 0.037227727 0.07487834
0.03787472 -0.0024115785 -0.012112227 -0.08227538 -0.05334776 -0.02075879 0.11368047 -0.0044853734
0.032876134 0.014521096 -0.01738985 -0.13538799 -0.018708011 0.020510059 0.13108106 0.09037848
-0.012248083 0.021817777 -0.09756304 -0.09803895 -0.036479782 0.00038373322 0.019531662 0.0798264
-0.030378021 -0.03314069 -0.030140355 0.015536565 -0.028385798 -0.036175046 0.006124917 -0.074788384
-0.0020474147 -0.021132704 0.06974198 0.058971535 0.01956147 0.0013094136 0.020369053 0.0659567
0.0116705205 -0.08487612 -0.052324716 -0.11426459 -0.042934377 -0.028810693 -0.012007 -0.06526308
-0.005256883 -0.00844423 0.034842066 0.117996246 0.029733546 0.032325406 -0.0063148164 -0.03094063
-0.057450697 -0.053115163 0.07315775 0.091173865 -0.0012452964 0.062179945 0.04186877 0.091945
0.0124145225 0.020742813 0.030043067 0.0033326072 0.06865563 -0.091628864 0.035593417 -0.1236912
-0.064183466 0.037365425 -0.0279656 0.04107516 -0.050313745 -0.019124137 -0.027518412 0.08604146
0.014615184 -0.04137833 -0.0093147205 0.14724992 0.017325196 -0.06718695 0.011290858 -0.112891756
0.011877255 -0.011937501 -0.037597757 -0.035139702 0.021311115 0.0038022278 -0.0034485706 -0.016943898

tcn.network.1.net.0.bias f4 [30]
00000000: 89da 7ebd 877c b43d b47c 933d f540 83bc
00000010: 7898 c4bc 3857 7b3c 1ae2 ce3d 0381 eebd
00000020: e8ef 2ebd 051d 9f3d 5199 603d 2012 963c
00000030: a0d5 aabd 941d 35bd 27ae 25bc 8f03 72bd
00000040: 5715 60bd f448 cb3c ae0c 20bd d392 0d3c
00000050: fce9 40bc 9b11 223d 74b0 56bd afa1 a63c
00000060: e2eb 31bd 75d2 433c 2c69 eebb da85 dfba
00000070: 57a3 8f3d 26e5 10bd
-0.06222013 0.08812814 0.072015196 -0.016022185 -0.023998484 0.015340619 0.10101719 -0.11645701
-0.04270926 0.07769207 0.054833714 0.01831919 -0.08341527 -0.04421766 -0.010112322 -0.059085425
-0.05470785 0.02481506 -0.039074592 0.008640963 -0.011774536 0.03956757 -0.052414373 0.020340769
-0.043437846 0.011952032 -0.007275721 -0.0017053441 0.070135765 -0.035374783

tcn.network.1.net.0.weight_g f4 [30, 1, 1]
00000000: 84a2 293f 63ec 323f 403f 133f 6439 213f
00000010: 9386 303f dca4 223f 238f 063f 3490 303f
00000020: 0b0b 273f 02dd 213f 49f9 2c3f 2b09 253f
00000030: e22a 223f ff05 393f 395f 303f 9ccc 243f
00000040: 0e09 153f 0862 173f d7a1 173f 6c35 113f
00000050: 7768 273f e92d 2f3f 227c 213f 90e4 2a3f
00000060: 5ec5 313f aec4 163f 1eb8 233f 50e7 353f
00000070: fa1a 133f 423d 353f
0.66263604 0.6989195 0.57518387 0.62978196 0.68955344 0.63532805 0.5256216 0.68970037
0.65251225 0.63227856 0.6756788 0.64467114 0.63346684 0.72274774 0.688953 0.6437471
0.5821694 0.5913396 0.59231323 0.5672214 0.65393776 0.6842943 0.63080037 0.6675501
0.69441783 0.5889386 0.63952816 0.7105608 0.5746304 0.70796597

tcn.network.1.net.0.weight_v f4 [30, 30, 4]
00000000: a124 153d 3f68 51bd 893d dfb9 8ee7 463d
00000010: 63c8 15bc d89e c23b ffa8 b8bc 90c4 093c
00000020: 3bb4 dbbc b137 3fbd cc46 abbc f9e2 a7bb
00000030: 8cd1 f33c a774 8e3d 9e03 163d a469 a4bd
00000040: c3f5 493a 1dfb 9c3b 6a6a ec3c 6f87 4c3d
00000050: 129a 8a3d e789 0b3d f97e 833d d0a3 c23c
00000060: f222 293b 00a7 08bd 011e c4bb 0fca 94bd
00000070: 51b0 493c 5751 d838 b556 53bd e706 323d
00000080: 699a 393c cfc3 65bd 5650 9abd 2e75 5a3d
00000090: 23f4 92bc a649 e13c 7546 363d a985 30bd
000000a0: 84af 9dbc 60f2 9e3d 09a0 803d 52ef 573c
000000b0: ee22 013c 8295 9b3b 6137 1bbc 2737 4d3d
000000c0: a539 dcbb 6b08 963b 5a32 84bd 4934 f43c
000000d0: a6d9 e9bc 6a57 bc3d f662 9b3c ae73 a0bd
000000e0: 2b8a 77bd 9368 51bb d1ed 993d 4659 ae3c
000000f0: 83b3 0bbc a7cc 83bc 71b4 b53c 49d8 74bd
00000100: 4656 883c d945 25bd 4122 813d 923d 913d
00000110: 8561 beba 4840 06bb ae60 57bb b698 893d
00000120: b743 03bc 7ae8 453b 46e2 de3c ec61 3abd
00000130: 6c49 09bd 408a d73c d480 f93c db50 be3d
00000140: 7569 ef3c 478a 563d ab0d 0a3e 9e57 4dbd
00000150: 8b39 1e3d 5ede 53bd 78f7 44bd da7f 7f3d
00000160: dfdc 92bc ca08 b13d ddf2 553d 2639 b7bd
00000170: bb96 f3bb a257 e038 08e1 48bc d012 77b7
00000180: bd2a a63b edba 33bc d37c 94bc 65ca c33d
00000190: f380 28bd b5cf 75bd 5af5 6abd f5a3 3dbd
000001a0: 3820 07bd 81c5 a53c a0c9 593c 3fa2 02be
000001b0: b28a 4e3c be3c 043d 6339 c93c f076 323c
000001c0: c6da 04bd 048e 8ebd 859f 2cb9 bfca 833d
000001d0: 016e 0c3d d4ff 1abc 1c97 7fbc 8740 ed3c
000001e0: 954d abbc 4e58 0b3b cbc1 b73d 2cb0 00bd
000001f0: cdb0 5fbd 2c2e 923c 64bb 3fbc 8519 5dbd
00000200: 76aa 203c d7f0 073d d630 b33c 47e3 be3c
00000210: bbd2 b9bd e1b1 d9bd 7438 95bd 6fff 123c
00000220: dcb0 2cbb 8086 abbb b991 2fbb 5b59 003e
00000230: c46e e7bc 0887 f13a 3bef 84bd 9289 debc
00000240: f8f9 683c ee32 d0bd 0c43 8ebc 581f 5abb
00000250: bef6 213c 6fe8 843c 875b 153d ca9a 55bd
00000260: abcd 1e3d c0fe 1d3d c5e3 283d a7ac 9fbd
00000270: d238 8e3c d6e8 13bd b7aa c13c ee76 84bd
00000280: 60ce c4bd 4936 073d 14c3 0abd 6cf8 a9bd
00000290: 3954 f8bc 6bcd 8bbb 63fc 0fbc 4ca5 cabd
000002a0: fe4c ccbc 7c90 d43c ae1e 893b d736 e9bd
000002b0: dfd6 313c c558 ecbd c56a 2dbd 1814 d43c
000002c0: ec9a 57bc f05b e53c a79f fc3b 2083 91bd
000002d0: 8c66 3abc 801e f73c 30fb 66bd 4092 edbc
000002e0: 79e6 973d 4f4c 873d 61bc b13d 3e0a a03c
000002f0: a77c 493c 47e2 373a e87c b53c 0699 d5bd
00000300: 9269 af3b b74f 983d fa85 383b 9177 a23d
00000310: 4b29 823c 6dc9 723c ab08 2b3c dc42 643c
00000320: 1e92 1c3c 07f2 84bd 47c4 97bc 1140 c73a
00000330: f937 603d 2689 673d f7b3 7a3d d745 713d
00000340: 9d7a 4b3d 7a5a 03bd eae4 54bd 8e62 8d3d
00000350: 49a1 50b5 5e6d 1f35 5f31 083a b140 4d37
00000360: 2c79 e1bc 47ca 0cbb d9e3 0e3d 4eaf 28bd
00000370: 6cbb 1bbc a9c1 56bd 15d4 ab3d d82d 043d
00000380: 450f 933c 76c9 aa3b f035 6bbd 2883 7abd
00000390: 2885 16bc f666 3abc 35d3 81bd d93f fcba
000003a0: bd5a 1ebd 75a3 a4bc 8ef8 963d a321 88bc
000003b0: 0860 05bc a5a3 d83b 2815 c53b 7a0d 5fbd
000003c0: 9e94 7b3c ec4f 5dbd ca9a 63bd 472c fd3d
000003d0: c380 afbc da3f 203c 1c63 163c 5d1f 8bbd
000003e0: 17b9 67bd bf1f bb3c b3d0 c33b 10e3 c53d
000003f0: df49 fe3c e8bd 8dbd a36a 993d 3bd2 debc
0.036411885 -0.051124807 -0.00042579722 0.04856067 -0.009142014 0.005939346 -0.022541521 0.008408681
-0.026819339 -0.04668397 -0.020907782 -0.005123493 0.029763006 0.069558434 0.036624543 -0.08027962
0.0007704163 0.004790677 0.028859336 0.049933847 0.06767668 0.03406706 0.064207025 0.023759753
0.0025808183 -0.03336239 -0.005985022 -0.07265102 0.0123101035 0.00010314833 -0.051596362 0.043463614
0.011328318 -0.05609494 -0.07534854 0.053334408 -0.01793868 0.027500939 0.044500787 -0.04309622
-0.019248731 0.07761073 0.06280524 0.013179617 0.007881863 0.0047480473 -0.009473653 0.050101425
-0.006720739 0.00457864 -0.06454916 0.029810088 -0.028546166 0.091963604 0.018968087 -0.07834564
-0.0604345 -0.00319532 0.07516063 0.021282803 -0.008526686 -0.016088797 0.022180768 -0.059776578
0.0166427 -0.040349815 0.063053615 0.07091822 -0.0014524913 -0.0020485092 -0.0032864022 0.067185804
-0.00801175 0.0030198381 0.027207505 -0.04550354 -0.033517286 0.02631104 0.030456938 0.09292766
0.02922509 0.052377965 0.13481776 -0.050132386 0.038629096 -0.051725738 -0.048087567 0.062377788
-0.017927585 0.086442545 0.052233566 -0.08946447 -0.00743374 0.00010697475 -0.012260683 -1.4726727e-05
0.005071013 -0.01096986 -0.018125927 0.09560088 -0.0411386 -0.060012538 -0.05736289 -0.04629894
-0.03298971 0.020235779 0.0132927 -0.12757204 0.01260631 0.03228449 0.024563497 0.010892615
-0.0324352 -0.06960681 -0.00016462624 0.06435155 0.034284595 -0.009460408 -0.015599992 0.028961433
-0.020911017 0.002126235 0.0897251 -0.03141801 -0.05461197 0.017844282 -0.011702392 -0.053979415
0.009806266 0.033188667 0.021873873 0.023301734 -0.09073397 -0.10629631 -0.07286158 0.008972033
-0.0026350534 -0.0052345395 -0.0026789738 0.12534086 -0.02825106 0.0018427083 -0.06490942 -0.027165208
0.014219753 -0.10165964 -0.017365955 -0.0033282842 0.009885488 0.016224114 0.03646424 -0.05214957
0.03877036 0.038573027 0.041232843 -0.07796603 0.017361078 -0.03611072 0.023640973 -0.064679965
-0.096096754 0.033010755 -0.033877447 -0.08299336 -0.030313598 -0.004266431 -0.008788201 -0.09894809
-0.024939056 0.025947802 0.0041845655 -0.11387413 0.010854452 -0.11540369 -0.04233815 0.025888488
-0.013159495 0.02799794 0.0077094617 -0.07105088 -0.011376988 0.03016591 -0.056391895 -0.029000401
0.07417006 0.066063516 0.086785085 0.019536134 0.012297786 0.0007014614 0.022154287 -0.104295775
0.005353161 0.074370794 0.0028156028 0.07932962 0.01588883 0.014818531 0.010439078 0.013931956
0.009556321 -0.064914756 -0.01852621 0.0015201588 0.05474088 0.05652728 0.061206784 0.058904495
0.04967748 -0.032068707 -0.051976122 0.069035634 -7.772074e-07 5.9391266e-07 0.0005195345 1.2234014e-05
-0.0275236 -0.0021482871 0.03488526 -0.04118281 -0.009505134 -0.052430782 0.08390061 0.032270283
0.017951617 0.0052120043 -0.057424486 -0.061160237 -0.00918702 -0.011377087 -0.06339113 -0.0019245102
-0.038660754 -0.020097474 0.07371627 -0.016617602 -0.008140571 0.006611305 0.006014485 -0.05445621
0.015355257 -0.054031298 -0.05556754 0.12361961 -0.021423703 0.009780848 0.009178903 -0.067930914
-0.056573 0.022842286 0.0059758066 0.09662449 0.031041084 -0.06920987 0.074910425 -0.027199855

tcn.network.1.net.4.bias f4 [30]
00000000: ab87 11bc 0de6 853c 1f98 1bbb 48c8 ea3c
00000010: 6738 053d e1a2 efba 52e6 353d 1c01 783c
00000020: dde1 82bc 128a 99bc 9f70 61bc b817 a4ba
00000030: 1a9b cabc 478a 65bc 69c6 6b3b 123a 753c
00000040: 7d91 793d e0f4 153d 94b2 fbbc 2688 473d
00000050: 4235 303d eecc bfbb af4b f4bb a6b7 d63c
00000060: 3733 be3c dcd5 9b3c ad5c 16bc 76f8 62bd
00000070: 3e63 1fbd eda6 3fbc
-0.008882443 0.016345048 -0.0023741794 0.028659955 0.032524493 -0.0018282795 0.044409104 0.015136983
-0.01597684 -0.018742595 -0.013759761 -0.0012519276 -0.024732161 -0.014010019 0.0035976416 0.014967458
0.060929764 0.036610484 -0.030724801 0.048713826 0.04301954 -0.005853287 -0.0074553112 0.026210617
0.02321778 0.019022875 -0.009177369 -0.055412732 -0.038913004 -0.011697513
