resources/saved_models/shift/rnn_32_128.ckpt (torch, 815788 bytes, 15 tensors)

rnn.weight_ih_l0 f4 [512, 1]
0	0x3cbaa268	0.02278252
1	0xbd7fa797	-0.062415686
2	0x3d4c870c	0.04993348
3	0xbe1e9007	-0.1548463
4	0xbd8e6823	-0.06953456
5	0x3d2387af	0.03992432
6	0x3df496d6	0.11942832
7	0x3cc8bca7	0.024504019
8	0xbd716853	-0.058937382
9	0x3cf286e0	0.029605329
10	0xbbcf4506	-0.006325367
11	0xbc20a91b	-0.009805943
12	0x3da7b953	0.08189645
13	0xbd982431	-0.07428778
14	0xbe132bdf	-0.14372204
15	0xbd99ec97	-0.07515829
16	0xbc6fb5fa	-0.014630789
17	0x3d08abff	0.033367153
18	0xbe07339a	-0.13203278
19	0xbd6e8800	-0.05823517
20	0x3dc26bc4	0.09493211
21	0x3d0ad418	0.033893675
22	0xbcf3c27b	-0.029755821
23	0xbe308f72	-0.1724222
24	0x3d9d7196	0.076876804
25	0x3d5447e7	0.051826384
26	0xbc968779	-0.018375145
27	0xbdabdc8a	-0.08391674
28	0x3bbef152	0.0058271075
29	0x3d8ae48b	0.06781872
30	0x3cd20791	0.025638374
31	0xbc05c136	-0.008163741
32	0x3d1160b9	0.035492633
33	0xbd3beb93	-0.045878958
34	0x3df12044	0.11773732
35	0xbd74ceda	-0.05976758
36	0xbcb59855	-0.022167364
37	0x3d328c3d	0.043590773
38	0xbdd1513f	-0.102205746
39	0xbd1354f3	-0.035969686
40	0x3cd83886	0.02639414
41	0xbda366ab	-0.07978567
42	0xbe1cbf05	-0.15307243
43	0x3db89173	0.09012117
44	0xbcaa12a1	-0.020760836
45	0xbdd03e02	-0.10168077
46	0xbcb2c031	-0.02182016
47	0x3c08783b	0.008329446
48	0xbca99d53	-0.0207049
49	0x3d8644c5	0.065560855
50	0x3d7e8c5f	0.062145587
51	0x3ad37773	0.0016133621
52	0x3cd973e1	0.026544513
53	0x3cfe7590	0.031061918
54	0xbe00c86a	-0.12576452
55	0x3d492339	0.049105857
56	0x3c0f3619	0.008740925
57	0xbca5a49a	-0.02022009
58	0xbb3c34f0	-0.0028718077
59	0x3cbbcc95	0.0229247
60	0x3ca82dc8	0.020529643
61	0x3c922771	0.017841073
62	0x3d00efaa	0.03147856
63	0x3c9e053b	0.019289603
64	0xbdc9ec7c	-0.09859559
65	0xbcb11f87	-0.021621479
66	0xbc0f9b63	-0.008765074
67	0x3cf311fa	0.029671658
68	0xbd27e029	-0.04098526
69	0x3d1b335a	0.03789077
70	0x3c61b636	0.013776353
71	0x3dbd1a10	0.09233487
72	0x3a3ffafe	0.00073234725
73	0x3dcca35c	0.09992096
74	0x3ccc14db	0.024912288
75	0xbd22c94a	-0.039742745
76	0xbd222bd5	-0.039592583
77	0xbd496fca	-0.049178876
78	0xbd0be9ca	-0.034158505
79	0x3d403e48	0.046934396
80	0x3d7a7ee9	0.061156187
81	0xbe41f9df	-0.18942975
82	0x3ca6def9	0.020369994
83	0x3a8c2621	0.0010692516
84	0x3d124dc9	0.035718713
85	0x3d8a36bd	0.06748722
86	0x3d28b10d	0.041184474
87	0x3cc92cbe	0.024557468
88	0xbd3fbede	-0.046812885
89	0x3d10db39	0.035365317
90	0x3d9da665	0.07697753
91	0xbce22413	-0.027605092
92	0xbd170c24	-0.036876813
93	0xbd681a86	-0.05666592
94	0x3d2f2862	0.04276312
95	0x3d6e716c	0.058213636
96	0xbd73e64c	-0.0595458
97	0x3c487458	0.01223477
98	0x3d0892c0	0.033343077
99	0xbda953b1	-0.08267916
100	0x3d462f66	0.048385046
101	0x3c896a11	0.01677421
102	0xbd4214b6	-0.047383033
103	0xbd1e572f	-0.038657364
104	0xbdda14d4	-0.10648504
105	0xbd9888b1	-0.07447947
106	0xbd71654f	-0.058934506
107	0x3dd3512d	0.103182174
108	0xbd5b2484	-0.05350162
109	0x3b309e84	0.0026949951
110	0xbdaa5210	-0.083164334
111	0xbd0c098d	-0.034188796
112	0x3d6f0faa	0.058364548
113	0xbd07adea	-0.03312484
114	0x3bb306d8	0.0054634623
115	0x3dbf3cb3	0.09337749
116	0x3dd2a0a0	0.10284543
117	0x3d26a182	0.04068137
118	0x3d837b89	0.06420047
119	0x3d0b569d	0.034018148
120	0xbc3bfd73	-0.011474001
121	0x3d8c76cb	0.068585955
122	0x3d89d954	0.06730905
123	0x3cc967ca	0.024585623
124	0x3dd455ec	0.10367951
125	0x3ccb6e02	0.02483273
126	0x3d515d29	0.051114235
127	0x3d123faa	0.035705246
128	0x3d3edab8	0.046595305
129	0x3e1be921	0.1522565
130	0x3d977354	0.07395044
131	0xbdea3b91	-0.11437143
132	0xbb411da5	-0.0029467132
133	0x3d10f78d	0.035392333
134	0xbde560c6	-0.11200099
135	0xbbe74d12	-0.007058748
136	0xbd9c4d93	-0.076319836
137	0x3deaeb00	0.11470604
138	0x3dacb804	0.08433536
139	0xbd1c39a4	-0.038140908
140	0x3da3bf75	0.07995502
141	0xbcd65923	-0.02616555
142	0x3d5103d1	0.05102903
143	0xbdaf95c4	-0.085734874
144	0xbd9d709a	-0.07687493
145	0xbd5eed7b	-0.054425698
146	0xbc851dd2	-0.016249571
147	0x3c39d8cb	0.011343191
148	0x3db92790	0.09040749
149	0x3d3c3eb4	0.045958236
150	0x3c6f7eb0	0.014617607
151	0xbd2c21ed	-0.04202454
152	0x3d07e4ef	0.033177312
153	0xbdbad34a	-0.091223314
154	0x3d88cbf0	0.06679523
155	0x3cab11c1	0.02088249
156	0x3cbccd32	0.023047063
157	0xbae1d910	-0.0017230827
158	0x3daabb46	0.08336501
159	0xbd23f6f6	-0.040030442
160	0x3e1dd1e0	0.15412092
161	0xbd047a2e	-0.032343082
162	0xbd1dbc32	-0.038509555
163	0xbe0274a5	-0.12739809
164	0xbdc0716e	-0.09396635
165	0xbd5b7ab7	-0.053583827
166	0x3c412e66	0.011790847
167	0x3cafea94	0.02147416
168	0x3d6884cf	0.05676728
169	0xbe0b2719	-0.13589133
170	0xbb86ef3c	-0.0041178744
171	0x3c21cb6b	0.009875159
172	0x3c7d99b1	0.015478537
173	0x3c4d10a5	0.012516175
174	0xbe1c253a	-0.15248576
175	0xbbb6f1fe	-0.005583047
176	0x3df209f3	0.11818304
177	0xbd1e8fbb	-0.03871129
178	0xbd3a52d1	-0.045489136
179	0x3d441fdb	0.047881942
180	0x3d1c6e95	0.038191397
181	0x3c1e75e1	0.009671659
182	0x3d478eaa	0.04872004
183	0x3d985c50	0.07439482
184	0x3d75d4ee	0.06001752
185	0x3dd28c6b	0.10280689
186	0x3d17c58d	0.037053633
187	0xbdd5b309	-0.10434539
188	0x3d73b8de	0.059502475
189	0xbbe1230e	-0.006870634
190	0x3de210c4	0.11038354
191	0x3c9f6f1b	0.019462159
192	0xbd74071a	-0.059577085
193	0x3d800a6c	0.06251988
194	0xbda8c6d0	-0.082410455
195	0xbd93778d	-0.07200537
196	0xbce57911	-0.02801183
197	0x3d1818f1	0.03713316
198	0xbcdcbf74	-0.02694676
199	0x3c8c833e	0.017152425
200	0x3d77fe63	0.060545336
201	0x3d9e35a7	0.07725077
202	0xbb2fd9d1	-0.002683271
203	0xbcef1ebf	-0.029189466
204	0xbd7046e5	-0.05866136
205	0xbdc97879	-0.098374315
206	0x3d0d007e	0.034424298
207	0x3c64c58b	0.013963114
208	0xbc06d353	-0.008229095
209	0xbd6b91b5	-0.057512004
210	0xbc337a3b	-0.010954435
211	0xbcac3bc1	-0.021024587
212	0xbdae25d1	-0.08503307
213	0xbbcf7e32	-0.0063321823
214	0x3dcfd860	0.10148692
215	0x3d511ddc	0.051053867
216	0x3d16807d	0.03674363
217	0x3be1f02e	0.0068950867
218	0x3d2a86ec	0.041632578
219	0xbd0ebfa1	-0.03485072
220	0xbd9201b7	-0.07129233
221	0x3ddc13c6	0.10745959
222	0x3c76ecff	0.015071153
223	0xbcf84e03	-0.030310636
224	0xbc66c6e2	-0.014085503
225	0x3cefa288	0.029252306
226	0x3cf3b40e	0.029748943
227	0x3ced8b56	0.028997105
228	0x3d644e62	0.055738814
229	0x3d18cd06	0.0373049
230	0xbdb5a126	-0.08868627
231	0xbd17ba36	-0.03704282
232	0x3c9a9b39	0.018872844
233	0xbe302c4f	-0.17204402
234	0xbd5c0f92	-0.053725787
235	0x3d40d43d	0.047077406
236	0xbd83caaf	-0.06435143
237	0x3c52b96d	0.012861592
238	0xbd9a7d8e	-0.07543479
239	0xbcde509d	-0.027138049
240	0x3d96b3eb	0.073585354
241	0xbdfc7536	-0.12327044
242	0x3cac946d	0.021066869
243	0x3d9e1b22	0.07720019
244	0x3c983828	0.018581465
245	0x3da911c6	0.08255343
246	0x3ca22a42	0.01979554
247	0x3c61d3cf	0.013783409
248	0x3e25c3c3	0.16187958
249	0x3c33e7c1	0.010980547
250	0xbc2e5202	-0.010639669
251	0x3c76102e	0.015018506
252	0x3dc19595	0.09452359
253	0x3df501aa	0.11963208
254	0xbd947ff0	-0.07250965
255	0x3d6ffc9e	0.058590524

rnn.weight_hh_l0 f4 [512, 128]
0	0x3db96462	0.090523496
1	0xbd1d447c	-0.03839539
2	0xbd6a66fd	-0.057227124
3	0xbc8d984e	-0.017284539
4	0x3d914655	0.07093493
5	0xbded99dc	-0.11601612
6	0x3d416276	0.04721304
7	0x3d44f8da	0.048088886
8	0x3bc908db	0.006135089
9	0x3cdb3e6c	0.026763164
10	0xbd8c7b82	-0.06859495
11	0xbcaa95c1	-0.020823361
12	0xbb8b41cf	-0.0042497884
13	0xbcccfce5	-0.025022933
14	0x3d8b846c	0.06812367
15	0x3d78a63f	0.06070542
16	0xbcec8e76	-0.028876524
17	0x3c10db90	0.00884141
18	0x3debe3ac	0.11518034
19	0xbcbfb44d	-0.023401404
20	0x3b4b3503	0.003100694
21	0x3c8f3243	0.017480021
22	0x3d97d301	0.07413293
23	0xbcafb6da	-0.021449495
24	0x3df26929	0.11836464
25	0xbd65cff5	-0.056106526
26	0xbc047c50	-0.008086279
27	0xbcc9657e	-0.024584528
28	0xbd2e0d4d	-0.042493153
29	0xbd67b466	-0.056568526
30	0xbd7ed10f	-0.062211093
31	0x3c8d4d7e	0.017248865
32	0x3d82934d	0.06375752
33	0xbdbe751b	-0.0929968
34	0xbdcba782	-0.09944059
35	0x3da0c884	0.07850745
36	0xbd01adcc	-0.031659886
37	0xbd7ddeb2	-0.061979957
38	0x3c97bf3a	0.018523801
39	0xbcf532bd	-0.02993142
40	0xbcae9544	-0.02131141
41	0x3c1ddc46	0.009635037
42	0xbccf9822	-0.025341097
43	0xbd57c4bb	-0.05267785
44	0x3d862ea9	0.065518685
45	0xbd575b22	-0.052577145
46	0x3d080403	0.03320695
47	0x3c898334	0.016786195
48	0x3d368db3	0.04456873
49	0x3d534b91	0.051585738
50	0xbd089e32	-0.03335399
51	0x3cce0f1c	0.02515369
52	0x3d98c70f	0.074598424
53	0xbc0bc68e	-0.008531226
54	0xbd0afdf2	-0.033933587
55	0x3d71e398	0.05905494
56	0xbd83bf02	-0.06432916
57	0xbd4b35ec	-0.04961197
58	0xbd59028c	-0.052980945
59	0x3dc997a6	0.09843378
60	0x3d8f5baa	0.069999054
61	0x3bcf6f56	0.006330411
62	0xbd64bf79	-0.055846665
63	0xbd41fea8	-0.047362
64	0xbd07e728	-0.033179432
65	0x3d3e320e	0.046434455
66	0x3c72cd2f	0.014819427
67	0xbc6538d0	-0.013990596
68	0xbd8f291f	-0.06990265
69	0x3dcba524	0.099436074
70	0xbd17a7cf	-0.03702527
71	0xbc48f3ba	-0.01226514
72	0x3d7c7e7a	0.061644055
73	0x3d498b5f	0.04920518
74	0x3bd8f3b3	0.006620848
75	0xbcf76c58	-0.03020303
76	0x3c66c4ea	0.014085034
77	0x3cadf8e8	0.021236852
78	0xbd82fd0f	-0.06395923
79	0xbb788add	-0.0037924566
80	0xbdbe728a	-0.0929919
81	0x3d399d4c	0.045316026
82	0xbc67cd32	-0.0141480435
83	0xbd58d904	-0.052941337
84	0xbda355ec	-0.07975373
85	0x3d5bac8b	0.053631347
86	0xbd03fe19	-0.03222475
87	0x3e014100	0.12622452
88	0xbcce0c10	-0.025152236
89	0xbd188807	-0.0372391
90	0x3d43621c	0.047700986
91	0xbd7a8e61	-0.06117094
92	0xbdda9709	-0.10673339
93	0xbbb80153	-0.0056153922
94	0xbbabb858	-0.0052404813
95	0x3d157a16	0.036493383
96	0xbd893daa	-0.067012146
97	0x3c8a9b18	0.016919658
98	0x3bf1fc5f	0.0073848213
99	0xbd2c2659	-0.04202876
100	0xbd8a5fd7	-0.06756561
101	0x3d4facd5	0.050701935
102	0x3d773c1f	0.06036007
103	0xbb19ec36	-0.002348674
104	0xbd3bbc01	-0.04583359
105	0x3da8e665	0.08247069
106	0x3d3ba04d	0.04580717
107	0xbc50374a	-0.012708494
108	0xbd8a4d7a	-0.06753059
109	0x3db661f7	0.08905404
110	0xbd814e81	-0.063138016
111	0x3da555b8	0.0807299
112	0xbd832f55	-0.06405512
113	0xbd98fc6e	-0.07470022
114	0xbce28ee6	-0.02765603
115	0x3cb05605	0.021525392
116	0x3d16e95e	0.03684365
117	0x3db962ad	0.09052024
118	0x3b7296f4	0.0037016245
119	0xbd3f1eee	-0.046660356
120	0xbd3fbacf	-0.046809014
121	0x3d93fbb9	0.07225747
122	0x3c8ab5a6	0.01693232
123	0xbd6b8605	-0.057500858
124	0xbc910c5c	-0.017706089
125	0xbd6bdfc7	-0.057586458
126	0x3c9cdf22	0.019149367
127	0xbd33639a	-0.04379616
128	0x3d73ec5b	0.059551578
129	0xbdaa7fed	-0.08325181
130	0xbd6154ee	-0.055012636
131	0x3d4b1166	0.04957714
132	0x3d132c16	0.035930716
133	0xbd7229a7	-0.059121754
134	0xbd92bfe0	-0.071655035
135	0x3d06dbdd	0.03292452
136	0xbd2e9838	-0.042625636
137	0x3da3be7b	0.07995316
138	0x3d44e314	0.04806812
139	0xbd52c6fd	-0.0514593
140	0xbdad6f83	-0.08468535
141	0xbd898943	-0.06715634
142	0x3d87caca	0.06630476
143	0x3e080230	0.13282084
144	0x3d97a112	0.074037686
145	0xbcf69b98	-0.03010349
146	0xbb5735f0	-0.0032838546
147	0xbda1d424	-0.07901791
148	0xbd5836ce	-0.05278664
149	0x3c624511	0.013810412
150	0x3d07affa	0.03312681
151	0x3c550a8d	0.013003004
152	0x3a70abda	0.00091808813
153	0xbce057f7	-0.027385695
154	0xbcbf7dd5	-0.023375431
155	0x3db2e3ca	0.087348536
156	0x3ca20cfe	0.019781586
157	0x3c4ae2d9	0.012383186
158	0xbd94bffa	-0.07263179
159	0x3da427e7	0.08015423
160	0xbb814a46	-0.0039456217
161	0x3d1e4a12	0.038644858
162	0x3c168b0a	0.009188423
163	0x3aa43997	0.001252937
164	0xbda95005	-0.08267216
165	0xbc95183a	-0.018200029
166	0xbd9e7c13	-0.07738509
167	0x3bc1be5f	0.0059125866
168	0x3dc98e79	0.09841628
169	0x3d92ca4c	0.07167491
170	0x3c5673f5	0.01308917
171	0x3d2573fe	0.040393822
172	0x3cb2184c	0.021740101
173	0x3cb298c0	0.021801353
174	0xbd9b3da5	-0.07580117
175	0x3d89ca54	0.06728044
176	0x3de7b75a	0.113142684
177	0xbcca9b63	-0.024732297
178	0xbd65bb4d	-0.056086827
179	0x3dace67e	0.084424004
180	0x3d26a4d3	0.040684532
181	0xbd9f4497	-0.07776754
182	0xbc901f3a	-0.017593015
183	0x3cb181ad	0.02166828
184	0x3cf1af90	0.02950266
185	0xbdb13a4b	-0.086536966
186	0x3d913541	0.070902355
187	0x3d894e83	0.06704428
188	0xbdde0699	-0.10841102
189	0x3d795c20	0.060878873
190	0xbbf1ffba	-0.0073852213
191	0xbd2cc175	-0.042176683
192	0xbd29fe96	-0.041502558
193	0xbd8d8e66	-0.06911926
194	0xbd35ec21	-0.044414643
195	0xbd1743bb	-0.036929827
196	0xbd82b4e2	-0.06382157
197	0xbcd0c1ad	-0.025482977
198	0xbdd977c4	-0.106185466
199	0x3cdfe430	0.027330488
200	0x3d692a1c	0.056924924
201	0x3cfd52ab	0.030923208
202	0x3de339cb	0.110950075
203	0x3d4a7b07	0.049433734
204	0xbc31d0ee	-0.010853035
205	0x3d7de8e4	0.06198968
206	0xbb7e8736	-0.0038837916
207	0x3cf458b4	0.029827453
208	0x3d1da7d2	0.038490124
209	0x3ce8b4c2	0.028406505
210	0xbdb8ac41	-0.0901723
211	0xbda0ccef	-0.07851588
212	0xbdb9cee6	-0.09072666
213	0x3d3a97a0	0.045554757
214	0x3de1fa49	0.11034066
215	0xbd798ca2	-0.060925134
216	0xbd9cc1c8	-0.07654148
217	0x3d945b7f	0.07244014
218	0x3ce3aecd	0.027793312
219	0xbda05fba	-0.078307584
220	0xbc75e58b	-0.015008341
221	0x3d5e62df	0.05429351
222	0xbd2e22ff	-0.042513844
223	0x3cfad2d5	0.03061811
224	0xbc0faae8	-0.008768775
225	0xbd1dc910	-0.038521826
226	0x3d6b3e3f	0.05743241
227	0xbda26e9d	-0.07931254
228	0x3d525c3b	0.05135749
229	0x3d6c2f28	0.05766216
230	0xbcc47bb4	-0.023984767
231	0xbd3e494a	-0.046456613
232	0x3d7a925e	0.061174743
233	0x3c88d63d	0.01670372
234	0xbd94e2dc	-0.072698325
235	0x3d3294e6	0.043599032
236	0xbd3803b2	-0.0449254
237	0x3d97a0cb	0.07403716
238	0xbc3c5c27	-0.01149658
239	0x3d533d77	0.05157229
240	0x3d898baa	0.06716092
241	0x3d4ebadc	0.05047117
242	0x3c64abaa	0.0139569435
243	0xbd99c93d	-0.07509086
244	0x3dce24c0	0.10065603
245	0x3c64b90c	0.013960134
246	0x3db4f2aa	0.08835347
247	0xbcbf85b8	-0.023379192
248	0xbd897017	-0.067108326
249	0x3d859636	0.06522791
250	0xbd4a253e	-0.049351923
251	0xbc366d86	-0.011134511
252	0xbd258c04	-0.040416732
253	0x3c9c2647	0.01906122
254	0x3dbd993c	0.09257743
255	0x3d6ab8da	0.057305194

rnn.bias_ih_l0 f4 [512]
0	0x3d9ae3f0	0.07563007
1	0xbd4f1497	-0.050556745
2	0x3cf6ee45	0.030142913
3	0xbcd66016	-0.026168864
4	0x3cb756d7	0.022380276
5	0x3db141cd	0.08655129
6	0xbd878269	-0.06616671
7	0xbd04f517	-0.0324603
8	0xbc571ef8	-0.013129942
9	0x3baabe41	0.0052106683
10	0x3d69babf	0.05706286
11	0x3d160725	0.036627907
12	0x3e47c8e1	0.19510223
13	0x3e583b32	0.21116331
14	0x3d502fe1	0.05082691
15	0x3df98d56	0.12185161
16	0xbccd29d3	-0.025044357
17	0x3e2655e1	0.16243698
18	0x3cfdac05	0.030965814
19	0xbcf0a6b0	-0.029376358
20	0x3d06ccda	0.032910205
21	0xbd7b5c60	-0.061367393
22	0x3d8ac9aa	0.067767456
23	0x3e8d4a25	0.2759563
24	0x3ddf54ec	0.109048694
25	0xbd13cfd1	-0.03608686
26	0xbcdc621d	-0.026902253
27	0x3dc10ee5	0.09426669
28	0x3d3bff02	0.04589749
29	0x3d872d10	0.06600392
30	0xbc1dbfe6	-0.009628272
31	0x3d946aca	0.07246931
32	0x3e095337	0.1341065
33	0xbcd7bb28	-0.02633436
34	0xbc2159d3	-0.009848076
35	0xbcd1445e	-0.025545295
36	0x3d10682a	0.03525559
37	0xbd2c4f60	-0.042067885
38	0x3db53419	0.088478275
39	0xbcfed250	-0.031106144
40	0xbd7f9f24	-0.062407628
41	0x3c86652a	0.01640566
42	0x3e84b1cc	0.25916898
43	0x3d77a1fc	0.060457215
44	0x3e10c2ee	0.1413686
45	0x3db38200	0.0876503
46	0x3e15bb33	0.14622192
47	0xbbc75530	-0.006083153
48	0x3d0b4b66	0.034007452
49	0xbd5bbe12	-0.053648062
50	0xbd09b389	-0.033618484
51	0xbd40e6cc	-0.047095105
52	0x3c961218	0.018319175
53	0x3dae4d4b	0.08510836
54	0x3e50a0c5	0.20373829
55	0x3d9cbbdb	0.07653018
56	0x3d86a3ee	0.06574236
57	0x3d223a71	0.039606515
58	0x3dab8a12	0.08375944
59	0x3d439010	0.04774481
60	0x3b4d7a26	0.0031353324
61	0xbd94e5c0	-0.07270384
62	0x3d6b2b19	0.057414148
63	0x3db414b0	0.08793008
64	0x3d74a02e	0.05972307
65	0x3e53750d	0.2065012
66	0x3d848eca	0.06472547
67	0xbcbb2225	-0.02284343
68	0xbd491689	-0.049093757
69	0x3c8f45b3	0.01748929
70	0x3d957ad8	0.07298821
71	0x3e63cd9b	0.22246401
72	0xbd3fa194	-0.046784952
73	0x3db56bd1	0.08858455
74	0xbcbe899c	-0.023258977
75	0x3dd060cc	0.101747125
76	0xbd020796	-0.031745516
77	0x3c299fee	0.010353072
78	0x3ccd9529	0.02509554
79	0x3cf4161d	0.0297957
80	0x3d3a8188	0.045533687
81	0xbc31f9e1	-0.010862798
82	0xbb877cd1	-0.0041347523
83	0x3e046cef	0.1293218
84	0x3dc0163e	0.09379242
85	0x3ca765e0	0.02043432
86	0x3cc2a496	0.023760121
87	0xbbbe7dd8	-0.0058133416
88	0xbca6f32a	-0.020379622
89	0x3dbbf2a0	0.091771364
90	0x3d27f23f	0.04100251
91	0x39afba1f	0.00033517272
92	0xbd2f45be	-0.04279112
93	0x3dc0ec8b	0.09420117
94	0x3c9a6c65	0.018850515
95	0x3d878463	0.06617048
96	0x3d8c8e9d	0.06863139
97	0xbd3d1bad	-0.04616897
98	0x3e0df0be	0.13861367
99	0x3c3636d3	0.01112147
100	0xbd976252	-0.073918
101	0x3d4df38a	0.050281085
102	0x3e54852d	0.20753928
103	0x3dbbc4cf	0.09168398
104	0xbd0e043c	-0.034672007
105	0x3d83e22f	0.064396255
106	0x3d31631e	0.043307416
107	0x3ca8c26d	0.020600522
108	0x3cc41384	0.023935087
109	0xbbf5a0e6	-0.007495987
110	0x3dbf17b1	0.09330691
111	0x3e3bf4ec	0.18355149
112	0xbd803ceb	-0.06261619
113	0xbbb3773c	-0.0054768603
114	0x3d0c27a0	0.034217477
115	0xbd57bd2e	-0.05267065
116	0xbc2680c9	-0.010162541
117	0x3d6b95b8	0.05751583
118	0x3bdea33a	0.0067943605
119	0xbbb9577f	-0.0056561823
120	0xbda6e0eb	-0.081483684
121	0xbcf29736	-0.029613119
122	0x3cf9c51e	0.0304895
123	0xbda4180d	-0.080124
124	0xbd4eb299	-0.050463293
125	0x3c5b6a54	0.01339205
126	0x3d7a5250	0.061113656
127	0xbd9d2092	-0.07672228
128	0xba1c44bb	-0.00059611694
129	0xbcf66beb	-0.030080756
130	0x3e0975b9	0.13423814
131	0x3dc1a1fe	0.09454726
132	0x3dc07b59	0.09398527
133	0x3abc9e6f	0.0014390479
134	0x3ddb77ed	0.107162334
135	0xbc3ee1f8	-0.011650555
136	0x3d7d38d9	0.061821792
137	0xbcd7e15b	-0.026352575
138	0x3dd06e0d	0.101772405
139	0x3df4b3b2	0.11948337
140	0x3daa4e9d	0.083157755
141	0x3dcaf9bb	0.099109136
142	0xbc21f5dd	-0.0098852785
143	0x3dfb2e78	0.122647226
144	0x3e106de6	0.14104423
145	0x3e111389	0.14167608
146	0xbd116cf1	-0.035504285
147	0x3d953e22	0.072872415
148	0x3db397e6	0.08769207
149	0x3dce10ad	0.100617744
150	0xbd8cde37	-0.068783216
151	0x3e0e90bf	0.13922404
152	0x3d98d85f	0.074631445
153	0x3dc2e363	0.09516027
154	0x3b3de29d	0.0028974183
155	0xbcb1cd1a	-0.021704245
156	0xbb27c952	-0.0025602174
157	0x3ded2a7d	0.115803696
158	0x3d090386	0.033450626
159	0x3e0b624b	0.13611715
160	0x3dd13a11	0.102161534
161	0xbc02ff1c	-0.007995393
162	0x3da0a815	0.07844559
163	0xbd719b5a	-0.058986045
164	0x3deac8bc	0.11464068
165	0xbcf05c87	-0.029340995
166	0x3c8dd862	0.017315093
167	0x3daaf495	0.083474316
168	0x3d95ffde	0.073241934
169	0x3dd730cf	0.105073564
170	0x3e0088df	0.12552212
171	0x3d24a53a	0.040196635
172	0x3e214935	0.15750583
173	0x3d838234	0.06421319
174	0x3e5caa43	0.21549325
175	0x3e11eeb8	0.1425122
176	0x3d3d1f35	0.04617234
177	0xbb0cc3df	-0.0021479053
178	0xbd103e7e	-0.035215847
179	0x3df50e71	0.11965645
180	0xbba681d4	-0.0050813947
181	0x3d8b8163	0.06811788
182	0x3e102ddd	0.14079995
183	0xbd1563e3	-0.036472213
184	0x3e152265	0.14563902
185	0x3d4483e2	0.047977336
186	0x3ceb0f44	0.028693803
187	0x3da91a02	0.08256914
188	0x3c904d0c	0.017614864
189	0x3b49c978	0.003079025
190	0x3d184a08	0.037179977
191	0x3dd7b98e	0.105334386
192	0x3d34f2b4	0.044176772
193	0x3d9b7d4a	0.07592256
194	0x3dbcd0ad	0.09219489
195	0x3c81c4b6	0.01584087
196	0x3daa4fb0	0.083159804
197	0x3e03cab1	0.1287029
198	0x3e31a6d6	0.17348799
199	0x3d5e627f	0.054293152
200	0xbcae9b02	-0.021314148
201	0x3d9c22c0	0.076238155
202	0x3e368ea7	0.17827855
203	0x3d9d2d0d	0.076746084
204	0x3cc18f48	0.023627892
205	0xbd47500b	-0.04866032
206	0xbd44d92a	-0.048058666
207	0x3e15d985	0.14633758
208	0xbab78b01	-0.0014003218
209	0x3d45165f	0.048117038
210	0x3df936a5	0.12168626
211	0x3e358243	0.17725472
212	0x3ccb97bd	0.024852628
213	0x3dce5ef8	0.100767076
214	0x3d8c76c4	0.0685859
215	0x3cb6da05	0.022320757
216	0x3d979bf3	0.07402792
217	0x3d9bbb6e	0.07604109
218	0x3d699e23	0.057035577
219	0x3daf9c40	0.08574724
220	0x3c68705c	0.014186945
221	0x3d1ebf23	0.0387565
222	0x3d55c398	0.052188486
223	0x3da8738d	0.082251646
224	0x3e0815e7	0.13289605
225	0xbd82b24c	-0.06381664
226	0x3dfa5664	0.12223509
227	0x3d0ade20	0.03390324
228	0x3d577b53	0.052607846
229	0x3d437539	0.047719214
230	0x3d405712	0.046958037
231	0x3deb153f	0.11478662
232	0x3d9455ac	0.07242903
233	0x3d608fbe	0.054824583
234	0x3dc6e35e	0.097113356
235	0xbc02254e	-0.007943464
236	0x3de924d6	0.11383979
237	0x3dcf9dcc	0.10137519
238	0x3cdb0f7a	0.026740778
239	0x3e3269bd	0.17423148
240	0x3cd612c9	0.026132004
241	0x3de54a27	0.11195784
242	0xbcab7741	-0.020930888
243	0x3d1a1590	0.03761822
244	0xbd209176	-0.039201222
245	0xbd620915	-0.055184443
246	0x3d87b659	0.06626577
247	0x3d3b5f72	0.04574532
248	0xbca0c97c	-0.019627325
249	0x3da0358c	0.07822713
250	0x3c905c24	0.017622061
251	0x3dcc741f	0.09983086
252	0xbd741832	-0.059593387
253	0x3da4d49a	0.08048363
254	0x3e0a9739	0.1353425
255	0x3e0bc4c2	0.13649276

rnn.bias_hh_l0 f4 [512]
0	0xbc86f0a2	-0.016472165
1	0x3c249e89	0.010047563
2	0x3d05b02a	0.032638706
3	0xbd0b06e0	-0.033942103
4	0xbc45b817	-0.012067816
5	0x3cff9ed5	0.031203667
6	0xbd0d1855	-0.034447033
7	0xba2a94a7	-0.0006507136
8	0xbd4302c1	-0.04761005
9	0x3d231447	0.03981426
10	0x3c3d263b	0.011544759
11	0xbd0d32bb	-0.03447221
12	0x3d5f1c8d	0.054470588
13	0x3e18743b	0.14888088
14	0xbd64346a	-0.05571405
15	0x3ca32236	0.019913774
16	0x3dae46b0	0.08509576
17	0x3da64497	0.08118551
18	0xbbc83c64	-0.0061107147
19	0x3dbe8671	0.093029864
20	0xbcec065a	-0.028811622
21	0xbd2092dd	-0.03920256
22	0x3d94878e	0.072524175
23	0x3e2bc5ee	0.16774723
24	0x3dde9881	0.108689316
25	0xbda5158a	-0.08060749
26	0x3d88d9b0	0.066821456
27	0x3db0df43	0.08636334
28	0xbd0eff00	-0.034911156
29	0x3d736d57	0.059430446
30	0xbc67f474	-0.014157403
31	0xbd30e721	-0.04318917
32	0x3d83325c	0.0640609
33	0x3baa5b99	0.0051989076
34	0x3d7bc5e3	0.061468016
35	0x3d668551	0.056279484
36	0x3c62ac22	0.013834985
37	0xbb02c84f	-0.001995582
38	0x3cc16ce6	0.023611497
39	0xbcf8bb28	-0.03036268
40	0x3c0f2d6c	0.008738857
41	0xbcd72a6e	-0.02626535
42	0x3e1bc71d	0.15212674
43	0x3c17c95b	0.0092643155
44	0x3d17dfef	0.037078794
45	0x3d895f7d	0.06707666
46	0x3e314392	0.17310932
47	0xbc517a52	-0.012785511
48	0x3d65b074	0.056076482
49	0xbc8f0be5	-0.017461726
50	0xbd3de61d	-0.04636203
51	0x3c980bbb	0.018560281
52	0xbd287abb	-0.04113267
53	0x3d5bba42	0.053644426
54	0x3e7bf9db	0.24607031
55	0x3e0144d7	0.12623917
56	0x3dffcf9e	0.12490772
57	0x3de14d62	0.11001088
58	0x3d806ecf	0.06271135
59	0x3d4f6ec4	0.050642744
60	0x3bca135f	0.00616686
61	0xbd187434	-0.037220195
62	0xbb8d008f	-0.004303045
63	0x3d8d427b	0.06897446
64	0xbd9d1e91	-0.07671846
65	0x3dda937e	0.10672663
66	0x3d849220	0.06473184
67	0xbc48790b	-0.01223589
68	0x3d931967	0.071825795
69	0x3dac7cc5	0.084222354
70	0x3d34f50c	0.044179007
71	0x3e87197b	0.26386628
72	0xbc3a662b	-0.011376898
73	0x3da9eb90	0.08296883
74	0x3d77197f	0.06032705
75	0xbb88742b	-0.004164239
76	0xbb7236ae	-0.0036958861
77	0x3ae21da9	0.0017251271
78	0x3b8f4d2c	0.0043732133
79	0x3d8f2559	0.069895454
80	0x3c95183c	0.018200032
81	0x3da23997	0.07921141
82	0x3c64022e	0.013916535
83	0x3e23cad3	0.1599534
84	0x3b42da3d	0.002973213
85	0xbc302e21	-0.0107531855
86	0x3e12a1b5	0.14319499
87	0xbd3585ab	-0.04431693
88	0x3e176aa7	0.14786778
89	0x3e102556	0.14076743
90	0xbc4767af	-0.012170716
91	0xbbba2293	-0.005680391
92	0xbdbc92da	-0.09207697
93	0x3d8dbfb4	0.0692133
94	0xbbd0562d	-0.006357929
95	0x3d443219	0.04789934
96	0x3dd9c94b	0.10634097
97	0x3c03a036	0.008033803
98	0xbbfbaa29	-0.007680197
99	0x3d4781a8	0.048707634
100	0xbc05d2cb	-0.008167933
101	0x3dd0f304	0.102026016
102	0x3e48f526	0.19624767
103	0x3cd597cf	0.026073365
104	0xbca80de5	-0.020514438
105	0xbd2f4602	-0.042791374
106	0x3d9a163f	0.07523774
107	0x3bf0c6d5	0.0073479214
108	0x3de1ec07	0.11031347
109	0x3c9b2059	0.018936323
110	0xbd182135	-0.037141044
111	0x3d59a3ab	0.0531346
112	0x3d6fd4a8	0.058552414
113	0x3c976040	0.018478513
114	0x3bfd91e0	0.007738337
115	0x3dd609fd	0.10451124
116	0x3a34d05c	0.0006897503
117	0xbd2836bb	-0.04106782
118	0xbcde16a6	-0.027110409
119	0xbd1ae373	-0.03781457
120	0x3d0e408c	0.034729525
121	0xbcbb71fb	-0.022881499
122	0x3c6486a5	0.013948117
123	0xbcc5780b	-0.024105093
124	0x3d6d3b9b	0.057918172
125	0x3c9bbade	0.019010004
126	0x3d9a171c	0.07523939
127	0xbd33fc61	-0.04394186
128	0x3c2d28ce	0.010568811
129	0xbd6ce1a0	-0.05783236
130	0xbce57c3d	-0.028013343
131	0xbd30d40d	-0.043170977
132	0x3dab6bb2	0.083701506
133	0x3ddb5047	0.10708671
134	0x3dc025f2	0.093822375
135	0x3e0bc4bf	0.13649271
136	0xbd455026	-0.04817214
137	0x3dd92f58	0.10604733
138	0x3ce4bf85	0.027923355
139	0x3caa688e	0.020801809
140	0x3dcd89d8	0.10036057
141	0x3c0d5b04	0.008627657
142	0x3d0a1453	0.03371079
143	0x3d409601	0.047018055
144	0xbad5754f	-0.0016285571
145	0x3ddeaac5	0.108724155
146	0x3d200f43	0.039077055
147	0x3e1b81f6	0.15186295
148	0x3d9e14a9	0.07718784
149	0xbd4b66dd	-0.049658645
150	0x3d7bc3fb	0.0614662
151	0x3d87d3fc	0.0663223
152	0x3e0cae76	0.13738427
153	0x3d2b579e	0.041831605
154	0x3d211775	0.03932901
155	0xbb15dc86	-0.0022867038
156	0xbbf04cf5	-0.0073333927
157	0x3d2ecfd8	0.042678684
158	0x3dc39a78	0.09550947
159	0x3c9c7f44	0.019103654
160	0x3d79bea4	0.060972825
161	0xbd37bd74	-0.04485841
162	0x3d95912a	0.073030785
163	0x3d9e1623	0.07719066
164	0x3dc77897	0.097397976
165	0x3dbef036	0.0932316
166	0x3d5426a5	0.051794667
167	0x3d6e4c95	0.058178503
168	0x3badf31e	0.005308523
169	0x3cff5b62	0.031171504
170	0x3e543d39	0.2072648
171	0x3d389472	0.045063443
172	0xbb5d8afe	-0.003380477
173	0x3e1a47da	0.15066472
174	0x3e889818	0.26678538
175	0x3d97a59f	0.074046366
176	0x39d160c7	0.0003993569
177	0x3d2e533e	0.042559855
178	0x3d7f4cea	0.06232921
179	0x3df506f4	0.11964217
180	0x3dde195f	0.10844683
181	0xbd3a59b6	-0.04549571
182	0x3d977aad	0.073964454
183	0xbd1f5a23	-0.03890432
184	0x3d8ebdb2	0.06969775
185	0x3c582321	0.013191969
186	0x3d1b235d	0.037875522
187	0x3d1f2e0a	0.038862266
188	0x3dabb0e2	0.08383347
189	0x3cb0397d	0.021511788
190	0x3d47375c	0.04863678
191	0x3e0e11bf	0.13873957
192	0x3a345794	0.0006879505
193	0x3d1d4b26	0.038401745
194	0x3c928a2e	0.017888155
195	0x3d271580	0.04079199
196	0x3d09a169	0.0336012
197	0x3df30bee	0.1186751
198	0x3daf0f7a	0.08547874
199	0x3c359074	0.011081804
200	0x3e0309b2	0.12796667
201	0x3d1f732e	0.038928203
202	0x3da2ddc3	0.07952454
203	0x3c8e81dd	0.017395908
204	0xbbae18c0	-0.005313009
205	0x3c04a2ce	0.008095456
206	0xbcb7b8f1	-0.022427054
207	0x3deab2aa	0.11459859
208	0xbcf9fb25	-0.030515263
209	0x3e144304	0.1447869
210	0x3d210bee	0.039318018
211	0x3e019640	0.12654972
212	0x3dfaf944	0.12254575
213	0x3e024447	0.12721358
214	0x3d3bbe3a	0.04583571
215	0x3ca59a9c	0.020215325
216	0x3db778dd	0.089586
217	0xbb005f15	-0.0019587923
218	0xbcfe4cb5	-0.031042436
219	0xbd3b785f	-0.04576909
220	0xbbeca740	-0.007222086
221	0x3dda6b30	0.10664976
222	0x3dd0cd6d	0.10195432
223	0x3d875b6a	0.06609233
224	0x3e248201	0.16065218
225	0x3d12bc63	0.03582419
226	0x3d756e25	0.059919495
227	0x3dc148c7	0.09437709
228	0x3d8dbc8a	0.069207266
229	0x3de7a5ba	0.11310907
230	0x3cf69ee4	0.030105062
231	0x3da4c026	0.08044462
232	0x3daf98f6	0.08574097
233	0xbd09b5ef	-0.03362077
234	0x3db8e9f2	0.090289965
235	0xbcb854d5	-0.022501389
236	0x3d99c26f	0.075077884
237	0x3e2850a6	0.16437015
238	0x3db42f93	0.087981366
239	0x3e02d795	0.1277755
240	0x3d2f5d65	0.042813677
241	0x3e36ab05	0.17838676
242	0xbd0be666	-0.034155272
243	0x3e0f77b9	0.14010514
244	0x3ddb4e8a	0.107083395
245	0xbd44ff8c	-0.04809527
246	0x3d215843	0.039390814
247	0x3d5d4a43	0.0540259
248	0x3d72ab8e	0.05924564
249	0x3d3da0af	0.046295818
250	0xbbcd2784	-0.006260814
251	0x3b9a64a1	0.004711703
252	0xbd9fb666	-0.077984616
253	0x3de563bf	0.11200666
254	0x3dff62ad	0.12469993
255	0x3e03a499	0.12855758

dense.weight f4 [1, 128]
0	0xbd0b2a7e	-0.03397607
1	0xbd8a5037	-0.06753581
2	0x3e0f1419	0.1397251
3	0x3dbd3712	0.092390195
4	0xbd9ae485	-0.07563118
5	0x3dc58f24	0.096464425
6	0xbe37f8fa	-0.17966071
7	0x3f30b1c6	0.6902126
8	0x3db7eb43	0.089804195
9	0x3cfb63e5	0.030687282
10	0x3e2d5719	0.16927756
11	0xbda64f55	-0.081206
12	0xbd1f5be9	-0.03890601
13	0x3e13c50a	0.14430633
14	0xbe1248a2	-0.1428552
15	0xbe77c6a7	-0.24196874
16	0xbcc7dc06	-0.024396908
17	0x3d639e66	0.055570982
18	0xbd99a993	-0.07503047
19	0xbc88d159	-0.016701387
20	0x3e9cf094	0.30652297
21	0x3e3edf82	0.18639949
22	0x3e96ceab	0.2945455
23	0xbe0228d8	-0.12710893
24	0x3c367b1f	0.011137753
25	0xbdf5d1e5	-0.12002925
26	0xbd19242c	-0.03738801
27	0x3da11568	0.07865411
28	0xbea1a7f3	-0.31573448
29	0xbe10b62b	-0.14131992
30	0x3c72f8a3	0.014829787
31	0x3db42ba1	0.08797384
32	0xbee5f6bd	-0.4491481
33	0x3df59aba	0.119924024
34	0xbdd656cf	-0.10465776
35	0xbe2413be	-0.16023156
36	0xbe5544f4	-0.20827085
37	0x3cfca4e8	0.030840352
38	0x3d394ba3	0.04523815
39	0x3de3cd46	0.11123137
40	0x3d949f49	0.07256944
41	0x3d75f273	0.06004567
42	0xbefbf18b	-0.4920772
43	0xbc931674	-0.017955042
44	0x3bef91c0	0.007311076
45	0xbe4b4e15	-0.19854005
46	0xbee42b9c	-0.4456452
47	0xbd68a501	-0.056797985
48	0xbe0612ef	-0.1309316
49	0xbcfec5c9	-0.03110017
50	0xbf4e3209	-0.805451
51	0xbe321f28	-0.17394698
52	0xbd408c38	-0.047008723
53	0x3e33c145	0.17554195
54	0x3db65609	0.08903129
55	0x3f24ab14	0.64323545
56	0xbdfb1cb4	-0.12261334
57	0xbdc08702	-0.09400751
58	0x3df21571	0.11820496
59	0xbabf239b	-0.0014582755
60	0x3e9c10eb	0.30481657
61	0x3c5e7504	0.013577703
62	0xbc184d37	-0.009295753
63	0xbe99a140	-0.30005836
64	0xbe155cd2	-0.1458619
65	0x3d830997	0.063983135
66	0xbd9da0df	-0.07696699
67	0x3d3411f6	0.04396244
68	0x3b09efd5	0.0021047492
69	0xbe8a5bb6	-0.27023095
70	0x3c6af8e5	0.014341568
71	0x3bde9c9c	0.0067935716
72	0x3e021396	0.12702784
73	0xbe39e33f	-0.18153094
74	0xbda65080	-0.08120823
75	0xbd4cf82b	-0.05004136
76	0x3cdf99d9	0.02729504
77	0x3d09f931	0.033684913
78	0x3e002196	0.12512812
79	0x3d4ec805	0.050483722
80	0xbc35bfdf	-0.011093109
81	0x3ec9a56e	0.39384025
82	0xbd2cfcb6	-0.04223319
83	0xbc152869	-0.009103873
84	0xbe083308	-0.13300717
85	0x3de863f3	0.11347189
86	0x3e53d8f5	0.20688231
87	0xbdf00f99	-0.11721725
88	0x3dc41997	0.095751934
89	0x3ec9e3f0	0.39431715
90	0xbe1822ab	-0.14856975
91	0xbd257d12	-0.04040248
92	0x3d145044	0.03620936
93	0x3d8e6a13	0.06953826
94	0x3c22cc84	0.009936456
95	0x3df32bc5	0.11873583
96	0xbd2e8175	-0.04260393
97	0x3e0edac4	0.1395064
98	0x3d484266	0.048891447
99	0xbe6195ad	-0.22029753
100	0x3d216df2	0.039411493
101	0xbc55be93	-0.013045925
102	0x3d94ec16	0.07271592
103	0x3dcb4552	0.09925331
104	0x3e846832	0.25860745
105	0xbe2bb8fc	-0.16769785
106	0x3af5fff5	0.0018768298
107	0xbe687f42	-0.22704795
108	0xbe5d8616	-0.21633181
109	0xbdfc81f3	-0.12329473
110	0x3bddb088	0.006765429
111	0x3df6d415	0.1205217
112	0x3e0c4a2b	0.13700168
113	0xbd8fb7d9	-0.07017488
114	0xbe844958	-0.25837207
115	0x3e205838	0.15658653
116	0x3e115a93	0.14194708
117	0x3d813c07	0.063102774
118	0x3df13fbe	0.11779736
119	0xbdf8aa24	-0.12141827
120	0x3d9e8912	0.07740988
121	0x3e6003f3	0.21876507
122	0x3d9fa4c0	0.077950954
123	0xbddb60ec	-0.10711846
124	0xbe9e74b7	-0.3094842
125	0x3ca06cac	0.019583069
126	0xbd528a6e	-0.051401548
127	0x3e8d87e9	0.27642754

exp_avg f4 [512, 1]
0	0x3414a3ea	1.3843206e-07
1	0x35c04934	1.432642e-06
2	0x3672d08b	3.6182198e-06
3	0xb4805db6	-2.3910042e-07
4	0xb65a978f	-3.257275e-06
5	0x3625f3c6	2.472881e-06
6	0xb4e513e7	-4.2669055e-07
7	0x35190f76	5.701944e-07
8	0x30a42c31	1.194513e-09
9	0xb6228a5c	-2.4220417e-06
10	0x36a550ff	4.9268124e-06
11	0xb30d91ba	-3.296166e-08
12	0xb5f277fa	-1.8065323e-06
13	0xb5fc9920	-1.8820028e-06
14	0xb66e6de6	-3.5528733e-06
15	0x358e301a	1.0593824e-06
16	0xb61d3d70	-2.3430584e-06
17	0xb7012b73	-7.6991155e-06
18	0x352ce6d6	6.4410904e-07
19	0xb576ed70	-9.198766e-07
20	0x363a7d2e	2.7789024e-06
21	0x361de222	2.352645e-06
22	0xb5cb8c0a	-1.5165435e-06
23	0xb1d1a532	-6.101481e-09
24	0x3647fba6	2.979979e-06
25	0xb668f967	-3.4715865e-06
26	0x344c0341	1.9000164e-07
27	0xb5cb1c4e	-1.5132916e-06
28	0x35461a64	7.379915e-07
29	0xb6e676b1	-6.8683516e-06
30	0xb5f64529	-1.8348557e-06
31	0x32b91884	2.1547983e-08
32	0xb5be8b69	-1.4196677e-06
33	0x36392f59	2.7594708e-06
34	0xb5fcab49	-1.8825314e-06
35	0x363737a5	2.7301514e-06
36	0x36713e47	3.5948049e-06
37	0x35f2242f	1.8040936e-06
38	0x353efac1	7.114541e-07
39	0x363da1c0	2.8257346e-06
40	0x3664a9a2	3.4073387e-06
41	0x362f88f8	2.6156758e-06
42	0x35ff71d3	1.9032108e-06
43	0x369daed9	4.6993196e-06
44	0xb52df5d7	-6.4805266e-07
45	0x34b73065	3.4121618e-07
46	0x369c06a2	4.6499345e-06
47	0xb691efab	-4.3492378e-06
48	0xb50f0740	-5.32822e-07
49	0xb5ea0761	-1.7436506e-06
50	0xb6af8d31	-5.2318433e-06
51	0x3637f4c0	2.7411588e-06
52	0x35dc3526	1.6406746e-06
53	0xb5d37e8a	-1.5757553e-06
54	0x35992883	1.1411179e-06
55	0x36440523	2.9209266e-06
56	0xb45cef88	-2.0576238e-07
57	0x365a9826	3.2573093e-06
58	0x35d346b5	1.5741304e-06
59	0xb6914cb2	-4.3302653e-06
60	0x36428e1d	2.8990974e-06
61	0xb68d221b	-4.206098e-06
62	0xb6394dd3	-2.7612448e-06
63	0xb68a7a56	-4.1269623e-06
64	0xb4fd748e	-4.7209727e-07
65	0xb658b186	-3.228984e-06
66	0x353f6f45	7.1314963e-07
67	0xb5402c91	-7.1590426e-07
68	0x36914883	4.329778e-06
69	0x3574951a	9.1114055e-07
70	0xb61655e8	-2.2401746e-06
71	0xb6039e63	-1.9612714e-06
72	0x373a6529	1.1110017e-05
73	0x35267bc3	6.2019916e-07
74	0xb5687e9b	-8.661097e-07
75	0x359055ff	1.0753864e-06
76	0x35846206	9.863295e-07
77	0xb5608ea1	-8.3654055e-07
78	0x34a4c864	3.0693184e-07
79	0xb535138b	-6.7456193e-07
80	0xb6359f4c	-2.7063825e-06
81	0x3474695f	2.2762605e-07
82	0xb69f0d9e	-4.7401545e-06
83	0xb7798e0a	-1.4874628e-05
84	0xb581ac3b	-9.661375e-07
85	0x363352ab	2.6721198e-06
86	0x369a20a7	4.593359e-06
87	0x36a4c82d	4.9108844e-06
88	0x36a077da	4.782324e-06
89	0x3640d7dc	2.8735876e-06
90	0x36c244ea	5.789673e-06
91	0x34c1b5c8	3.6081315e-07
92	0xb6cc98b5	-6.097451e-06
93	0xb5d4423d	-1.5814509e-06
94	0xb61aa6c8	-2.3044868e-06
95	0x35186bbd	5.678119e-07
96	0xb722f5c7	-9.713177e-06
97	0xb50d3b75	-5.2613115e-07
98	0xb6a27b1f	-4.8423094e-06
99	0xb54a23ae	-7.5302785e-07
100	0x369ddc53	4.7046137e-06
101	0x367b0d45	3.7409638e-06
102	0xb634033d	-2.6823975e-06
103	0x366a96c6	3.495648e-06
104	0x34f52d3b	4.5667716e-07
105	0x3518c7f4	5.691538e-07
106	0x34450178	1.8347589e-07
107	0xb5f5429f	-1.8273312e-06
108	0xb5e4ea53	-1.7055521e-06
109	0xb574436c	-9.0995195e-07
110	0xb7082b39	-8.116295e-06
111	0x34c20de1	3.6145414e-07
112	0x349d3888	2.928466e-07
113	0xb7309dab	-1.0527127e-05
114	0xb566deca	-8.600588e-07
115	0x35bb3c04	1.3950053e-06
116	0x36907f50	4.3063555e-06
117	0xb6a573a8	-4.9308474e-06
118	0x35ddb73d	1.6519112e-06
119	0x3618ad8c	2.2750783e-06
120	0xb670698e	-3.5824228e-06
121	0xb51114bb	-5.4046876e-07
122	0xb59932ad	-1.1414137e-06
123	0x372b4ba3	1.0210005e-05
124	0x35f57236	1.8287162e-06
125	0xb69907c2	-4.5606585e-06
126	0xb6cdca22	-6.1330074e-06
127	0xb3297a6c	-3.945972e-08
128	0x36137e26	2.1978135e-06
129	0x360beb63	2.0849627e-06
130	0x368dfda2	4.231654e-06
131	0x3687af95	4.043754e-06
132	0xb584c9b2	-9.893467e-07
133	0x366bde87	3.5147257e-06
134	0x35d1997f	1.5616387e-06
135	0x3576fb26	9.200761e-07
136	0x35524049	7.8324643e-07
137	0xb5cac4e8	-1.510748e-06
138	0x37106140	8.605712e-06
139	0xb612ebc9	-2.189294e-06
140	0x3693dce5	4.406657e-06
141	0xb5b9ec22	-1.3852298e-06
142	0xb67fa0de	-3.8091598e-06
143	0x35dae3b4	1.6308536e-06
144	0xb58076b4	-9.57129e-07
145	0x371616bd	8.945991e-06
146	0x34131d59	1.3701118e-07
147	0x36962108	4.4741937e-06
148	0x36b331a0	5.340393e-06
149	0x365ae2c7	3.2616533e-06
150	0xb53bb2d3	-6.992315e-07
151	0x3648df13	2.9932169e-06
152	0x36c1aaf4	5.77175e-06
153	0xb65a8a89	-3.256517e-06
154	0x3659616d	3.239223e-06
155	0xb5c6e7e7	-1.4819642e-06
156	0x36469057	2.9588316e-06
157	0xb55643cf	-7.9819887e-07
158	0x35bfdcf8	1.4294919e-06
159	0x3624b808	2.4545025e-06
160	0x36c6c523	5.9238096e-06
161	0x36c320d7	5.815276e-06
162	0x3444ef0e	1.834089e-07
163	0x366ca31f	3.526169e-06
164	0x36abedd5	5.1238844e-06
165	0x365a950c	3.2571288e-06
166	0x36b63823	5.430558e-06
167	0x36f77416	7.374688e-06
168	0x369c3eb7	4.6564633e-06
169	0x36f62e97	7.336795e-06
170	0x36791ad3	3.7119505e-06
171	0x37046809	7.892036e-06
172	0xb64d452d	-3.0587646e-06
173	0x3693d966	4.40625e-06
174	0x37827ee8	1.5556303e-05
175	0xb69cab00	-4.6690693e-06
176	0x34cb8eeb	3.7915683e-07
177	0xb4852e31	-2.480679e-07
178	0xb61d36e8	-2.3426783e-06
179	0x36c4df2c	5.867236e-06
180	0x36988b77	4.546189e-06
181	0xb621f1d6	-2.4131637e-06
182	0x358b185c	1.0363397e-06
183	0x36538423	3.1518364e-06
184	0x3688f234	4.081312e-06
185	0x36363739	2.7152257e-06
186	0x364e32d7	3.0725985e-06
187	0xb59fbb26	-1.190089e-06
188	0x36c6ce6d	5.924891e-06
189	0xb656f9a7	-3.2033802e-06
190	0x36a39259	4.8748157e-06
191	0x36b2fa41	5.333947e-06
192	0x357f9f01	9.5226284e-07
193	0x36a02fd5	4.77394e-06
194	0x36a28e11	4.844515e-06
195	0x35a1dd82	1.2059902e-06
196	0x370f27e8	8.532756e-06
197	0x36d22f0d	6.263965e-06
198	0x36624245	3.3715198e-06
199	0x36be5bdc	5.673135e-06
200	0x378e7d35	1.6986023e-05
201	0x3701d799	7.739197e-06
202	0x368173ee	3.8579956e-06
203	0x3695aef8	4.460915e-06
204	0x36ec7265	7.0466654e-06
205	0x3481ab2d	2.415267e-07
206	0x365c602c	3.2838534e-06
207	0x36541dd1	3.1607817e-06
208	0xb3f12c9f	-1.12305536e-07
209	0x34933562	2.7419725e-07
210	0xb67e0f15	-3.7857728e-06
211	0xb6e65a15	-6.865021e-06
212	0x366c3048	3.5194844e-06
213	0x3691fd62	4.3508344e-06
214	0x36b77bbb	5.468229e-06
215	0x371a359c	9.191597e-06
216	0x37399578	1.106166e-05
217	0x368dfe96	4.231765e-06
218	0x370479e3	7.896192e-06
219	0x360d6baf	2.1073317e-06
220	0xb6ab350b	-5.102372e-06
221	0x35a82825	1.2528659e-06
222	0x366a4893	3.491096e-06
223	0x3620bd30	2.395198e-06
224	0xb6ead09e	-6.9980297e-06
225	0xb354b201	-4.952199e-08
226	0x36ed2956	7.0679625e-06
227	0x3716e5f0	8.994233e-06
228	0x367b94db	3.748856e-06
229	0x3703fd6c	7.867213e-06
230	0xb693b895	-4.4024296e-06
231	0x364a36da	3.0132273e-06
232	0x366b8d33	3.5099918e-06
233	0x3656fec1	3.2036771e-06
234	0x3521bdfc	6.025364e-07
235	0xb5d4c4ae	-1.5852472e-06
236	0x34cd5584	3.8246446e-07
237	0x36b7da5b	5.479245e-06
238	0xb6a9f699	-5.0653002e-06
239	0x36cf4a98	6.1777646e-06
240	0x361e541b	2.359279e-06
241	0xb6d77e37	-6.4221927e-06
242	0x35aae3f6	1.2732332e-06
243	0x368a8336	4.1279955e-06
244	0x36efad5a	7.142936e-06
245	0xb619896f	-2.2878774e-06
246	0x367f12c1	3.8008877e-06
247	0x369c75e9	4.662889e-06
248	0xb56dc005	-8.8568805e-07
249	0x3615d03f	2.2323945e-06
250	0x35f1bc62	1.8010726e-06
251	0x3777a4f0	1.476075e-05
252	0x35a7d716	1.2505068e-06
253	0xb55c1644	-8.198879e-07
254	0xb6d36dde	-6.3010802e-06
255	0x36c94548	5.998332e-06

exp_avg_sq f4 [512, 1]
0	0x335df128	5.1674903e-08
1	0x331432e6	3.4505227e-08
2	0x32141ba7	8.621021e-09
3	0x3247efb7	1.1637829e-08
4	0x33dedc2b	1.0377729e-07
5	0x310c2b8d	2.0397437e-09
6	0x32658063	1.3358746e-08
7	0x30a485e1	1.1970621e-09
8	0x334e0f8b	4.797725e-08
9	0x31c55104	5.742665e-09
10	0x32b4d338	2.1050809e-08
11	0x31db03f1	6.374187e-09
12	0x324f0486	1.2050014e-08
13	0x3192951c	4.266111e-09
14	0x32a078bb	1.8681353e-08
15	0x30831b0e	9.539194e-10
16	0x33afe306	8.190368e-08
17	0x329839b7	1.7721375e-08
18	0x30e64f5c	1.6757258e-09
19	0x336fd3b0	5.5839052e-08
20	0x32b4e9b3	2.1061032e-08
21	0x311f67be	2.3196516e-09
22	0x3114f148	2.1673987e-09
23	0x300172a3	4.7092835e-10
24	0x32dea28d	2.5918121e-08
25	0x33807af4	5.9828295e-08
26	0x31ec0caa	6.8699437e-09
27	0x30f942e1	1.8136143e-09
28	0x31c6cb4b	5.78567e-09
29	0x31de9e4d	6.479047e-09
30	0x33d22621	9.7858226e-08
31	0x30ae7198	1.2692452e-09
32	0x32564f3b	1.2474454e-08
33	0x31e5d3c6	6.688853e-09
34	0x33155e07	3.4777283e-08
35	0x309d7916	1.1457668e-09
36	0x3216a1e4	8.767959e-09
37	0x32625e9c	1.3176443e-08
38	0x31b85f9d	5.3659748e-09
39	0x319dcdbf	4.592692e-09
40	0x32935277	1.7150553e-08
41	0x32533a63	1.2295092e-08
42	0x32a15760	1.87826e-08
43	0x3220076c	9.314913e-09
44	0x315c5b81	3.2066227e-09
45	0x33113da3	3.38165e-08
46	0x32ec951b	2.7541821e-08
47	0x33f1c84e	1.1258872e-07
48	0x332b349d	3.986189e-08
49	0x3396c2cf	7.020355e-08
50	0x321045d0	8.397777e-09
51	0x332d63c8	4.0370452e-08
52	0x330ad685	3.2325733e-08
53	0x319bfea0	4.5400412e-09
54	0x32101923	8.387619e-09
55	0x31013670	1.8802915e-09
56	0x323d24d7	1.1009624e-08
57	0x311714b9	2.1985171e-09
58	0x31338d6e	2.6128322e-09
59	0x3303a72b	3.0652853e-08
60	0x314d07c7	2.9835847e-09
61	0x337c7aba	5.878494e-08
62	0x34acecc8	3.2209778e-07
63	0x31898a56	4.0029517e-09
64	0x32c412b3	2.2825906e-08
65	0x31c46288	5.7155525e-09
66	0x32b3ee3e	2.0946683e-08
67	0x33036ffb	3.060266e-08
68	0x32d8f137	2.5255401e-08
69	0x30d30886	1.5354693e-09
70	0x324748de	1.1599893e-08
71	0x31b4e73a	5.264977e-09
72	0x31f24168	7.050563e-09
73	0x30fd5e75	1.8435019e-09
74	0x325dae8c	1.290358e-08
75	0x32938b64	1.717644e-08
76	0x333804dd	4.284526e-08
77	0x302b1756	6.22426e-10
78	0x32729680	1.4120474e-08
79	0x33443cd3	4.5690125e-08
80	0x334e80b5	4.808017e-08
81	0x31655aef	3.3375576e-09
82	0x334dba78	4.7899874e-08
83	0x33bf35e2	8.903932e-08
84	0x3275e0b5	1.4311969e-08
85	0x327b95f0	1.4644215e-08
86	0x31fac3b5	7.298207e-09
87	0x32636a55	1.3237316e-08
88	0x323642de	1.0608998e-08
89	0x30e9913a	1.6994257e-09
90	0x32108bca	8.4136875e-09
91	0x323a0411	1.08275495e-08
92	0x331be764	3.62992e-08
93	0x31dec8b5	6.483868e-09
94	0x327c33cd	1.4680109e-08
95	0x31c0d498	5.6121046e-09
96	0x340c01b3	1.3039134e-07
97	0x3081f6dd	9.456148e-10
98	0x32de5c9a	2.5886312e-08
99	0x32ed3688	2.761523e-08
100	0x325f9aa0	1.3015466e-08
101	0x3334e49b	4.211743e-08
102	0x310e0bf9	2.0670525e-09
103	0x3158055b	3.1435181e-09
104	0x3243a36c	1.1387652e-08
105	0x32071a0a	7.863955e-09
106	0x315b3743	3.1900107e-09
107	0x318e5934	4.142885e-09
108	0x32761342	1.4323463e-08
109	0x32940f83	1.7236522e-08
110	0x329a9f33	1.8000355e-08
111	0x322ca7ae	1.0049844e-08
112	0x32886b68	1.5881326e-08
113	0x347ada5a	2.33625e-07
114	0x31773426	3.5972874e-09
115	0x3208d24f	7.9640605e-09
116	0x32a749c6	1.9474907e-08
117	0x3270cea0	1.401682e-08
118	0x31a28186	4.7295456e-09
119	0x30dbd68b	1.5995324e-09
120	0x33d6bdf7	9.999706e-08
121	0x330659ef	3.12811e-08
122	0x316b5277	3.4243877e-09
123	0x3266802c	1.3416905e-08
124	0x30ebd9a3	1.7160356e-09
125	0x330954d5	3.1974952e-08
126	0x33aa2c4c	7.9242994e-08
127	0x32eead09	2.7785534e-08
128	0x3356216d	4.985616e-08
129	0x3326d3e0	3.8842586e-08
130	0x3251715a	1.2191174e-08
131	0x32ac4b3a	2.0057644e-08
132	0x33ad5bfc	8.072672e-08
133	0x3112dd81	2.1371707e-09
134	0x3211b9de	8.482372e-09
135	0x3109cf57	2.0053983e-09
136	0x337b6c52	5.853901e-08
137	0x31b5fa98	5.2962825e-09
138	0x32b27ff7	2.0780119e-08
139	0x321c5bd1	9.101272e-09
140	0x32a192cb	1.880962e-08
141	0x31acc104	5.027802e-09
142	0x33020d31	3.027998e-08
143	0x3109ebab	2.0070086e-09
144	0x3396e364	7.0262814e-08
145	0x32376401	1.067474e-08
146	0x31692331	3.3925966e-09
147	0x330aa300	3.2278876e-08
148	0x32763467	1.43309995e-08
149	0x311a76e5	2.2477533e-09
150	0x311cb0d4	2.2801503e-09
151	0x31dc2255	6.406746e-09
152	0x336097e5	5.229221e-08
153	0x33444edc	4.570653e-08
154	0x3200cc14	7.496983e-09
155	0x3122ba91	2.3680153e-09
156	0x3191adc0	4.2398085e-09
157	0x31f94dfd	7.25572e-09
158	0x33d793ba	1.0038589e-07
159	0x31040470	1.921105e-09
160	0x33886bfe	6.352637e-08
161	0x31f816a2	7.220323e-09
162	0x32c94ae8	2.3433543e-08
163	0x3117f8fc	2.2114923e-09
164	0x31fd0220	7.3635107e-09
165	0x330016a6	2.982292e-08
166	0x322aada8	9.934787e-09
167	0x31ca19e1	5.881916e-09
168	0x3285320b	1.5505995e-08
169	0x32f60164	2.8638802e-08
170	0x33630a29	5.2861797e-08
171	0x32a3876e	1.9037284e-08
172	0x319fd6e7	4.6519406e-09
173	0x336dffbe	5.541346e-08
174	0x348be3fc	2.6056648e-07
175	0x341bdc9b	1.4515756e-07
176	0x336dfb74	5.5409558e-08
177	0x3350898c	4.8553872e-08
178	0x31e51352	6.6669736e-09
179	0x332471fb	3.828789e-08
180	0x33249912	3.8323442e-08
181	0x314d111b	2.984115e-09
182	0x32929919	1.7066258e-08
183	0x312f7c8e	2.5536653e-09
184	0x31f71ef8	7.192167e-09
185	0x31930e14	4.2798636e-09
186	0x313e2124	2.7667477e-09
187	0x331b8016	3.6205243e-08
188	0x3181d6d5	3.7788177e-09
189	0x33429484	4.530422e-08
190	0x349be887	2.9040186e-07
191	0x31d7ceb1	6.2808216e-09
192	0x332a862f	3.970325e-08
193	0x3212bff0	8.54196e-09
194	0x3298833b	1.7754806e-08
195	0x3319ea9e	3.583647e-08
196	0x32cf506b	2.4134541e-08
197	0x3139a99d	2.7017457e-09
198	0x3314c7ce	3.4640657e-08
199	0x32a68dc2	1.9389407e-08
200	0x321cf551	9.136174e-09
201	0x3186bf27	3.921645e-09
202	0x324ab894	1.1799916e-08
203	0x32badeca	2.1754563e-08
204	0x33065299	3.127443e-08
205	0x301ffeb5	5.8205823e-10
206	0x32d711e0	2.5037423e-08
207	0x33482fc4	4.660957e-08
208	0x33040d96	3.0746e-08
209	0x319532e7	4.3422577e-09
210	0x3302617e	3.0356652e-08
211	0x34144d18	1.381162e-07
212	0x32b2eb2a	2.0828868e-08
213	0x32e74ef3	2.6927841e-08
214	0x324d929b	1.1965905e-08
215	0x32ac1093	2.0030972e-08
216	0x32f42e95	2.8426522e-08
217	0x3118ca48	2.2233895e-09
218	0x32875a52	1.5757141e-08
219	0x323d8d54	1.1033382e-08
220	0x33098bab	3.2024825e-08
221	0x325c86a5	1.28363e-08
222	0x3290b323	1.6845268e-08
223	0x31ec1967	6.871392e-09
224	0x3432b119	1.664197e-07
225	0x30eab5e2	1.7077435e-09
226	0x33602e0f	5.2195954e-08
227	0x3350c3e1	4.8606925e-08
228	0x3283c601	1.5340449e-08
229	0x335987cb	5.0647753e-08
230	0x32458d88	1.149909e-08
231	0x3185ee62	3.8979104e-09
232	0x31fed931	7.4170647e-09
233	0x31f63454	7.1654913e-09
234	0x3174ba6e	3.5612646e-09
235	0x314316de	2.8389233e-09
236	0x32a4d83a	1.9190441e-08
237	0x32d89262	2.5212277e-08
238	0x323bfb51	1.0941975e-08
239	0x32dd6294	2.5772614e-08
240	0x32b094ca	2.0556758e-08
241	0x3435c4b3	1.6928497e-07
242	0x317b46ef	3.6565628e-09
243	0x32852be5	1.5503199e-08
244	0x32914af6	1.691431e-08
245	0x3293413d	1.714272e-08
246	0x32612e31	1.3107226e-08
247	0x319d634d	4.5805906e-09
248	0x33c29179	9.06029e-08
249	0x32b992cc	2.160359e-08
250	0x31881d3c	3.9614445e-09
251	0x32ba64e8	2.1699137e-08
252	0x303584b3	6.6035993e-10
253	0x32e30ec2	2.643299e-08
254	0x33bbb53b	8.740832e-08
255	0x32cbf7af	2.3744944e-08
