resources/saved_models/shift/tcn_32_128.ckpt (torch, 120485 bytes, 177 tensors)

tcn.network.0.conv1.bias f4 [10]
-0.30843872 -0.34846815 0.27119154 0.103904 0.49473855 -0.13650398 -0.41808155 0.2944755
0.1405786 -0.5447442
00000000: aeeb 9dbe 6b6a b2be 9ed9 8a3e 9fcb d43d
00000010: 5f4e fd3e b3c7 0bbe c90e d6be 7ec5 963e
00000020: d6f3 0f3e 5b74 0bbf

tcn.network.0.conv1.weight_g f4 [10, 1, 1]
0.42100844 0.28719148 0.49492276 0.4179407 0.47062284 0.54893845 0.5469244 0.54245037
0.49640578 0.36894083
00000000: 6b8e d73e c30a 933e 8466 fd3e 53fc d53e
00000010: 7af5 f03e 3b87 0c3f 3d03 0c3f 07de 0a3f
00000020: e628 fe3e d0e5 bc3e

tcn.network.0.conv1.weight_v f4 [10, 1, 4]
-0.26327437 0.06553893 0.25958386 0.11315331 0.029411132 -0.36960775 -0.013575336 0.14892274
-0.28767073 0.124444224 -0.09502995 0.2987496 -0.026303869 0.27814528 0.12979467 -0.39318055
0.02349162 -0.09948105 -0.42967877 -0.10223814 0.08282352 -0.13439846 -0.027298992 -0.60300696
-0.4315299 0.22608328 0.3130901 0.16477843 -0.038033072 -0.13195762 -0.22340153 0.28325018
0.24259073 -0.31296915 0.129473 0.0726347 0.054334454 0.013782203 -0.042406335 -0.47681436
00000000: e6cb 86be 4639 863d 2de8 843e ecbc e73d
00000010: 9def f03c 3a3d bdbe 166b 5ebc 347f 183e
00000020: 9449 93be 9ddc fe3d 109f c2bd b5f5 983e
00000030: 367b d7bc 0f69 8e3e e5e8 043e f64e c9be
00000040: 7f71 c03c b9bc cbbd dbfe dbbe 3b62 d1bd
00000050: 619f a93d c09f 09be 23a2 dfbc aa5e 1abf
00000060: 7df1 dcbe 6082 673e 584d a03e adbb 283e
00000070: 91c8 1bbd e61f 07be 5fc3 64be 2b06 913e
00000080: b469 783e 7e3d a0be 9294 043e 80c1 943d
00000090: ce8d 5e3d c0ce 613c 44b2 2dbd 0321 f4be

tcn.network.0.conv2.bias f4 [10]
0.039282735 -0.061490823 -0.24192324 -0.08198382 -0.009909396 -0.028156225 0.059388485 -0.0763359
-0.098341286 0.027222762
00000000: efe6 203d cddd 7bbd baba 77be 22e7 a7bd
00000010: 055b 22bc e2a7 e6bc 5741 733d ff55 9cbd
00000020: 2867 c9bd 4502 df3c

tcn.network.0.conv2.weight_g f4 [10, 1, 1]
0.5195051 0.5140541 0.50131416 0.6078576 0.5394193 0.5214028 0.60007644 0.5417424
0.48125795 0.5870832
00000000: 49fe 043f 0d99 033f 2056 003f 8e9c 1b3f
00000010: 6217 0a3f a77a 053f 9c9e 193f a1af 0a3f
00000020: 7167 f63e 164b 163f

tcn.network.0.conv2.weight_v f4 [10, 10, 4]
-0.13650517 -0.21339522 -0.13425998 0.19753869 0.34867483 0.055878248 -0.0062473505 0.005461128
0.1870769 -0.015178031 0.062652566 -0.1001358 -0.06854502 -0.11353577 0.015925243 -0.057403285
0.012413717 -0.030972747 0.0003188905 0.006602174 0.10203821 0.06393209 -0.027449654 -0.0025198774
0.1960931 0.17171237 -0.16214149 -0.12327236 0.03439988 0.048289955 0.044940285 0.03720164
0.10438381 0.008037526 -0.100661404 0.08414341 0.030452421 0.08599293 -0.0136389695 0.31136975
-0.14252202 0.11220567 -0.118432745 -0.10069289 -0.03943868 0.106394425 -0.14433953 -0.022235785
-0.14313793 0.100530945 -0.10880639 -0.01608364 -0.104328275 -0.07519063 -0.17221539 -0.11327135
-0.12894197 0.06392619 -0.018854566 -0.08561123 0.044515528 0.020057665 0.019956067 -0.026813477
-0.07989429 -0.1283087 -0.076723546 -0.079399765 0.04550164 0.086238265 0.118608125 0.052555945
0.18603832 -0.07890803 -0.14013626 -0.035633914 -0.0294951 0.09491888 -0.08730078 -0.06269245
0.115594104 -0.100991756 -0.1279713 0.11910916 0.033004265 0.1359105 0.19054441 0.2530446
-0.18424779 -0.078693055 -0.21857971 -0.23240425 -0.012407419 -0.11073445 -0.015510108 0.08157311
-0.003567933 -0.0036984112 -0.002900133 -0.0023327202 0.012695246 -0.006463553 0.004095552 0.20967096
-0.14802825 0.11225415 -0.18815334 -0.18835875 -0.032047406 -0.020018732 -0.027568389 -0.0021845212
-0.0600075 -0.017248342 -0.123174295 -0.023630423 -0.038858358 0.21680278 0.012935161 -0.04794447
0.0462238 0.083874516 0.078657985 0.1206682 -0.17231685 -0.13477287 -0.12165439 -0.18440238
0.007762318 -0.030827502 0.03936368 -0.017143764 0.1855442 -0.14793605 -0.1308172 -0.0215853
-0.042569894 -0.15503226 -0.17007078 0.052820664 0.15290444 -0.15538277 -0.17243361 -0.14537734
0.08268093 0.09367609 0.12928541 0.2778651 -0.05495199 -0.14410707 -0.08660285 0.13302083
0.07176164 0.03723331 0.056016847 0.042042177 -0.19342375 -0.1624157 -0.16561842 -0.16830085
-0.0049565868 -0.03439783 0.071111865 0.019991169 -0.07298296 0.027910544 0.14284647 -0.09695632
0.05924351 -0.060126867 0.13746195 0.17751682 -0.09838785 -0.10663864 -0.05461576 -0.1287191
-0.05411496 0.09993747 0.08074591 -0.1567129 -0.13802911 -0.025654836 5.1821503e-13 -0.14370172
-0.010319208 -0.03016813 -0.0021255633 0.015237834 -0.08088267 -0.089262016 -0.09840283 0.12375441
0.07448773 0.056237232 0.07484133 -0.06448809 0.056081943 0.03080264 0.04121891 -0.045184437
0.020753259 0.11351083 0.26836243 0.15242791 -0.044933856 0.04572499 -0.09764511 0.08814922
0.008339275 -0.010387919 0.07649592 0.18682127 -0.063089125 -0.049442012 -0.05636335 -0.08595306
-0.09405867 -0.042803477 0.04136851 0.05855774 -0.047570888 0.11257524 -0.042520072 -0.045991715
0.004449788 0.006502778 -0.077522166 -0.053281676 -0.11716842 -0.10529501 -0.086270355 0.10255223
-0.048402216 0.06571818 0.012969994 0.06713511 -0.115444176 0.108251154 0.038557466 -0.049836352
-0.01918084 0.11346297 0.022694891 -0.035030846 -0.008374497 0.05841189 0.110528 0.17208225
0.13947812 0.13344036 -0.028894076 0.14129144 0.029196663 0.15144026 0.036881436 0.104670465
00000000: 03c8 0bbe 4784 5abe 737b 09be 9547 4a3e
00000010: 8285 b23e 97e0 643d 93b6 ccbb 43f3 b23b
00000020: 1691 3f3e 47ad 78bc fd4f 803d 0014 cdbd
00000030: 5561 8cbd 7185 e8bd a875 823c b51f 6bbd
00000040: e762 4b3c 8fba fdbc c230 a739 0d57 d83b
00000050: 69f9 d03d d4ee 823d 19de e0bc 8724 25bb
00000060: a1cc 483e 5ed5 2f3e 6b08 26be 3876 fcbd
00000070: e3e6 0c3d b0cb 453d 4e13 383d bf60 183d
00000080: 2ec7 d53d d4af 033c 9127 cebd 6153 ac3d
00000090: 5b77 f93c 101d b03d fc75 5fbc db6b 9f3e
000000a0: 4bf1 11be 16cc e53d de8c f2bd 1338 cebd
000000b0: 748a 21bd 52e5 d93d becd 13be d227 b6bc
000000c0: c092 12be 2be3 cd3d e2d5 debd d6c1 83bc
000000d0: 10aa d5bd 8cfd 99bd 3b59 30be cffa e7bd
000000e0: 5d09 04be bceb 823d e474 9abc f154 afbd
000000f0: ea55 363d f94f a43c e87a a33c f0a7 dbbc
00000100: 9e9f a3bd 5b63 03be 3c21 9dbd 589c a2bd
00000110: ed5f 3a3d b09d b03d d1e8 f23d e744 573d
00000120: d480 3e3e 899a a1bd e17f 0fbe def4 11bd
00000130: b59f f1bc d464 c23d c0ca b2bd e664 80bd
00000140: 9abc ec3d c4d4 cebd e90a 03be 81ef f33d
00000150: 7b2f 073d 1f2c 0b3e 131e 433e 108f 813e
00000160: 74ab 3cbe d329 a1bd 5cd3 5fbe 61fb 6dbe
00000170: 7d48 4bbc bec8 e2bd 1c1e 7ebc cd0f a73d
00000180: fcd3 69bb 0b61 72bb 2810 3ebb 8de0 18bb
00000190: b9ff 4f3c 36cc d3bb fb33 863b fcb3 563e
000001a0: b894 17be 81e5 e53d 45ab 40be 1ee1 40be
000001b0: 2444 03bd 53fe a3bc 1ad7 e1bc 2f2a 0fbb
000001c0: 6dca 75bd 654c 8dbc ce42 fcbd 9794 c1bc
000001d0: f129 1fbd 8c01 5e3e ffed 533c 6c61 44bd
000001e0: 2b55 3d3d 67c6 ab3d 7017 a13d e420 f73d
000001f0: d473 30be e601 0abe f025 f9bd fad3 3cbe
00000200: 0b5b fe3b f589 fcbc cf3b 213d 1471 8cbc
00000210: 4cff 3d3e 8c7c 17be f2f4 05be a8d3 b0bc
00000220: c55d 2ebd c7c0 1ebe 0927 2ebe 7b5a 583d
00000230: fb92 1c3e a91c 1fbe 7092 30be ccdd 14be
00000240: 9f54 a93d 40d9 bf3d 6563 043e 5644 8e3e
00000250: 5615 61bd ce90 13be d65c b1bd 9d36 083e
00000260: c4f7 923d f581 183d ec71 653d 6b34 2c3d
00000270: e010 46be 4d50 26be e097 29be 0f57 2cbe
00000280: dd6a a2bb bde4 0cbd 19a3 913d 85c4 a33c
00000290: 1778 95bd a7a4 e43c 5846 123e 0991 c6bd
000002a0: 53a9 723d 9747 76bd d3c2 0c3e f8c6 353e
000002b0: 927f c9bd 5c65 dabd c6b4 5fbd f1ce 03be
000002c0: a6a7 5dbd 04ac cc3d 1d5e a53d 5979 20be
000002d0: 8157 0dbe 172a d2bc 54dd 112b 8b26 13be
000002e0: e511 29bc 2723 f7bc 094d 0bbb 1ca8 793c
000002f0: d0a5 a5bd 01cf b6bd 6c87 c9bd f472 fd3d
00000300: 068d 983d 0359 663d 6946 993d 5512 84bd
00000310: 2eb6 653d d155 fc3c 29d5 283d 5113 39bd
00000320: bd02 aa3c 5e78 e83d cd66 893e 1016 1c3e
00000330: 900c 38bd 214a 3b3d 29fa c7bd 9487 b43d
00000340: 74a1 083c 1732 2abc e5a9 9c3d 134e 3f3e
00000350: df34 81bd b583 4abd 42dd 66bd 2808 b0bd
00000360: d5a1 c0bd b352 2fbd 0772 293d 3eda 6f3d
00000370: b1d9 42bd d98d e63d 8729 2ebd cf61 3cbd
00000380: 87cf 913b 4115 d53b f1c3 9ebd e33d 5abd
00000390: fff5 efbd e9a4 d7bd 83ae b0bd e706 d23d
000003a0: 6741 46bd 4197 863d 1980 543c 227e 893d
000003b0: ff6d ecbd c8b2 dd3d 6fee 1d3d 3421 4cbd
000003c0: 2321 9dbc 465f e83d a3ea b93c 817c 0fbd
000003d0: 3035 09bc 4e41 6f3d 815c e23d 5436 303e
000003e0: 5ad3 0e3e 97a4 083e 45b3 ecbc b4ae 103e
000003f0: d72d ef3c 2813 1b3e fd10 173d 785d d63d

tcn.network.0.net.0.bias f4 [10]
-0.30843872 -0.34846815 0.27119154 0.103904 0.49473855 -0.13650398 -0.41808155 0.2944755
0.1405786 -0.5447442
00000000: aeeb 9dbe 6b6a b2be 9ed9 8a3e 9fcb d43d
00000010: 5f4e fd3e b3c7 0bbe c90e d6be 7ec5 963e
00000020: d6f3 0f3e 5b74 0bbf

tcn.network.0.net.0.weight_g f4 [10, 1, 1]
0.42100844 0.28719148 0.49492276 0.4179407 0.47062284 0.54893845 0.5469244 0.54245037
0.49640578 0.36894083
00000000: 6b8e d73e c30a 933e 8466 fd3e 53fc d53e
00000010: 7af5 f03e 3b87 0c3f 3d03 0c3f 07de 0a3f
00000020: e628 fe3e d0e5 bc3e

tcn.network.0.net.0.weight_v f4 [10, 1, 4]
-0.26327437 0.06553893 0.25958386 0.11315331 0.029411132 -0.36960775 -0.013575336 0.14892274
-0.28767073 0.124444224 -0.09502995 0.2987496 -0.026303869 0.27814528 0.12979467 -0.39318055
0.02349162 -0.09948105 -0.42967877 -0.10223814 0.08282352 -0.13439846 -0.027298992 -0.60300696
-0.4315299 0.22608328 0.3130901 0.16477843 -0.038033072 -0.13195762 -0.22340153 0.28325018
0.24259073 -0.31296915 0.129473 0.0726347 0.054334454 0.013782203 -0.042406335 -0.47681436
00000000: e6cb 86be 4639 863d 2de8 843e ecbc e73d
00000010: 9def f03c 3a3d bdbe 166b 5ebc 347f 183e
00000020: 9449 93be 9ddc fe3d 109f c2bd b5f5 983e
00000030: 367b d7bc 0f69 8e3e e5e8 043e f64e c9be
00000040: 7f71 c03c b9bc cbbd dbfe dbbe 3b62 d1bd
00000050: 619f a93d c09f 09be 23a2 dfbc aa5e 1abf
00000060: 7df1 dcbe 6082 673e 584d a03e adbb 283e
00000070: 91c8 1bbd e61f 07be 5fc3 64be 2b06 913e
00000080: b469 783e 7e3d a0be 9294 043e 80c1 943d
00000090: ce8d 5e3d c0ce 613c 44b2 2dbd 0321 f4be

tcn.network.0.net.4.bias f4 [10]
0.039282735 -0.061490823 -0.24192324 -0.08198382 -0.009909396 -0.028156225 0.059388485 -0.0763359
-0.098341286 0.027222762
00000000: efe6 203d cddd 7bbd baba 77be 22e7 a7bd
00000010: 055b 22bc e2a7 e6bc 5741 733d ff55 9cbd
00000020: 2867 c9bd 4502 df3c

tcn.network.0.net.4.weight_g f4 [10, 1, 1]
0.5195051 0.5140541 0.50131416 0.6078576 0.5394193 0.5214028 0.60007644 0.5417424
0.48125795 0.5870832
00000000: 49fe 043f 0d99 033f 2056 003f 8e9c 1b3f
00000010: 6217 0a3f a77a 053f 9c9e 193f a1af 0a3f
00000020: 7167 f63e 164b 163f

tcn.network.0.net.4.weight_v f4 [10, 10, 4]
-0.13650517 -0.21339522 -0.13425998 0.19753869 0.34867483 0.055878248 -0.0062473505 0.005461128
0.1870769 -0.015178031 0.062652566 -0.1001358 -0.06854502 -0.11353577 0.015925243 -0.057403285
0.012413717 -0.030972747 0.0003188905 0.006602174 0.10203821 0.06393209 -0.027449654 -0.0025198774
0.1960931 0.17171237 -0.16214149 -0.12327236 0.03439988 0.048289955 0.044940285 0.03720164
0.10438381 0.008037526 -0.100661404 0.08414341 0.030452421 0.08599293 -0.0136389695 0.31136975
-0.14252202 0.11220567 -0.118432745 -0.10069289 -0.03943868 0.106394425 -0.14433953 -0.022235785
-0.14313793 0.100530945 -0.10880639 -0.01608364 -0.104328275 -0.07519063 -0.17221539 -0.11327135
-0.12894197 0.06392619 -0.018854566 -0.08561123 0.044515528 0.020057665 0.019956067 -0.026813477
-0.07989429 -0.1283087 -0.076723546 -0.079399765 0.04550164 0.086238265 0.118608125 0.052555945
0.18603832 -0.07890803 -0.14013626 -0.035633914 -0.0294951 0.09491888 -0.08730078 -0.06269245
0.115594104 -0.100991756 -0.1279713 0.11910916 0.033004265 0.1359105 0.19054441 0.2530446
-0.18424779 -0.078693055 -0.21857971 -0.23240425 -0.012407419 -0.11073445 -0.015510108 0.08157311
-0.003567933 -0.0036984112 -0.002900133 -0.0023327202 0.012695246 -0.006463553 0.004095552 0.20967096
-0.14802825 0.11225415 -0.18815334 -0.18835875 -0.032047406 -0.020018732 -0.027568389 -0.0021845212
-0.0600075 -0.017248342 -0.123174295 -0.023630423 -0.038858358 0.21680278 0.012935161 -0.04794447
0.0462238 0.083874516 0.078657985 0.1206682 -0.17231685 -0.13477287 -0.12165439 -0.18440238
0.007762318 -0.030827502 0.03936368 -0.017143764 0.1855442 -0.14793605 -0.1308172 -0.0215853
-0.042569894 -0.15503226 -0.17007078 0.052820664 0.15290444 -0.15538277 -0.17243361 -0.14537734
0.08268093 0.09367609 0.12928541 0.2778651 -0.05495199 -0.14410707 -0.08660285 0.13302083
0.07176164 0.03723331 0.056016847 0.042042177 -0.19342375 -0.1624157 -0.16561842 -0.16830085
-0.0049565868 -0.03439783 0.071111865 0.019991169 -0.07298296 0.027910544 0.14284647 -0.09695632
0.05924351 -0.060126867 0.13746195 0.17751682 -0.09838785 -0.10663864 -0.05461576 -0.1287191
-0.05411496 0.09993747 0.08074591 -0.1567129 -0.13802911 -0.025654836 5.1821503e-13 -0.14370172
-0.010319208 -0.03016813 -0.0021255633 0.015237834 -0.08088267 -0.089262016 -0.09840283 0.12375441
0.07448773 0.056237232 0.07484133 -0.06448809 0.056081943 0.03080264 0.04121891 -0.045184437
0.020753259 0.11351083 0.26836243 0.15242791 -0.044933856 0.04572499 -0.09764511 0.08814922
0.008339275 -0.010387919 0.07649592 0.18682127 -0.063089125 -0.049442012 -0.05636335 -0.08595306
-0.09405867 -0.042803477 0.04136851 0.05855774 -0.047570888 0.11257524 -0.042520072 -0.045991715
0.004449788 0.006502778 -0.077522166 -0.053281676 -0.11716842 -0.10529501 -0.086270355 0.10255223
-0.048402216 0.06571818 0.012969994 0.06713511 -0.115444176 0.108251154 0.038557466 -0.049836352
-0.01918084 0.11346297 0.022694891 -0.035030846 -0.008374497 0.05841189 0.110528 0.17208225
0.13947812 0.13344036 -0.028894076 0.14129144 0.029196663 0.15144026 0.036881436 0.104670465
00000000: 03c8 0bbe 4784 5abe 737b 09be 9547 4a3e
00000010: 8285 b23e 97e0 643d 93b6 ccbb 43f3 b23b
00000020: 1691 3f3e 47ad 78bc fd4f 803d 0014 cdbd
00000030: 5561 8cbd 7185 e8bd a875 823c b51f 6bbd
00000040: e762 4b3c 8fba fdbc c230 a739 0d57 d83b
00000050: 69f9 d03d d4ee 823d 19de e0bc 8724 25bb
00000060: a1cc 483e 5ed5 2f3e 6b08 26be 3876 fcbd
00000070: e3e6 0c3d b0cb 453d 4e13 383d bf60 183d
00000080: 2ec7 d53d d4af 033c 9127 cebd 6153 ac3d
00000090: 5b77 f93c 101d b03d fc75 5fbc db6b 9f3e
000000a0: 4bf1 11be 16cc e53d de8c f2bd 1338 cebd
000000b0: 748a 21bd 52e5 d93d becd 13be d227 b6bc
000000c0: c092 12be 2be3 cd3d e2d5 debd d6c1 83bc
000000d0: 10aa d5bd 8cfd 99bd 3b59 30be cffa e7bd
000000e0: 5d09 04be bceb 823d e474 9abc f154 afbd
000000f0: ea55 363d f94f a43c e87a a33c f0a7 dbbc
00000100: 9e9f a3bd 5b63 03be 3c21 9dbd 589c a2bd
00000110: ed5f 3a3d b09d b03d d1e8 f23d e744 573d
00000120: d480 3e3e 899a a1bd e17f 0fbe def4 11bd
00000130: b59f f1bc d464 c23d c0ca b2bd e664 80bd
00000140: 9abc ec3d c4d4 cebd e90a 03be 81ef f33d
00000150: 7b2f 073d 1f2c 0b3e 131e 433e 108f 813e
00000160: 74ab 3cbe d329 a1bd 5cd3 5fbe 61fb 6dbe
00000170: 7d48 4bbc bec8 e2bd 1c1e 7ebc cd0f a73d
00000180: fcd3 69bb 0b61 72bb 2810 3ebb 8de0 18bb
00000190: b9ff 4f3c 36cc d3bb fb33 863b fcb3 563e
000001a0: b894 17be 81e5 e53d 45ab 40be 1ee1 40be
000001b0: 2444 03bd 53fe a3bc 1ad7 e1bc 2f2a 0fbb
000001c0: 6dca 75bd 654c 8dbc ce42 fcbd 9794 c1bc
000001d0: f129 1fbd 8c01 5e3e ffed 533c 6c61 44bd
000001e0: 2b55 3d3d 67c6 ab3d 7017 a13d e420 f73d
000001f0: d473 30be e601 0abe f025 f9bd fad3 3cbe
00000200: 0b5b fe3b f589 fcbc cf3b 213d 1471 8cbc
00000210: 4cff 3d3e 8c7c 17be f2f4 05be a8d3 b0bc
00000220: c55d 2ebd c7c0 1ebe 0927 2ebe 7b5a 583d
00000230: fb92 1c3e a91c 1fbe 7092 30be ccdd 14be
00000240: 9f54 a93d 40d9 bf3d 6563 043e 5644 8e3e
00000250: 5615 61bd ce90 13be d65c b1bd 9d36 083e
00000260: c4f7 923d f581 183d ec71 653d 6b34 2c3d
00000270: e010 46be 4d50 26be e097 29be 0f57 2cbe
00000280: dd6a a2bb bde4 0cbd 19a3 913d 85c4 a33c
00000290: 1778 95bd a7a4 e43c 5846 123e 0991 c6bd
000002a0: 53a9 723d 9747 76bd d3c2 0c3e f8c6 353e
000002b0: 927f c9bd 5c65 dabd c6b4 5fbd f1ce 03be
000002c0: a6a7 5dbd 04ac cc3d 1d5e a53d 5979 20be
000002d0: 8157 0dbe 172a d2bc 54dd 112b 8b26 13be
000002e0: e511 29bc 2723 f7bc 094d 0bbb 1ca8 793c
000002f0: d0a5 a5bd 01cf b6bd 6c87 c9bd f472 fd3d
00000300: 068d 983d 0359 663d 6946 993d 5512 84bd
00000310: 2eb6 653d d155 fc3c 29d5 283d 5113 39bd
00000320: bd02 aa3c 5e78 e83d cd66 893e 1016 1c3e
00000330: 900c 38bd 214a 3b3d 29fa c7bd 9487 b43d
00000340: 74a1 083c 1732 2abc e5a9 9c3d 134e 3f3e
00000350: df34 81bd b583 4abd 42dd 66bd 2808 b0bd
00000360: d5a1 c0bd b352 2fbd 0772 293d 3eda 6f3d
00000370: b1d9 42bd d98d e63d 8729 2ebd cf61 3cbd
00000380: 87cf 913b 4115 d53b f1c3 9ebd e33d 5abd
00000390: fff5 efbd e9a4 d7bd 83ae b0bd e706 d23d
000003a0: 6741 46bd 4197 863d 1980 543c 227e 893d
000003b0: ff6d ecbd c8b2 dd3d 6fee 1d3d 3421 4cbd
000003c0: 2321 9dbc 465f e83d a3ea b93c 817c 0fbd
000003d0: 3035 09bc 4e41 6f3d 815c e23d 5436 303e
000003e0: 5ad3 0e3e 97a4 083e 45b3 ecbc b4ae 103e
000003f0: d72d ef3c 2813 1b3e fd10 173d 785d d63d

tcn.network.0.downsample.weight f4 [10, 1, 1]
-0.5024156 0.023801709 -0.33504924 0.3833077 0.12519726 0.2578805 -0.16874628 0.3001302
-0.27055052 -0.060600996
00000000: 4f9e 00bf cdfb c23c 938b abbe e840 c43e
00000010: b633 003e ea08 843e d3cb 2cbe aaaa 993e
00000020: 9985 8abe c038 78bd

tcn.network.0.downsample.bias f4 [10]
0.1313323 -0.35091588 0.52981496 -0.5777377 -0.6237137 -0.5003052 -0.7755017 0.9003943
0.8569377 -0.9735978
00000000: f97b 063e 3fab b3be f4a1 073f 9ee6 13bf
00000010: b3ab 1fbf 0014 00bf 4887 46bf 3e80 663f
00000020: 4560 5b3f b53d 79bf

tcn.network.1.conv1.bias f4 [10]
-0.2025179 0.039234575 -0.065053776 -0.086488456 -0.11203075 0.13239221 -0.07534696 0.08943291
0.18971229 -0.19245508
00000000: da60 4fbe 6fb4 203d ea3a 85bd dc20 b1bd
00000010: 6170 e5bd d391 073e 824f 9abd 9a28 b73d
00000020: f043 423e f212 45be

tcn.network.1.conv1.weight_g f4 [10, 1, 1]
0.8742972 0.9230461 0.55737996 0.58674 0.66181505 0.76810163 0.74859774 0.7955603
0.59858406 0.6140945
00000000: f1d1 5f3f c04c 6c3f 74b0 0e3f 9834 163f
00000010: b66c 293f 4fa2 443f 1aa4 3f3f d7a9 4b3f
00000020: ce3c 193f 4c35 1d3f

tcn.network.1.conv1.weight_v f4 [10, 10, 4]
0.17089775 0.019069115 0.1535961 -0.09880039 -2.1958163e-06 -3.1299892e-06 -1.1505818e-05 -3.7818277e-06
-0.0019165294 -0.06299341 0.11366583 -0.0860555 0.030165562 0.028276553 0.016482133 -0.24139267
-0.016519582 0.012993791 0.08384131 0.22499633 -0.014337006 -0.0048454637 0.021946289 0.08811965
0.10778671 -0.005822544 -0.0336648 -0.05078701 -0.05702241 -0.0012138926 0.12209525 0.055545196
0.04232383 0.049415957 0.03548154 -0.19251333 0.017134681 0.0013143152 0.030207355 0.042584978
0.015999123 -0.03564556 0.03235105 -0.111781456 -3.2858918e-06 -5.705231e-06 -6.4076653e-06 -2.2636243e-06
0.12642962 0.12562719 0.04627873 -0.13693595 0.03118111 -0.11465395 0.24848028 0.023522194
0.017882537 0.05391812 0.10341503 0.11485665 0.026688553 -0.022552116 0.12486337 0.04617942
0.01713445 -0.038640253 0.03779932 -0.06278895 -0.1098146 -0.058741543 0.134518 -0.14245486
0.11348044 0.07403404 -0.06639824 -0.03563577 -1.2062807e-05 -0.000563873 0.034480568 0.0018164873
0.031238792 0.05199804 -0.012159652 -0.11452894 0.0014408305 0.01238896 -0.00074806705 -0.061417904
0.10535881 0.043045886 -0.028937735 0.046633888 0.095516436 -0.00022802116 -0.03410358 0.014859893
0.013959429 0.0006982956 0.0012334053 -0.03922728 0.07987886 0.0049478402 -0.021425338 -0.0051283627
-0.0072743553 0.13442297 -0.08180317 0.026829645 -0.0019180299 -0.043702107 -0.086563446 -0.008833478
0.0719237 0.08420729 -0.104041 0.17160265 0.044212922 0.07244128 0.067962304 0.10191734
-0.10054034 -0.096914284 0.03221608 0.062024433 2.0626802e-08 6.9265664e-09 5.6957565e-06 1.30691415e-05
-0.00027921854 -0.04960559 0.054468617 0.015831172 0.03457354 0.059354555 -0.05022488 -0.030410018
0.020893112 0.009461757 -0.023409404 -0.10397303 0.03422164 0.03484567 0.0177884 -0.060236506
-0.03878483 -0.07729117 0.090195216 0.018699484 0.10141782 0.07754863 -0.10640802 -0.058892455
0.032786325 -0.05036456 0.06492228 0.10943568 0.043727435 0.045001313 0.12969936 0.14809445
-0.0030860032 0.036264755 0.048055634 0.09656507 -0.04360457 -7.135429e-22 -5.9070983e-27 -0.026675161
-0.11786269 -0.04753714 -0.027760232 0.08860708 0.14432544 0.07618022 0.023079114 -0.10908018
0.004903587 0.077646315 0.016245093 0.11307613 0.02257766 0.043281816 0.026811535 -0.02439731
0.010821471 -0.0014993835 -0.02051002 0.06745354 0.10548161 0.09004424 0.08301171 -0.0045149084
-0.09477015 -0.059195895 -0.06615872 -0.023061652 -0.0029040347 -0.041276336 -0.04901304 -0.0043178494
0.011806501 0.0033326563 0.038506065 0.09953049 0.0058980444 9.9749604e-17 -2.6259548e-12 2.3090074e-06
-0.05241523 -0.18296494 0.047282282 -0.0057662823 0.11072305 0.0030197669 0.0014092147 -0.06361942
-0.0047928332 -0.0034640483 -0.046791248 -0.043716308 0.04016391 -0.08308016 -0.06826962 0.017369004
0.028544098 0.03161367 -0.022362223 0.105829656 0.22719762 0.013399541 -0.0051807314 -0.11863138
-0.044769295 -0.14289962 -0.07496598 0.1171393 0.0039016318 0.007359135 0.03096099 0.086961746
0.108543985 0.07509886 -0.02249819 -0.008542953 -2.3971115e-06 -0.05402688 0.017383162 -1.2030697e-06
0.16843851 0.10034715 0.064365156 0.06864536 -0.06753499 -0.017740892 0.07007747 0.09316987
00000000: d2ff 2e3e d536 9c3c 4c48 1d3e dc57 cabd
00000010: d65b 13b6 ce0c 52b6 1d09 41b7 4ecb 7db6
00000020: 0e34 fbba b002 81bd a1c9 e83d de3d b0bd
00000030: c51d f73c 3ba4 e73c 8a05 873c a42f 77be
00000040: 1354 87bc e9e3 543c feb4 ab3d 7065 663e
00000050: c3e5 6abc b2c6 9ebb b4c8 b33c 1378 b43d
00000060: 47bf dc3d 0acb bebb 1ae4 09bd 0a06 50bd
00000070: 5590 69bd 7a1b 9fba 130d fa3d 5c83 633d
00000080: c15b 2d3d 6368 4a3d 1755 113d 3722 45be
00000090: 085e 8c3c 1a45 ac3a 6a75 f73c 966d 2e3d
000000a0: 9810 833c 1401 12bd 8982 043d aded e4bd
000000b0: 3183 5cb6 906f bfb6 6d01 d7b6 c5e8 17b6
000000c0: c476 013e 6aa4 003e c48e 3d3d f038 0cbe
000000d0: 876f ff3c b1cf eabd 9d71 7e3e 9eb1 c03c
000000e0: 667e 923c 3fd9 5c3d 42cb d33d f739 eb3d
000000f0: f4a1 da3c 37bf b8bc 5eb8 ff3d a226 3d3d
00000100: 8c5d 8c3c 3e45 1ebd 76d3 1a3d 7e97 80bd
00000110: 7ae6 e0bd f99a 70bd 16bf 093e b0df 11be
00000120: 6f68 e83d 299f 973d cdfb 87bd d0f6 11bd
00000130: 5d61 4ab7 e0d0 13ba 7f3b 0d3d 3317 ee3a
00000140: 7fe8 ff3c e6fb 543d 4739 47bc 268e eabd
00000150: 40da bc3a 11fb 4a3c ee19 44ba 5791 7bbd
00000160: 5cc6 d73d e250 303d d40e edbc 2d03 3f3d
00000170: 1f9e c33d f718 6fb9 32b0 0bbd e976 733c
00000180: 17b6 643c d30d 373a 37aa a13a c9ac 20bd
00000190: 8797 a33d 7e21 a23b 3184 afbc d30b a8bb
000001a0: b75d eebb 2da6 093e 6c88 a7bd d8c9 db3c
000001b0: 6766 fbba fb00 33bd 2d48 b1bd 4bba 10bc
000001c0: bc4c 933d df74 ac3d 7313 d5bd 9bb8 2f3e
000001d0: 9c18 353d 185c 943d d22f 8b3d 0aba d03d
000001e0: 18e8 cdbd ff7a c6bd 02f5 033d 550d 7e3d
000001f0: d12e b132 b9fe ed31 2d1e bf36 8943 5b37
00000200: 1464 92b9 3b2f 4bbd 7c1a 5f3d 60b0 813c
00000210: fc9c 0d3d c31d 733d 9bb8 4dbd 6e1e f9bc
00000220: 0828 ab3c 7c05 1b3c 14c5 bfbc d0ef d4bd
00000230: fe2b 0c3d 55ba 0e3d fbb8 913c 8eba 76bd
00000240: d8dc 1ebd d54a 9ebd 45b8 b83d a92f 993c
00000250: 25b4 cf3d d1d1 9e3d 73ec d9bd 3739 71bd
00000260: f44a 063d 124b 4ebd f9f5 843d d01f e03d
00000270: 8a1b 333d 4c53 383d e9cf 043e 12a6 173e
00000280: 8b3e 4abb 5a8a 143d fcd5 443d e8c3 c53d
00000290: b59a 32bd b5a7 579c 1801 ea93 de85 dabc
000002a0: fe61 f1bd 4eb6 42bd 6d69 e3bc a177 b53d
000002b0: 0cca 133e 6004 9c3d 6910 bd3c 6e65 dfbd
000002c0: 45ae a03b 0805 9f3d 6e14 853c 7594 e73d
000002d0: c9f4 b83c 4648 313d dda3 db3c dedc c7bc
000002e0: 8a4c 313c f686 c4ba a104 a8bc 1525 8a3d
000002f0: be06 d83d 1d69 b83d 0b02 aa3d ccf1 93bb
00000300: da16 c2bd 6577 72bd 397e 87bd caeb bcbc
00000310: 9e51 3ebb 6011 29bd e6c1 48bd bf7c 8dbb
00000320: 0e70 413c b268 5a3b 89b8 1d3d a4d6 cb3d
00000330: 6244 c13b c601 e624 ffc8 38ac 72f4 1a36
00000340: 5ab1 56bd 295b 3bbe 11ab 413d 15f3 bcbb
00000350: c4c2 e23d 48e7 453b 66b5 b83a e64a 82bd
00000360: 330d 9dbb 1605 63bb 2ea8 3fbd df0f 33bd
00000370: e982 243d ee25 aabd f1d0 8bbd 7149 8e3c
00000380: 50d5 e93c 567d 013d fb30 b7bc 38bd d83d
00000390: 7ea6 683e c089 5b3c 20c3 a9bb 02f5 f2bd
000003a0: 0260 37bd 4754 12be c487 99bd bbe6 ef3d
000003b0: 85b2 7f3b e624 f13b e7a1 fd3c 0019 b23d
000003c0: 4f4c de3d 6ecd 993d 204e b8bc bef7 0bbc
000003d0: 10de 20b6 4a4b 5dbd 2267 8e3c 2979 a1b5
000003e0: 257b 2c3e ce82 cd3d e1d1 833d f095 8c3d
000003f0: c94f 8abd 5955 91bc c784 8f3d d8cf be3d

tcn.network.1.conv2.bias f4 [10]
-0.02581259 -0.0044602687 -0.12867086 -0.00056009524 0.13566567 0.18005477 0.012408293 -0.015619375
-0.033163875 -0.03233428
00000000: ed74 d3bc 7227 92bb 4bc2 03be 5bd3 12ba
00000010: f1eb 0a3e 4760 383e 274c 4b3c 68e8 7fbc
00000020: d8d6 07bd f370 04bd

tcn.network.1.conv2.weight_g f4 [10, 1, 1]
0.67414266 0.8053754 0.41921735 0.87050825 0.79375094 0.9203718 0.7387359 0.59111613
0.6310768 0.73859626
00000000: 9d94 2c3f 152d 4e3f a8a3 d63e a1d9 5e3f
00000010: 4333 4b3f 7c9d 6b3f cc1d 3d3f 6353 173f
00000020: 408e 213f a514 3d3f

tcn.network.1.conv2.weight_v f4 [10, 10, 4]
0.031925473 -0.01439201 0.047251746 0.32913876 0.061390407 0.047261965 0.11338333 0.39496735
-0.03226453 0.053383786 0.044712365 0.053368744 0.0704077 0.008201918 0.099652864 -0.07142855
0.19039702 0.10495017 0.0019605025 -0.103082515 0.064175785 0.047100045 -0.008707699 -0.07031393
0.04157229 0.124367766 0.053800367 0.051173758 -0.06535431 -0.06673414 -0.076465055 0.08100346
0.0033926966 -0.01857509 0.012620356 -0.024272302 0.01628223 0.060780082 -0.062256925 0.07318897
-0.005549765 0.011483266 -0.015114047 -0.00908412 -0.034159265 0.012729745 -0.037142094 -0.0050541847
-0.024952246 -0.044764984 -0.019947134 0.013192508 0.03613269 0.09172602 0.08431279 0.063617274
0.20265538 0.15368335 0.04579034 -0.0078128455 0.17541108 0.16181648 0.078327514 0.055368304
-0.049741283 -0.043254014 -0.049749173 0.019043729 0.0060330783 -0.023148863 -0.0699889 -0.05871167
-0.06773621 0.0065500466 -0.024365386 -0.0338598 0.0050004344 0.007958661 -0.0031725697 -0.009915709
-0.018052412 -0.002013483 0.070933774 0.07880344 0.113245726 -0.118488826 -0.18968356 0.059968457
0.020660758 0.019967541 0.040420678 0.035509586 -0.032245982 0.025819099 0.036401883 0.120888144
0.0045852433 0.024857486 -0.059812177 -0.107764006 0.034660313 0.018339451 0.058842022 0.0675232
0.02481422 0.0046159085 0.031284213 6.7636785e-05 -0.13546567 -0.11554285 -0.23255277 -0.15617856
0.0033596628 0.011898438 -0.003688397 0.023456471 -0.058245715 0.06324294 0.16357012 0.2982968
-0.013076134 -0.009742252 0.06077797 0.445626 -0.036098287 0.050295707 0.07080232 0.08079536
-0.04617847 -0.06983424 -0.0894378 -0.11139795 -0.030110592 -0.04561117 -0.051492386 -0.07341513
0.015555676 0.0007416683 0.025468007 -0.011355472 -0.0014559798 0.0030582345 -0.011683344 -0.012144629
0.015110914 -0.05680759 -0.11672751 -0.05207974 0.00032694382 0.00027618135 0.011556997 -0.010039688
-0.05661005 -0.11667095 -0.18445197 -0.19969487 0.057465892 0.1363297 0.11994311 0.088430636
0.058673933 0.039217904 -0.034948006 0.119635776 0.030578783 -0.05557136 -0.077071264 0.005986874
-0.029316494 -0.10966916 -0.099035926 -0.06258518 0.060833853 0.03435325 0.08263411 0.013314076
0.13565207 0.23508711 0.13688456 0.05268105 0.09232829 0.14058174 0.0901391 0.02795846
-0.0898821 -0.07320202 -0.04232274 0.01523422 0.014167354 -0.04073088 -0.019477567 -0.017934242
-0.05757639 -0.016395546 -0.11338714 -0.12808228 -0.002645485 -0.006253713 -0.028132886 -0.124006726
0.029608529 -0.008972024 -0.02578948 0.0170408 -0.00052231515 -0.0025104985 -0.020332031 0.023577984
-0.04019314 -0.068863004 -0.07264988 -0.075799264 -0.030913677 0.02078283 0.020568985 -0.018912751
0.18864614 0.22694786 0.15500507 0.108074546 0.09870827 0.1458798 0.11863882 -0.002972221
-0.060954913 -0.050550383 -0.040380035 0.022298241 0.05429762 -0.022955809 -0.03298866 0.023834493
-0.053714093 -0.020383617 -0.070165835 -0.08991735 0.004700734 0.007769733 0.0042104307 0.029668596
-0.023007449 0.055084165 0.102444865 0.1516288 0.028315818 0.08629546 0.13963427 0.15292886
0.049138285 0.0862491 0.08178141 0.009889684 0.053444725 -0.039648496 -0.046966814 -0.067653425
00000000: 49c4 023d 77cc 6bbc 0c8b 413d e084 a83e
00000010: 8274 7b3d c395 413d 8535 e83d 2939 ca3e
00000020: d027 04bd f5a8 5a3d 5024 373d 2f99 5a3d
00000030: ea31 903d 5661 063c cd16 cc3d 2249 92bd
00000040: 70f7 423e 1df0 d63d c67b 003b ed1c d3bd
00000050: 986e 833d faeb 403d bdaa 0ebc c000 90bd
00000060: b547 2a3d 87b4 fe3d c65d 5c3d 939b 513d
00000070: 7bd8 85bd e9ab 88bd b699 9cbd 24e5 a53d
00000080: 0158 5e3b ca2a 98bc 9cc5 4e3c b5d6 c6bc
00000090: 5062 853c 89f4 783d 1e01 7fbd 19e4 953d
000000a0: ceda b5bb 4f24 3c3c e8a0 77bc 90d5 14bc
000000b0: 96ea 0bbd 6c90 503c 4f22 18bd 939d a5bb
000000c0: a768 ccbc 7d5b 37bd 2c68 a3bc 6425 583c
000000d0: dfff 133d dada bb3d 2fac ac3d c649 823d
000000e0: e484 4f3e 2b5f 1d3e a78e 3b3d 7301 00bc
000000f0: f69e 333e 38b3 253e 2d6a a03d e0c9 623d
00000100: 84bd 4bbd 1f2b 31bd cac5 4bbd 9801 9c3c
00000110: 21b1 c53b afa2 bdbc 5756 8fbd a67b 70bd
00000120: 48b9 8abd c6a1 d63b eb99 c7bc 93b0 0abd
00000130: afda a33b 0b65 023c e3ea 4fbb 7f75 22bc
00000140: a7e2 93bc a4f4 03bb ba45 913d b363 a13d
00000150: 60ed e73d 45aa f2bd 683c 42be 7ca1 753d
00000160: c040 a93c f892 a33c 2790 253d 8072 113d
00000170: 5d14 04bd 9382 d33c 241a 153d 3494 f73d
00000180: cf3f 963b eda1 cb3c 9dfd 74bd 60b3 dcbd
00000190: f9f7 0d3d 9e3c 963c 5504 713d 9a49 8a3d
000001a0: 3147 cb3c 0c41 973b e023 003d 39d8 8d38
000001b0: 83b7 0abe bba1 ecbd 5022 6ebe 46ed 1fbe
000001c0: ca2d 5c3b abf1 423c 08b9 71bb c927 c03c
000001d0: 0f93 6ebd 8485 813d ed7e 273e 5cba 983e
000001e0: 483d 56bc f79d 1fbc 52f2 783d 1729 e43e
000001f0: ccdb 13bd df02 4e3d cf00 913d 0a78 a53d
00000200: a325 3dbd 4105 8fbd 2a2b b7bd 9c24 e4bd
00000210: 7daa f6bc c7d2 3abd aee9 52bd ac5a 96bd
00000220: 3cdd 7e3c 846c 423a 48a2 d03c 4d0c 3abc
00000230: 93d6 beba a96c 483b 7f6b 3fbc 44fa 46bc
00000240: c493 773c 13af 68bd d50e efbd 9151 55bd
00000250: a869 ab39 6fcc 9039 8f59 3d3c 817d 24bc
00000260: f1df 67bd 2ef1 eebd fae0 3cbe d07c 4cbe
00000270: 5b61 6b3d 039a 0b3e bca4 f53d 1f1b b53d
00000280: 1454 703d f4a2 203d a425 0fbd 9a03 f53d
00000290: 5b80 fa3c cb9e 63bd 8ad7 9dbd 8a2d c43b
000002a0: 2529 f0bc 399a e0bd 59d3 cabd a92c 80bd
000002b0: eb2c 793d feb5 0c3d 123c a93d 4823 5a3c
000002c0: 60e8 0a3e adba 703e 772b 0c3e 16c8 573d
000002d0: 9d16 bd3d a9f4 0f3e d99a b83d 2409 e53c
000002e0: 1b14 b8bd f1ea 95bd 9c5a 2dbd f398 793c
000002f0: 311e 683c 6cd5 26bd 6b8f 9fbc d5ea 92bc
00000300: 39d5 6bbd f44f 86bc 8437 e8bd 0028 03be
00000310: e05f 2dbb f2eb ccbb f076 e6bc 3df7 fdbd
00000320: 968d f23c 65ff 12bc 7644 d3bc 2699 8b3c
00000330: faeb 08ba 2d87 24bb 5c8f a6bc 9e26 c13c
00000340: 90a1 24bd 0c08 8dbd 76c9 94bd a53c 9bbd
00000350: ae3e fdbc c140 aa3c 4a80 a83c eaee 9abc
00000360: 742c 413e 0565 683e a6b9 1e3e 3056 dd3d
00000370: 9027 ca3d 8461 153e e9f8 f23d 98c9 42bb
00000380: dcab 79bd eb0d 4fbd 8965 25bd cdaa b63c
00000390: 2e67 5e3d d20d bcbc 1e1f 07bd 8e40 c33c
000003a0: 4f03 5cbd 8bfb a6bc 1bb3 8fbd 9626 b8bd
000003b0: 9d08 9a3b 3f99 fe3b a7f7 893b 8e0b f33c
000003c0: 1e7a bcbc ef9f 613d 9dce d13d 9544 1b3e
000003d0: 93f6 e73c adbb b03d 49fc 0e3e 6299 1c3e
000003e0: 3a45 493d 5ea3 b03d 037d a73d 5708 223c
000003f0: dbe8 5a3d 7666 22bd 4660 40bd e18d 8abd

tcn.network.1.net.0.bias f4 [10]
-0.2025179 0.039234575 -0.065053776 -0.086488456 -0.11203075 0.13239221 -0.07534696 0.08943291
0.18971229 -0.19245508
00000000: da60 4fbe 6fb4 203d ea3a 85bd dc20 b1bd
00000010: 6170 e5bd d391 073e 824f 9abd 9a28 b73d
00000020: f043 423e f212 45be

tcn.network.1.net.0.weight_g f4 [10, 1, 1]
0.8742972 0.9230461 0.55737996 0.58674 0.66181505 0.76810163 0.74859774 0.7955603
0.59858406 0.6140945
00000000: f1d1 5f3f c04c 6c3f 74b0 0e3f 9834 163f
00000010: b66c 293f 4fa2 443f 1aa4 3f3f d7a9 4b3f
00000020: ce3c 193f 4c35 1d3f

tcn.network.1.net.0.weight_v f4 [10, 10, 4]
0.17089775 0.019069115 0.1535961 -0.09880039 -2.1958163e-06 -3.1299892e-06 -1.1505818e-05 -3.7818277e-06
-0.0019165294 -0.06299341 0.11366583 -0.0860555 0.030165562 0.028276553 0.016482133 -0.24139267
-0.016519582 0.012993791 0.08384131 0.22499633 -0.014337006 -0.0048454637 0.021946289 0.08811965
0.10778671 -0.005822544 -0.0336648 -0.05078701 -0.05702241 -0.0012138926 0.12209525 0.055545196
0.04232383 0.049415957 0.03548154 -0.19251333 0.017134681 0.0013143152 0.030207355 0.042584978
0.015999123 -0.03564556 0.03235105 -0.111781456 -3.2858918e-06 -5.705231e-06 -6.4076653e-06 -2.2636243e-06
0.12642962 0.12562719 0.04627873 -0.13693595 0.03118111 -0.11465395 0.24848028 0.023522194
0.017882537 0.05391812 0.10341503 0.11485665 0.026688553 -0.022552116 0.12486337 0.04617942
0.01713445 -0.038640253 0.03779932 -0.06278895 -0.1098146 -0.058741543 0.134518 -0.14245486
0.11348044 0.07403404 -0.06639824 -0.03563577 -1.2062807e-05 -0.000563873 0.034480568 0.0018164873
0.031238792 0.05199804 -0.012159652 -0.11452894 0.0014408305 0.01238896 -0.00074806705 -0.061417904
0.10535881 0.043045886 -0.028937735 0.046633888 0.095516436 -0.00022802116 -0.03410358 0.014859893
0.013959429 0.0006982956 0.0012334053 -0.03922728 0.07987886 0.0049478402 -0.021425338 -0.0051283627
-0.0072743553 0.13442297 -0.08180317 0.026829645 -0.0019180299 -0.043702107 -0.086563446 -0.008833478
0.0719237 0.08420729 -0.104041 0.17160265 0.044212922 0.07244128 0.067962304 0.10191734
-0.10054034 -0.096914284 0.03221608 0.062024433 2.0626802e-08 6.9265664e-09 5.6957565e-06 1.30691415e-05
-0.00027921854 -0.04960559 0.054468617 0.015831172 0.03457354 0.059354555 -0.05022488 -0.030410018
0.020893112 0.009461757 -0.023409404 -0.10397303 0.03422164 0.03484567 0.0177884 -0.060236506
-0.03878483 -0.07729117 0.090195216 0.018699484 0.10141782 0.07754863 -0.10640802 -0.058892455
0.032786325 -0.05036456 0.06492228 0.10943568 0.043727435 0.045001313 0.12969936 0.14809445
-0.0030860032 0.036264755 0.048055634 0.09656507 -0.04360457 -7.135429e-22 -5.9070983e-27 -0.026675161
-0.11786269 -0.04753714 -0.027760232 0.08860708 0.14432544 0.07618022 0.023079114 -0.10908018
0.004903587 0.077646315 0.016245093 0.11307613 0.02257766 0.043281816 0.026811535 -0.02439731
0.010821471 -0.0014993835 -0.02051002 0.06745354 0.10548161 0.09004424 0.08301171 -0.0045149084
-0.09477015 -0.059195895 -0.06615872 -0.023061652 -0.0029040347 -0.041276336 -0.04901304 -0.0043178494
0.011806501 0.0033326563 0.038506065 0.09953049 0.0058980444 9.9749604e-17 -2.6259548e-12 2.3090074e-06
-0.05241523 -0.18296494 0.047282282 -0.0057662823 0.11072305 0.0030197669 0.0014092147 -0.06361942
-0.0047928332 -0.0034640483 -0.046791248 -0.043716308 0.04016391 -0.08308016 -0.06826962 0.017369004
0.028544098 0.03161367 -0.022362223 0.105829656 0.22719762 0.013399541 -0.0051807314 -0.11863138
-0.044769295 -0.14289962 -0.07496598 0.1171393 0.0039016318 0.007359135 0.03096099 0.086961746
0.108543985 0.07509886 -0.02249819 -0.008542953 -2.3971115e-06 -0.05402688 0.017383162 -1.2030697e-06
0.16843851 0.10034715 0.064365156 0.06864536 -0.06753499 -0.017740892 0.07007747 0.09316987
00000000: d2ff 2e3e d536 9c3c 4c48 1d3e dc57 cabd
00000010: d65b 13b6 ce0c 52b6 1d09 41b7 4ecb 7db6
00000020: 0e34 fbba b002 81bd a1c9 e83d de3d b0bd
00000030: c51d f73c 3ba4 e73c 8a05 873c a42f 77be
00000040: 1354 87bc e9e3 543c feb4 ab3d 7065 663e
00000050: c3e5 6abc b2c6 9ebb b4c8 b33c 1378 b43d
00000060: 47bf dc3d 0acb bebb 1ae4 09bd 0a06 50bd
00000070: 5590 69bd 7a1b 9fba 130d fa3d 5c83 633d
00000080: c15b 2d3d 6368 4a3d 1755 113d 3722 45be
00000090: 085e 8c3c 1a45 ac3a 6a75 f73c 966d 2e3d
000000a0: 9810 833c 1401 12bd 8982 043d aded e4bd
000000b0: 3183 5cb6 906f bfb6 6d01 d7b6 c5e8 17b6
000000c0: c476 013e 6aa4 003e c48e 3d3d f038 0cbe
000000d0: 876f ff3c b1cf eabd 9d71 7e3e 9eb1 c03c
000000e0: 667e 923c 3fd9 5c3d 42cb d33d f739 eb3d
000000f0: f4a1 da3c 37bf b8bc 5eb8 ff3d a226 3d3d
00000100: 8c5d 8c3c 3e45 1ebd 76d3 1a3d 7e97 80bd
00000110: 7ae6 e0bd f99a 70bd 16bf 093e b0df 11be
00000120: 6f68 e83d 299f 973d cdfb 87bd d0f6 11bd
00000130: 5d61 4ab7 e0d0 13ba 7f3b 0d3d 3317 ee3a
00000140: 7fe8 ff3c e6fb 543d 4739 47bc 268e eabd
00000150: 40da bc3a 11fb 4a3c ee19 44ba 5791 7bbd
00000160: 5cc6 d73d e250 303d d40e edbc 2d03 3f3d
00000170: 1f9e c33d f718 6fb9 32b0 0bbd e976 733c
00000180: 17b6 643c d30d 373a 37aa a13a c9ac 20bd
00000190: 8797 a33d 7e21 a23b 3184 afbc d30b a8bb
000001a0: b75d eebb 2da6 093e 6c88 a7bd d8c9 db3c
000001b0: 6766 fbba fb00 33bd 2d48 b1bd 4bba 10bc
000001c0: bc4c 933d df74 ac3d 7313 d5bd 9bb8 2f3e
000001d0: 9c18 353d 185c 943d d22f 8b3d 0aba d03d
000001e0: 18e8 cdbd ff7a c6bd 02f5 033d 550d 7e3d
000001f0: d12e b132 b9fe ed31 2d1e bf36 8943 5b37
00000200: 1464 92b9 3b2f 4bbd 7c1a 5f3d 60b0 813c
00000210: fc9c 0d3d c31d 733d 9bb8 4dbd 6e1e f9bc
00000220: 0828 ab3c 7c05 1b3c 14c5 bfbc d0ef d4bd
00000230: fe2b 0c3d 55ba 0e3d fbb8 913c 8eba 76bd
00000240: d8dc 1ebd d54a 9ebd 45b8 b83d a92f 993c
00000250: 25b4 cf3d d1d1 9e3d 73ec d9bd 3739 71bd
00000260: f44a 063d 124b 4ebd f9f5 843d d01f e03d
00000270: 8a1b 333d 4c53 383d e9cf 043e 12a6 173e
00000280: 8b3e 4abb 5a8a 143d fcd5 443d e8c3 c53d
00000290: b59a 32bd b5a7 579c 1801 ea93 de85 dabc
000002a0: fe61 f1bd 4eb6 42bd 6d69 e3bc a177 b53d
000002b0: 0cca 133e 6004 9c3d 6910 bd3c 6e65 dfbd
000002c0: 45ae a03b 0805 9f3d 6e14 853c 7594 e73d
000002d0: c9f4 b83c 4648 313d dda3 db3c dedc c7bc
000002e0: 8a4c 313c f686 c4ba a104 a8bc 1525 8a3d
000002f0: be06 d83d 1d69 b83d 0b02 aa3d ccf1 93bb
00000300: da16 c2bd 6577 72bd 397e 87bd caeb bcbc
00000310: 9e51 3ebb 6011 29bd e6c1 48bd bf7c 8dbb
00000320: 0e70 413c b268 5a3b 89b8 1d3d a4d6 cb3d
00000330: 6244 c13b c601 e624 ffc8 38ac 72f4 1a36
00000340: 5ab1 56bd 295b 3bbe 11ab 413d 15f3 bcbb
00000350: c4c2 e23d 48e7 453b 66b5 b83a e64a 82bd
00000360: 330d 9dbb 1605 63bb 2ea8 3fbd df0f 33bd
00000370: e982 243d ee25 aabd f1d0 8bbd 7149 8e3c
00000380: 50d5 e93c 567d 013d fb30 b7bc 38bd d83d
00000390: 7ea6 683e c089 5b3c 20c3 a9bb 02f5 f2bd
000003a0: 0260 37bd 4754 12be c487 99bd bbe6 ef3d
000003b0: 85b2 7f3b e624 f13b e7a1 fd3c 0019 b23d
000003c0: 4f4c de3d 6ecd 993d 204e b8bc bef7 0bbc
000003d0: 10de 20b6 4a4b 5dbd 2267 8e3c 2979 a1b5
000003e0: 257b 2c3e ce82 cd3d e1d1 833d f095 8c3d
000003f0: c94f 8abd 5955 91bc c784 8f3d d8cf be3d

tcn.network.1.net.4.bias f4 [10]
-0.02581259 -0.0044602687 -0.12867086 -0.00056009524 0.13566567 0.18005477 0.012408293 -0.015619375
-0.033163875 -0.03233428
00000000: ed74 d3bc 7227 92bb 4bc2 03be 5bd3 12ba
00000010: f1eb 0a3e 4760 383e 274c 4b3c 68e8 7fbc
00000020: d8d6 07bd f370 04bd

tcn.network.1.net.4.weight_g f4 [10, 1, 1]
0.67414266 0.8053754 0.41921735 0.87050825 0.79375094 0.9203718 0.7387359 0.59111613
0.6310768 0.73859626
00000000: 9d94 2c3f 152d 4e3f a8a3 d63e a1d9 5e3f
00000010: 4333 4b3f 7c9d 6b3f cc1d 3d3f 6353 173f
00000020: 408e 213f a514 3d3f

tcn.network.1.net.4.weight_v f4 [10, 10, 4]
0.031925473 -0.01439201 0.047251746 0.32913876 0.061390407 0.047261965 0.11338333 0.39496735
-0.03226453 0.053383786 0.044712365 0.053368744 0.0704077 0.008201918 0.099652864 -0.07142855
0.19039702 0.10495017 0.0019605025 -0.103082515 0.064175785 0.047100045 -0.008707699 -0.07031393
0.04157229 0.124367766 0.053800367 0.051173758 -0.06535431 -0.06673414 -0.076465055 0.08100346
0.0033926966 -0.01857509 0.012620356 -0.024272302 0.01628223 0.060780082 -0.062256925 0.07318897
-0.005549765 0.011483266 -0.015114047 -0.00908412 -0.034159265 0.012729745 -0.037142094 -0.0050541847
-0.024952246 -0.044764984 -0.019947134 0.013192508 0.03613269 0.09172602 0.08431279 0.063617274
0.20265538 0.15368335 0.04579034 -0.0078128455 0.17541108 0.16181648 0.078327514 0.055368304
-0.049741283 -0.043254014 -0.049749173 0.019043729 0.0060330783 -0.023148863 -0.0699889 -0.05871167
-0.06773621 0.0065500466 -0.024365386 -0.0338598 0.0050004344 0.007958661 -0.0031725697 -0.009915709
-0.018052412 -0.002013483 0.070933774 0.07880344 0.113245726 -0.118488826 -0.18968356 0.059968457
0.020660758 0.019967541 0.040420678 0.035509586 -0.032245982 0.025819099 0.036401883 0.120888144
0.0045852433 0.024857486 -0.059812177 -0.107764006 0.034660313 0.018339451 0.058842022 0.0675232
0.02481422 0.0046159085 0.031284213 6.7636785e-05 -0.13546567 -0.11554285 -0.23255277 -0.15617856
0.0033596628 0.011898438 -0.003688397 0.023456471 -0.058245715 0.06324294 0.16357012 0.2982968
-0.013076134 -0.009742252 0.06077797 0.445626 -0.036098287 0.050295707 0.07080232 0.08079536
-0.04617847 -0.06983424 -0.0894378 -0.11139795 -0.030110592 -0.04561117 -0.051492386 -0.07341513
0.015555676 0.0007416683 0.025468007 -0.011355472 -0.0014559798 0.0030582345 -0.011683344 -0.012144629
0.015110914 -0.05680759 -0.11672751 -0.05207974 0.00032694382 0.00027618135 0.011556997 -0.010039688
-0.05661005 -0.11667095 -0.18445197 -0.19969487 0.057465892 0.1363297 0.11994311 0.088430636
0.058673933 0.039217904 -0.034948006 0.119635776 0.030578783 -0.05557136 -0.077071264 0.005986874
-0.029316494 -0.10966916 -0.099035926 -0.06258518 0.060833853 0.03435325 0.08263411 0.013314076
0.13565207 0.23508711 0.13688456 0.05268105 0.09232829 0.14058174 0.0901391 0.02795846
-0.0898821 -0.07320202 -0.04232274 0.01523422 0.014167354 -0.04073088 -0.019477567 -0.017934242
-0.05757639 -0.016395546 -0.11338714 -0.12808228 -0.002645485 -0.006253713 -0.028132886 -0.124006726
0.029608529 -0.008972024 -0.02578948 0.0170408 -0.00052231515 -0.0025104985 -0.020332031 0.023577984
-0.04019314 -0.068863004 -0.07264988 -0.075799264 -0.030913677 0.02078283 0.020568985 -0.018912751
0.18864614 0.22694786 0.15500507 0.108074546 0.09870827 0.1458798 0.11863882 -0.002972221
-0.060954913 -0.050550383 -0.040380035 0.022298241 0.05429762 -0.022955809 -0.03298866 0.023834493
-0.053714093 -0.020383617 -0.070165835 -0.08991735 0.004700734 0.007769733 0.0042104307 0.029668596
-0.023007449 0.055084165 0.102444865 0.1516288 0.028315818 0.08629546 0.13963427 0.15292886
0.049138285 0.0862491 0.08178141 0.009889684 0.053444725 -0.039648496 -0.046966814 -0.067653425
00000000: 49c4 023d 77cc 6bbc 0c8b 413d e084 a83e
00000010: 8274 7b3d c395 413d 8535 e83d 2939 ca3e
00000020: d027 04bd f5a8 5a3d 5024 373d 2f99 5a3d
00000030: ea31 903d 5661 063c cd16 cc3d 2249 92bd
00000040: 70f7 423e 1df0 d63d c67b 003b ed1c d3bd
00000050: 986e 833d faeb 403d bdaa 0ebc c000 90bd
00000060: b547 2a3d 87b4 fe3d c65d 5c3d 939b 513d
00000070: 7bd8 85bd e9ab 88bd b699 9cbd 24e5 a53d
00000080: 0158 5e3b ca2a 98bc 9cc5 4e3c b5d6 c6bc
00000090: 5062 853c 89f4 783d 1e01 7fbd 19e4 953d
000000a0: ceda b5bb 4f24 3c3c e8a0 77bc 90d5 14bc
000000b0: 96ea 0bbd 6c90 503c 4f22 18bd 939d a5bb
000000c0: a768 ccbc 7d5b 37bd 2c68 a3bc 6425 583c
000000d0: dfff 133d dada bb3d 2fac ac3d c649 823d
000000e0: e484 4f3e 2b5f 1d3e a78e 3b3d 7301 00bc
000000f0: f69e 333e 38b3 253e 2d6a a03d e0c9 623d
00000100: 84bd 4bbd 1f2b 31bd cac5 4bbd 9801 9c3c
00000110: 21b1 c53b afa2 bdbc 5756 8fbd a67b 70bd
00000120: 48b9 8abd c6a1 d63b eb99 c7bc 93b0 0abd
00000130: afda a33b 0b65 023c e3ea 4fbb 7f75 22bc
00000140: a7e2 93bc a4f4 03bb ba45 913d b363 a13d
00000150: 60ed e73d 45aa f2bd 683c 42be 7ca1 753d
00000160: c040 a93c f892 a33c 2790 253d 8072 113d
00000170: 5d14 04bd 9382 d33c 241a 153d 3494 f73d
00000180: cf3f 963b eda1 cb3c 9dfd 74bd 60b3 dcbd
00000190: f9f7 0d3d 9e3c 963c 5504 713d 9a49 8a3d
000001a0: 3147 cb3c 0c41 973b e023 003d 39d8 8d38
000001b0: 83b7 0abe bba1 ecbd 5022 6ebe 46ed 1fbe
000001c0: ca2d 5c3b abf1 423c 08b9 71bb c927 c03c
000001d0: 0f93 6ebd 8485 813d ed7e 273e 5cba 983e
000001e0: 483d 56bc f79d 1fbc 52f2 783d 1729 e43e
000001f0: ccdb 13bd df02 4e3d cf00 913d 0a78 a53d
00000200: a325 3dbd 4105 8fbd 2a2b b7bd 9c24 e4bd
00000210: 7daa f6bc c7d2 3abd aee9 52bd ac5a 96bd
00000220: 3cdd 7e3c 846c 423a 48a2 d03c 4d0c 3abc
00000230: 93d6 beba a96c 483b 7f6b 3fbc 44fa 46bc
00000240: c493 773c 13af 68bd d50e efbd 9151 55bd
00000250: a869 ab39 6fcc 9039 8f59 3d3c 817d 24bc
00000260: f1df 67bd 2ef1 eebd fae0 3cbe d07c 4cbe
00000270: 5b61 6b3d 039a 0b3e bca4 f53d 1f1b b53d
00000280: 1454 703d f4a2 203d a425 0fbd 9a03 f53d
00000290: 5b80 fa3c cb9e 63bd 8ad7 9dbd 8a2d c43b
000002a0: 2529 f0bc 399a e0bd 59d3 cabd a92c 80bd
000002b0: eb2c 793d feb5 0c3d 123c a93d 4823 5a3c
000002c0: 60e8 0a3e adba 703e 772b 0c3e 16c8 573d
000002d0: 9d16 bd3d a9f4 0f3e d99a b83d 2409 e53c
000002e0: 1b14 b8bd f1ea 95bd 9c5a 2dbd f398 793c
000002f0: 311e 683c 6cd5 26bd 6b8f 9fbc d5ea 92bc
00000300: 39d5 6bbd f44f 86bc 8437 e8bd 0028 03be
00000310: e05f 2dbb f2eb ccbb f076 e6bc 3df7 fdbd
00000320: 968d f23c 65ff 12bc 7644 d3bc 2699 8b3c
00000330: faeb 08ba 2d87 24bb 5c8f a6bc 9e26 c13c
00000340: 90a1 24bd 0c08 8dbd 76c9 94bd a53c 9bbd
00000350: ae3e fdbc c140 aa3c 4a80 a83c eaee 9abc
00000360: 742c 413e 0565 683e a6b9 1e3e 3056 dd3d
00000370: 9027 ca3d 8461 153e e9f8 f23d 98c9 42bb
00000380: dcab 79bd eb0d 4fbd 8965 25bd cdaa b63c
00000390: 2e67 5e3d d20d bcbc 1e1f 07bd 8e40 c33c
000003a0: 4f03 5cbd 8bfb a6bc 1bb3 8fbd 9626 b8bd
000003b0: 9d08 9a3b 3f99 fe3b a7f7 893b 8e0b f33c
000003c0: 1e7a bcbc ef9f 613d 9dce d13d 9544 1b3e
000003d0: 93f6 e73c adbb b03d 49fc 0e3e 6299 1c3e
000003e0: 3a45 493d 5ea3 b03d 037d a73d 5708 223c
000003f0: dbe8 5a3d 7666 22bd 4660 40bd e18d 8abd

tcn.network.2.conv1.bias f4 [10]
0.17342705 -0.0035028623 -0.08922218 -0.11956362 -0.109921984 0.1648023 -0.13913663 -0.045990076
0.045558624 0.041490376
00000000: dc96 313e 4790 65bb 1eba b6bd c5dd f4bd
00000010: c71e e1bd efc1 283e d579 0ebe 1760 3cbd
00000020: ae9b 3a3d d0f1 293d

tcn.network.2.conv1.weight_g f4 [10, 1, 1]
0.8834701 0.6608005 0.7638666 0.73874575 0.503387 0.9428401 0.81017286 0.9165805
0.9404329 0.9530833
00000000: 192b 623f 392a 293f c38c 433f 711e 3d3f
00000010: f8dd 003f f85d 713f 7d67 4f3f 05a5 6a3f
00000020: 36c0 703f 44fd 733f
